Language_Model/Neural_Language_Model/Saved_Models/neuralModel.pth (torch, 19491 bytes, 18 tensors)

weight_ih_l0 f4 [24, 70]
000000 11 3c 5d bf 2f 76 cf 3d 68 e0 d9 3f c1 f7 31 40
       -0.8641978 0.101299636 1.7021608 2.7807467
000010 ed 87 ea 3f 5e 6c a8 be 7f d2 a1 bd 73 0c b6 3f
       1.8322731 -0.32895178 -0.07901477 1.4222549
000020 88 6f c3 be 98 57 b6 3e 41 8e 4a bf 8c cb 43 3f
       -0.3817103 0.35613704 -0.7912331 0.7648246
000030 1a 69 b2 3f d9 2d 4f 3f 3f f9 2c c0 8b 30 53 3f
       1.3938324 0.8092933 -2.7027128 0.82495946
000040 5b 8c b6 3e 3e 68 87 be 94 65 f5 3d 22 f1 04 c0
       0.35653958 -0.26446718 0.11982265 -2.0772176
000050 a6 55 dc bd ef 08 3a 40 e7 4d 02 40 96 72 5b 3f
       -0.10758524 2.9067953 2.0360048 0.8572172
000060 fb 4a 3a 3f 0d dc 55 3f ea 24 c7 3d 99 f8 88 3f
       0.7277066 0.83538896 0.09723838 1.0700866
000070 0e 42 95 3f 7d 29 ed 3d f0 f4 1b 3e c6 d6 26 3f
       1.1660783 0.11580179 0.15230155 0.6517147
000080 6d 8f 55 bf 3c a6 7f 3e 7b b1 54 3d 41 17 48 3f
       -0.83421975 0.24965757 0.05192707 0.7816048
000090 a3 08 fe 3f d5 3e 03 3f c4 53 6c 3c 8d 69 9d 3e
       1.9846386 0.5126775 0.014424268 0.3074459
0000a0 90 27 70 c0 59 96 59 3d f7 e9 23 40 e5 7a 41 3f
       -3.7524147 0.0531219 2.561155 0.7557815
0000b0 6a 20 ca be 93 b9 47 be 01 29 54 40 98 9c 35 3f
       -0.39477855 -0.19504385 3.3150027 0.7094207
0000c0 91 ad 74 bf ed dd 4e c0 76 a0 16 40 b6 97 1a be
       -0.9557734 -3.2322953 2.3535438 -0.15096936
0000d0 09 3c d0 3f e2 b9 db bd e3 56 d3 3f 07 a3 bb 3e
       1.6268321 -0.10728814 1.6510891 0.36647817
0000e0 ad 0f 17 40 d3 2b 13 40 ab 26 6d 3f b0 72 7d 3e
       2.3603318 2.2995498 0.9263713 0.24750781
0000f0 e8 bb d7 3e 84 b6 95 bf e0 b7 aa 3f e6 3a 0e be
       0.4213555 -1.1696324 1.3337364 -0.13889655
000100 47 5d cc 3e 82 93 a5 3d 98 aa 77 bf 18 50 bc bf
       0.39914915 0.080847755 -0.9674468 -1.4711943
000110 ec 16 31 3f 49 d6 19 3f 11 ae 7b bd 90 61 7a 3f
       0.691756 0.600926 -0.0614453 0.9780512
000120 9a 46 aa 3f b0 97 13 40 5e 85 8c 3f 22 d5 0c bf
       1.3302796 2.3061333 1.09782 -0.55012715
000130 55 a4 83 3f 5a 3d cc 3f 0a 99 77 3f a8 f9 a5 3e
       1.0284525 1.5956223 0.96717894 0.32417035
000140 20 3f 1d bf 22 a9 07 c0 03 cf e9 3f 29 d7 b7 3f
       -0.61424446 -2.119698 1.82663 1.4362537
000150 9d 61 8a bf 1f a4 6e bd b0 95 48 3f 2c 06 ae 3e
       -1.0811039 -0.058261987 0.78353405 0.33989084
000160 69 75 ad 3e d1 63 c8 bf 4e 17 1e 3f 62 0a d3 3f
       0.3387864 -1.5655462 0.6175431 1.6487544
000170 6d 10 ad 3f c2 e9 e2 3e 9d 76 48 3f a3 19 c1 be
       1.3520638 0.44318968 0.7830599 -0.37714872
000180 92 5c e5 3d fb f4 98 3e 02 6c 9d bc 38 23 55 3e
       0.11199297 0.29874405 -0.019216541 0.20814216
000190 62 d3 21 3f 76 c4 04 3f a6 47 5d bd f1 04 ca bd
       0.6321317 0.51862276 -0.054023407 -0.09864224
0001a0 85 5c 91 3e 34 36 76 be 17 6f c6 3f 11 9d 23 3f
       0.283909 -0.24044114 1.5502652 0.6391154
0001b0 82 12 54 3e f3 4e a8 3e bb 45 1d 3f 3b c1 39 3e
       0.20710185 0.32872733 0.61434525 0.18140118
0001c0 a6 fe d9 3f 04 f4 90 3e a2 b4 b1 bd 18 eb 0d be
       1.7030838 0.2831117 -0.08677031 -0.13859212
0001d0 1f a0 ac be 83 17 15 3f b3 e8 e1 3d 15 85 3a bf
       -0.33715913 0.58239 0.11030712 -0.7285932
0001e0 32 5b 4e 3f 8f d2 0f bf 5d 1e 0d 40 36 73 58 3e
       0.80607903 -0.5618066 2.2049782 0.211377
0001f0 e6 fa b6 3c fd 99 5b 3e 67 ba 76 3f 4a 63 26 40
       0.022336435 0.2144546 0.9637818 2.5998101
000200 ea 39 51 3f 47 be 79 3f f4 18 6f 3f aa d6 c4 3f
       0.81728995 0.97555965 0.9339745 1.537801
000210 08 50 81 3f 9d 9c b7 be 10 ca ca 3f b4 43 00 3e
       1.0102549 -0.35861674 1.5842915 0.12525827
000220 6b f3 9e 3f 5a f1 1f 3f 20 f9 98 3f fa 6d 93 3e
       1.2418035 0.6247765 1.1951027 0.28794843
000230 5c 99 a4 3f 41 57 b9 3f f6 1e 08 c0 07 0c b3 be
       1.2859302 1.4479753 -2.1268897 -0.34970114
000240 d4 d3 08 c0 07 c4 98 bf ed 95 28 c0 ce a1 d0 be
       -2.137929 -1.1934823 -2.6341507 -0.40748447
000250 af 6a 80 be af b8 4a bd e6 60 20 3f b6 d4 12 bd
       -0.25081393 -0.049492534 0.62647855 -0.03584739
000260 f4 3a 84 3f 07 92 e1 3f f5 59 48 3f ca d8 18 3f
       1.0330491 1.7622689 0.78262264 0.59705794
000270 0d 0d c6 3e 19 9e cd 3e 9e c9 3f be 3c 93 a3 3e
       0.38681832 0.4015968 -0.18729255 0.31948268
000280 2d 5c d3 3e 56 d1 1c be 03 6a 68 bf 78 27 59 bf
       0.41281262 -0.1531423 -0.9078676 -0.8482585
000290 0e 66 4d 3f 26 e8 66 c0 4d 20 c2 bd 38 b3 6e 3f
       0.8023385 -3.6079192 -0.09478817 0.93242216
0002a0 7c a2 ba 3f d5 8b 9f be 47 4b 59 bf ba 0a f8 3f
       1.4580836 -0.3116137 -0.8488049 1.9378273
0002b0 57 45 1b 3f c1 6b 99 bf 11 91 d3 be d8 29 0e bf
       0.6065268 -1.1986009 -0.41321614 -0.555326
0002c0 af 8b 2d bf 8c 3d f6 3f da 8f c8 bf e3 a1 9d 3f
       -0.67791265 1.9237533 -1.56689 1.2315029
0002d0 eb c8 2a 3f 90 07 7a be 35 b8 b0 3d c0 0f 25 40
       0.66712826 -0.24416947 0.08628885 2.5790863
0002e0 1a 52 80 bd 1b c0 38 be 30 5c 17 3f d0 2b b6 bf
       -0.0626566 -0.18042032 0.5912504 -1.423212
0002f0 ec cf 05 3f a2 0f ff 3f 58 9a d7 bf 60 29 28 3f
       0.5227039 1.9926646 -1.6843977 0.65688133
000300 b3 a4 2b c0 38 1d 67 3e 21 92 6c 3f 2f 7d d9 bd
       -2.6819274 0.2256974 0.92410475 -0.1061958
000310 7f 62 64 bf f1 87 05 40 5f 5e c3 be f5 3e 4c c0
       -0.89212793 2.0864222 -0.38157937 -3.1913426
000320 16 d2 02 c0 85 0d d4 3f 61 49 12 3f 3a 9b b9 3e
       -2.0440726 1.6566626 0.5714322 0.3625124
000330 2c 82 b0 3f 41 30 c4 3e 4d 60 db be 37 09 1a 40
       1.3789725 0.38318065 -0.4284691 2.4068124
000340 aa 4e 00 bf 48 6c 37 3f 9f 4f cf 3f 8c 88 0c c0
       -0.5012003 0.716496 1.6196173 -2.1958342
000350 31 1a a5 c0 18 3b 96 40 dc 9a c8 c0 1e c7 2b bf
       -5.159447 4.6947136 -6.2689037 -0.67100704
000360 a1 ef 5f 40 27 bd b4 c0 c3 bc 92 c0 82 db 55 be
       3.4990008 -5.64809 -4.585542 -0.20884517
000370 b8 7d bd c0 79 52 6c 40 5c c3 06 c0 10 38 80 c0
       -5.9215965 3.6925337 -2.1056738 -4.0068436
000380 8c b5 d8 40 5f b4 ef bf 68 6d 2b 41 3e 6b fc bf
       6.7721615 -1.872692 10.7142105 -1.9720228
000390 40 7e b7 bf 15 94 2f c0 7d ca 9a 3f ae a0 37 c0
       -1.4335403 -2.7434132 1.2093045 -2.869182
0003a0 17 ac d9 3f d1 3a 6f bf 1d 3d 10 40 1c 99 f6 3f
       1.7005643 -0.9344912 2.25373 1.9265475
0003b0 74 1c 31 40 2d 6a aa 3f 16 3c f0 bf 9d 5f b8 3d
       2.7673616 1.3313652 -1.8768337 0.09002612
0003c0 b4 cf 09 41 c4 ca d4 3e 15 7c b4 3d c6 96 a1 c0
       8.613209 0.41560948 0.08812729 -5.049655
0003d0 04 b7 83 3f 32 1f fd c0 d7 e0 38 3f cd 71 b5 c0
       1.0290227 -7.910058 0.7221808 -5.6701417
0003e0 a2 59 47 bf f7 29 d8 c0 c1 1a 17 40 bf 39 ac bf
       -0.77871144 -6.7551227 2.361008 -1.3455123
0003f0 f3 a8 c9 bf af 8d a6 c0 2d 89 92 40 41 08 55 c0
       -1.5754684 -5.2047954 4.579245 -3.3286288

weight_hh_l0 f4 [24, 6]
000000 f2 b8 21 3f 63 a3 3d bf b8 89 9e 3f f8 0b a5 bf
       0.6317283 -0.74077433 1.2385778 -1.2894278
000010 27 0f 90 bf 11 04 08 3f 90 3e 4b 3f 47 e6 81 bf
       -1.1254624 0.53131205 0.7939234 -1.01484
000020 0e a3 65 3f 68 a0 1c bf eb ad 50 bf ad 7b 31 3e
       0.89701927 -0.6118226 -0.8151538 0.17332335
000030 02 ea 83 3f d2 07 61 bf a0 3f 11 be e0 50 c0 bf
       1.0305789 -0.8790256 -0.14184427 -1.5024681
000040 e6 85 90 be e8 f7 6a 3f b1 3f f2 3d 63 47 51 c0
       -0.28227156 0.91784525 0.118285544 -3.269982
000050 56 f5 ce be ff e4 da 3f 5f f1 f6 bf 36 42 d6 40
       -0.4042155 1.7101134 -1.9292411 6.6955824
000060 2a 1e 75 3f bb 1f 61 bf 19 b7 28 3e 4a 98 35 bf
       0.9574915 -0.8793904 0.16476096 -0.709355
000070 db 00 43 bf c9 c6 9c 3f 54 bd c6 3f 54 80 0b 3f
       -0.7617318 1.2248164 1.5526528 0.5449269
000080 ca 41 0b 3f 79 88 55 bf 4a e2 b2 40 08 47 53 40
       0.5439726 -0.83411366 5.590123 3.3012104
000090 2d 91 76 3f e3 97 75 bf 9f 58 d8 3f 5b 6a b0 bf
       0.9631527 -0.95934886 1.6902045 -1.3782457
0000a0 06 24 56 bf c6 1b 79 3f 64 ae a2 3f 4b b0 98 bf
       -0.8364872 0.97308004 1.270947 -1.19288
0000b0 78 1d df 3f d0 b6 fd bf fc 6e f4 bf 3d 04 33 3f
       1.7430868 -1.9821415 -1.909637 0.6992834
0000c0 98 c0 ae 3f 0f 46 b9 bf 59 85 87 3f 9b f2 75 bf
       1.3652525 -1.4474505 1.058757 -0.9607331
0000d0 f7 16 a9 bf d8 2e c7 3f 20 f8 b7 be e7 e8 91 3f
       -1.3210133 1.556117 -0.35931492 1.1399201
0000e0 94 f8 02 c0 3d d8 11 c0 14 09 41 c0 b8 71 7c bf
       -2.046422 -2.2788231 -3.016179 -0.9861102
0000f0 a0 9e aa 3f 6c a0 bd bf 05 03 4e 3f 1b fb be bf
       1.3329659 -1.4814582 0.8047336 -1.4920381
000100 a2 44 40 bf 50 b6 97 3f c4 c7 68 3f 1b ee fb 3e
       -0.75104725 1.1852512 0.9092982 0.49205098
000110 63 7a 93 3e 1c 54 76 c0 8c 1d 81 3e 53 8a 01 40
       0.2880431 -3.8488836 0.25217855 2.0240676
000120 5e 08 60 3f 68 55 6f bf a9 c4 d8 3f 31 90 3c bf
       0.8751277 -0.93489695 1.6935016 -0.7365752
000130 57 3b 29 bf 53 12 0b 3f 19 c9 15 be f5 8b cd 3e
       -0.6610617 0.54324836 -0.14627494 0.4014584
000140 a2 36 6e bf 4b b3 e2 3e f3 01 4e 3f ef 82 88 be
       -0.93052113 0.44277415 0.80471724 -0.26662394
000150 8f 68 a8 3f 4c 37 69 bf 6c a4 67 3f 01 65 a2 bf
       1.3156909 -0.911 0.9048526 -1.2687074
000160 56 be 36 bf 36 1f 8f 3f da da 7b c0 21 97 94 3f
       -0.7138418 1.11814 -3.9352326 1.1608621
000170 3f 8c 09 c1 b3 a7 f0 be 00 c8 8f bf 52 3f 05 40
       -8.59674 -0.47002944 -1.123291 2.0819898
000180 9a bf 50 bf 24 41 a0 3f c1 5f 96 be 25 78 97 3f
       -0.8154236 1.2519879 -0.2936993 1.183354
000190 96 b5 58 3f 31 74 7d bf e6 2f 8e bf 28 cd fd bf
       0.8465208 -0.9900542 -1.1108367 -1.9828234
0001a0 3e 81 06 3f 01 0b 4e 3f 13 a0 e6 c0 11 51 ee bd
       0.5254096 0.8048554 -7.2070403 -0.11636556
0001b0 6d 09 76 40 ab ea 07 c0 b3 e6 ae c0 a8 6d ba 40
       3.8443253 -2.123698 -5.4656615 5.825886
0001c0 f6 d0 4e 40 20 39 05 40 be a1 43 40 dd 55 2f c0
       3.231504 2.0816116 3.056747 -2.7396157
0001d0 05 05 a6 c0 8b e2 b7 40 a6 b8 5c 40 20 4c 00 40
       -5.1881127 5.746404 3.44877 2.0046463
0001e0 da 43 b9 bf 19 c0 19 3f ca 93 cb 40 87 6b 01 40
       -1.4473832 0.6005874 6.3617907 2.022188
0001f0 dc c4 1e c0 e0 f3 5e c0 00 4c 52 40 5c 20 2a c0
       -2.4807653 -3.483635 3.2858887 -2.658225
000200 0d 25 52 c0 05 54 b3 40 9a d8 80 40 89 39 e8 bd
       -3.2835114 5.6040063 4.0264406 -0.11339099
000210 69 e9 fe be 5d f2 40 bf 86 7a 8f bf 93 ea 9b be
       -0.49787453 -0.75369817 -1.1209266 -0.30452403
000220 26 6c fd 3f 6f 0b 3c 3f 51 41 92 3f 16 d6 01 40
       1.9798629 0.73454946 1.1426183 2.0286918
000230 1a ab 93 3f d8 f0 3a 40 f2 44 cd c0 8d ca 2b c0
       1.1536591 2.92095 -6.414666 -2.6842377

bias_ih_l0 f4 [24]
000000 69 1d 1f 3f 51 67 96 3f 6b a5 a0 3d a7 e6 90 bf
       0.6215425 1.175028 0.07844051 -1.132039
000010 81 e8 d6 be 59 b1 07 3f 4b ae a0 3f ae 7b 6a 3f
       -0.4197426 0.53004986 1.255319 0.9159497
000020 d5 df 89 3f 0d 31 0c 3d 90 83 73 3f b9 5e 9c bf
       1.0771433 0.034226466 0.95122623 -1.2216407
000030 47 53 9c 3f 95 7d 98 bf 2d f9 88 3f 6f 33 f3 bf
       1.2212914 -1.1913325 1.0701042 -1.9000071
000040 c5 b4 89 bf ed 17 f7 3e 06 a7 f5 be 60 c8 eb be
       -1.0758291 0.4826044 -0.4797899 -0.46051311
000050 61 8f 6d be d3 fb 46 bf d0 ba f5 bf e9 6f 37 bf
       -0.23199226 -0.77728003 -1.9197636 -0.71655136

bias_hh_l0 f4 [24]
000000 5f bc 20 3f 07 82 91 3f 00 7d 27 3f f1 69 8f bf
       0.6278743 1.1367806 0.6542511 -1.1204206
000010 e3 f4 01 bd 75 4e 42 3e 4d 0c 74 3f c0 73 6d 3f
       -0.031727683 0.18975241 0.9533127 0.92754745
000020 fe 0a a0 3f af a1 1c be ea 7d 7c 3f a5 8f 8b bf
       1.2503355 -0.15296052 0.9862963 -1.0903212
000030 c0 e2 ae 3f 5a fb 9d bf dc bb 0a 3f b3 f5 af bf
       1.3662949 -1.2342331 0.541929 -1.3746856
000040 ed f4 63 bf 41 f1 78 3e 7a fc cc be 27 95 6f bf
       -0.890456 0.24310781 -0.40036374 -0.93586963
000050 4c 3d e5 be 7a 84 5b bf 00 87 a2 bf 68 84 02 bf
       -0.44773328 -0.8574902 -1.2697449 -0.50983286

weight_ih_l1 f4 [24, 6]
000000 f1 a7 b8 3f 89 f0 9c bf ea 98 c4 3f bf 48 95 be
       1.4426252 -1.2260906 1.5359166 -0.29157063
000010 8a c7 d5 bf a8 58 f6 3f 1d 10 17 40 11 7c 70 bf
       -1.670152 1.9245806 2.3603585 -0.9393931
000020 e5 8e 53 3f 7b d5 1f c1 f1 05 f8 bf 8c 7b 82 c0
       0.82639915 -9.989619 -1.9376813 -4.0775814
000030 47 77 22 40 a1 59 f5 bf b6 8b dd 3f 6a 90 5e c0
       2.53853 -1.9167978 1.7308261 -3.4775643
000040 3d 12 52 3f 4a 75 0c 40 3f 2d 07 c1 a4 8d f7 c0
       0.8205908 2.1946588 -8.448546 -7.73604
000050 b5 cd 7d be 8d d2 78 c1 b1 54 a1 41 70 48 30 40
       -0.24785502 -15.551404 20.166353 2.7544212
000060 eb d9 17 3f c9 32 96 bf 40 d3 cd 3f 44 6f 78 c0
       0.5931689 -1.1734248 1.6080093 -3.881791
000070 61 15 f6 3f 63 d7 7f c0 e7 8c 68 40 1a 05 e4 c0
       1.9225274 -3.9975212 3.6336 -7.1256227
000080 0f 02 ec 3d 6c 31 6d c1 21 07 82 41 18 bd 12 41
       0.1152383 -14.824566 16.25348 9.171165
000090 93 d7 b6 3d 38 d4 03 bf 84 d1 62 3e 14 5c 8c bf
       0.08927836 -0.51495695 0.22150236 -1.09656
0000a0 fb ee 0a 3e 4b 9d 53 3f fb 96 8c 40 71 aa 91 c0
       0.13567726 0.82661885 4.39343 -4.552056
0000b0 31 83 85 c1 c7 5a a2 c0 34 20 05 41 31 9b 84 c0
       -16.689058 -5.073581 8.320362 -4.1439443
0000c0 47 80 f1 3e a2 54 28 c0 14 26 ae 3d fc d6 b5 c0
       0.4716818 -2.6301656 0.085033566 -5.682493
0000d0 b1 42 df bf 45 c5 b6 3f fc da f2 40 19 19 e8 3f
       -1.7442228 1.4278952 7.5892315 1.8132659
0000e0 ee 59 9d bf 99 e9 73 bf 06 17 8b c0 da 59 6d 40
       -1.2293069 -0.95278317 -4.3465605 3.708609
0000f0 ef 33 30 40 ab 60 4e c0 96 f1 4c be 0c 2d d8 c0
       2.7531698 -3.2246501 -0.20014033 -6.755499
000100 2b 96 52 c0 1e 23 5f 40 18 97 11 40 56 c4 3c c0
       -3.2904155 3.4865184 2.274847 -2.9494834
000110 91 07 cf c0 65 5c bb c0 0a 14 fe 40 56 b7 25 40
       -6.4696736 -5.8550286 7.939946 2.589315
000120 70 c0 7a 3f 09 d7 37 bf 5c 60 c2 3f eb d9 1f bf
       0.97949886 -0.7181249 1.5185657 -0.6244189
000130 50 75 89 bf 6d ef 96 3f 40 a5 0a c1 cb 62 95 41
       -1.0738926 1.1791817 -8.665344 18.673239
000140 27 82 63 bc 60 ba cf 41 49 cd 0e bf 70 fa 99 40
       -0.013886011 25.966003 -0.5578199 4.811821
000150 62 78 93 40 e8 e5 ee c0 d5 2c 80 3d 27 e4 0e c1
       4.608445 -7.4655647 0.06258551 -8.930701
000160 06 e1 53 3f ff 9f 55 3f c3 f3 d5 bf bd d7 c0 bf
       0.82765234 0.8344726 -1.6715015 -1.5065838
000170 d6 66 e3 3e 67 7c 50 c0 b9 6a d8 40 62 dc ab 3f
       0.44414395 -3.257593 6.7630277 1.342663
000180 0a a8 af c0 7d 54 18 41 15 87 65 be ef fb bc 40
       -5.4892626 9.520627 -0.22414811 5.9057536
000190 2b 7a 02 41 de 5e 0d 40 47 3a 19 41 b5 e4 9e c1
       8.154826 2.2089152 9.576728 -19.861673
0001a0 1f 31 79 3c bd 58 16 c2 b8 e1 ff bf 7d c2 94 c0
       0.015209465 -37.58666 -1.9990759 -4.6487412
0001b0 1d bd ca 40 ed eb f9 c0 61 1d 9e bb aa 73 99 c1
       6.335585 -7.8100495 -0.0048252796 -19.181477
0001c0 8f 60 f8 41 91 b5 b4 c1 07 c3 a0 40 ed 57 ce 3f
       31.047148 -22.588655 5.023807 1.6120583
0001d0 2d 72 9f be fa 4e dd c0 d0 40 6f c0 61 16 89 c0
       -0.31141797 -6.9158907 -3.7383308 -4.283982
0001e0 e7 36 f8 40 e6 d5 90 c0 5b 98 03 3e 62 94 46 c1
       7.756702 -4.5261106 0.12851088 -12.411226
0001f0 40 96 93 40 99 21 a0 c0 a1 3c 4f 41 e1 9a 7d c1
       4.612091 -5.0041013 12.952302 -15.850312
000200 22 15 63 3f 35 42 c4 c1 b6 8b 35 41 00 5f b1 c1
       0.8870412 -24.532328 11.346609 -22.171387
000210 b8 f4 b7 40 a0 12 49 c1 b5 8a 6c bc be a4 f0 c1
       5.748623 -12.567047 -0.014437367 -30.08044
000220 b7 2e 01 41 7b 59 a7 c1 6c e6 e8 bf e6 7e cf c0
       8.073905 -20.918692 -1.8195319 -6.4842405
000230 a0 81 df 3d b7 0b 53 c1 0e 38 de 41 9f 11 99 c0
       0.10913396 -13.19036 27.77737 -4.783401

weight_hh_l1 f4 [24, 6]
000000 92 5c 2f 3f c2 55 29 be 74 ba 1c 3f 60 5d 76 be
       0.68500626 -0.1653662 0.61222005 -0.24059057
000010 cf a4 20 bf 48 34 6c 3f be ab d9 40 ca fe 0b 3f
       -0.6275148 0.92267275 6.8022146 0.5468565
000020 b9 1a 1d be 3e 6e 08 41 87 b4 42 c1 10 ae 28 40
       -0.15342225 8.526915 -12.169074 2.635624
000030 4e a7 90 3f 14 35 34 c0 8a d1 ed bc a5 49 f2 3e
       1.1301057 -2.8157396 -0.02903058 0.4732181
000040 ad 00 6d 3f bf a3 05 3e c5 81 1b 3f f3 c4 29 c0
       0.92579156 0.13050745 0.6074489 -2.6526458
000050 82 e4 8a bf 4d b3 6f 3f 6a 57 72 3f 13 78 b0 bd
       -1.0850985 0.93632966 0.94664633 -0.08616652
000060 e8 62 3a bf 2f 49 4a c0 22 95 28 bf 2a 27 43 40
       -0.7280717 -3.1607168 -0.6585256 3.0492654
000070 fa 69 9e 3f e7 c9 16 3e fb 09 84 be dd 79 2a c0
       1.2376091 0.14725457 -0.25788864 -2.663688
000080 86 2e 4e 40 95 32 5f c0 a2 1b 8a be 9b b2 70 3f
       3.2215896 -3.4874623 -0.26974207 0.9402253
000090 f8 24 0d 3f 38 4d a4 bf ca fb bd 3e 3d 55 d4 3e
       0.55134535 -1.2836065 0.37106162 0.41471282
0000a0 85 99 2a bf 45 e5 fc 3e b9 78 2a 3f 89 b4 e6 be
       -0.666405 0.4939367 0.6659046 -0.45059612
0000b0 c4 3f 2a 3e ed 30 2e 3e 38 f2 e8 be 21 dd 19 bd
       0.16625887 0.17010851 -0.45497298 -0.0375644
0000c0 57 c8 ff 3f f2 7e b3 bf eb 32 f4 bf cd 09 46 40
       1.9983014 -1.4023116 -1.9078039 3.0943482
0000d0 2d e7 05 bf 14 25 81 bf 83 72 5b 3c 7e da 8a 3e
       -0.5230587 -1.008944 0.013394001 0.2711982
0000e0 d7 8c df 3c 79 3a 34 c0 39 73 a9 3f d8 d7 f4 be
       0.027288837 -2.816069 1.3238288 -0.47820926
0000f0 2a 87 8c 3f b1 e8 f6 be ea 8e 00 c0 71 10 45 40
       1.0978749 -0.48224404 -2.0087228 3.0791285
000100 3b 4d 38 3c a4 ac 8b bf 12 09 f2 3f d2 41 53 c0
       0.011248882 -1.0912061 1.8909018 -3.3008924
000110 95 44 d3 3f e0 85 05 3f 2c 86 b4 3e f8 ab 3e 3f
       1.6505305 0.521574 0.35258615 0.74481153
000120 7a ff 1c 3f 9c c8 b1 3f 57 7c 34 3f 2e 5e 0d be
       0.61327326 1.3889346 0.7050223 -0.13805458
000130 38 c8 a8 bd 2b 5e 06 3f 9f 96 7a be 72 ee 4c be
       -0.08241314 0.5248744 -0.2447152 -0.20012835
000140 bf 03 e3 3c be ad a7 3c 6a 49 f1 bd 0b d6 0a 3e
       0.027711747 0.020468589 -0.11781581 0.13558213
000150 91 35 8b 3e 1e 9b ab c0 46 25 fe bf 47 26 0d 40
       0.27189305 -5.362685 -1.9855125 2.2054613
000160 4a 04 ac 3f ad 34 39 c0 a5 13 06 40 46 1f fb 3f
       1.3438809 -2.89384 2.094949 1.9618919
000170 6d 58 1f 3e 49 3f 91 3f f7 19 bc bf 5d 5b d5 3f
       0.15561076 1.1347438 -1.4695424 1.6668507
000180 ff d1 45 c0 5a ec d6 40 f4 3a b7 3f c7 58 1d 40
       -3.0909421 6.7163515 1.4314866 2.4585435
000190 e7 98 ae 3f 65 e9 87 40 57 07 19 3f ed b5 5e bd
       1.3640412 4.2472405 0.59776825 -0.054372717
0001a0 48 99 96 be 6f de 29 be fb d3 3b 3e fb 52 a2 be
       -0.2941382 -0.16588758 0.18342583 -0.31703934
0001b0 c0 19 23 3f 9d ef 47 bf a5 59 95 be df e0 a0 3d
       0.63711166 -0.78099996 -0.29169956 0.07855391
0001c0 39 04 4d be cd 97 52 3e 37 44 a4 bf 67 bd 54 3c
       -0.20021142 0.2056572 -1.2833318 0.01298461
0001d0 74 56 8c 3e a2 5d 21 3e 1a 83 07 bf 2f 68 4b 3e
       0.27409708 0.15758374 -0.5293442 0.19863962
0001e0 dd 40 31 40 b5 de 01 bf 4d 8c 65 bf f0 6c 01 bf
       2.769584 -0.5073045 -0.89667207 -0.5055685
0001f0 89 a8 73 3f 3e 37 27 be f2 d9 b7 3f 15 52 b3 3e
       0.9517904 -0.16329667 1.4363387 0.3502356
000200 cd 7c 94 bf a8 66 ad bf 49 b2 7f bf d1 a2 0b bf
       -1.1600586 -1.3546953 -0.99881417 -0.54545313
000210 69 e6 a8 3f 43 2c 98 3a 9b 65 db be e4 03 55 3b
       1.3195316 0.0011609871 -0.42850956 0.003250354
000220 0b 1d a7 3e 34 74 a1 3d ef 57 b3 bd 96 30 62 3f
       0.32639346 0.07883492 -0.087570064 0.88355386
000230 8a 2c 8c bf 3f 46 18 bf 95 0c a3 bf 91 e2 82 3d
       -1.0951092 -0.5948219 -1.2738215 0.0639087

bias_ih_l1 f4 [24]
000000 c2 69 2a 3f 6c bd 0f 3f c3 d7 10 3f 4b 36 07 c0
       0.66567624 0.5614841 0.56579226 -2.1126888
000010 84 89 75 3f e2 69 c7 be 8c b6 27 3f 67 50 2f c0
       0.9591296 -0.3894797 0.6551292 -2.7392824
000020 b0 83 0c be 0c be c0 bf 32 6d fe be e8 60 60 c0
       -0.1372211 -1.5057998 -0.49692684 -3.5059147
000030 a8 5f 3b 3f 96 06 6b 3c 0f ec d4 3d 38 5e cf 3f
       0.73192835 0.014344832 0.10396587 1.6200628
000040 d5 21 b7 be 78 41 98 3e 15 e2 6d c0 02 fd 1c c0
       -0.35768 0.2973745 -3.716924 -2.4529424
000050 c4 70 80 c0 ac e2 0b c0 5d cd 64 c0 aa 52 21 c0
       -4.0137653 -2.18571 -3.5750344 -2.5206704

bias_hh_l1 f4 [24]
000000 9d 6a 37 3f 05 c5 28 3d dd 98 26 3f 7c c4 06 c0
       0.71647054 0.041203517 0.65077 -2.1057425
000010 f7 4d 52 3f 3a d1 bd be 57 57 3b 3f 90 f6 26 c0
       0.82150215 -0.3707369 0.73180145 -2.608799
000020 78 cd a4 be 66 6b 97 bf 48 48 9b 3c 09 83 73 c0
       -0.3218801 -1.182965 0.018955365 -3.8048728
000030 59 c2 06 3f db 7e 15 bd 5f dc 07 be 81 3c 9c 3f
       0.526403 -0.036497932 -0.13267659 1.2205964
000040 d0 3c a7 3d 9a 8c 9d be ec 90 81 c0 cd cd 25 c0
       0.08165896 -0.30771333 -4.0489407 -2.590686
000050 ae 10 72 c0 49 d3 ec bf ad ad 3a c0 2a c4 02 c0
       -3.782268 -1.8501979 -2.9168503 -2.043223

weight_ih_l2 f4 [24, 6]
000000 61 72 c5 40 12 c2 a9 c1 5e 6b 7e 41 4f 80 a3 41
       6.1702123 -21.21976 15.901213 20.43765
000010 9d 83 8c 3e 62 94 e5 41 23 f1 95 41 e9 aa 92 c1
       0.27444163 28.697453 18.742743 -18.333452
000020 a8 ce c1 41 c0 f2 0a 42 4d 51 5d c0 d8 36 67 41
       24.225906 34.73706 -3.4580872 14.45089
000030 fd f9 5f 41 81 4c 1c c2 56 bd 59 41 fc a3 00 42
       13.998532 -39.07471 13.608725 32.16014
000040 93 ca 25 c0 e2 44 6c 41 50 06 5b 41 5b 2e e1 c1
       -2.5904891 14.766817 13.689041 -28.147635
000050 28 6a fe 41 c7 d7 e1 41 23 c4 01 c0 1e 27 07 41
       31.801834 28.23036 -2.0275962 8.44705
000060 17 e5 71 3f 8d da 69 3f 38 be 8d 3f c8 c6 b5 3e
       0.9449019 0.9134911 1.1073675 0.3550322
000070 20 ac 28 bf 86 33 8b 3f 14 e2 a5 3f e1 53 ee bf
       -0.6588764 1.0875099 1.2959619 -1.8619348
000080 c2 38 cb 3f 29 4b 33 40 d5 93 15 3f 09 f9 6d be
       1.5876696 2.8014624 0.584287 -0.2323953
000090 14 2d a3 41 4f 0b 90 c1 78 99 c8 41 2f 11 aa 41
       20.39701 -18.005522 25.074936 21.25839
0000a0 95 cc 3a c0 69 da ab 41 d2 78 af 40 de 3c 80 c1
       -2.9187367 21.481646 5.4834986 -16.02972
0000b0 53 58 80 41 cb bb 99 41 bd b6 3b 40 74 31 9f 41
       16.043127 19.216696 2.9330285 19.899147
0000c0 83 cd 80 40 2e 59 31 c1 df db 07 41 a1 58 71 41
       4.025087 -11.084272 8.491179 15.084138
0000d0 e1 bb 7e 40 cb 30 4c 41 8e 69 d8 40 4c cb 8a bf
       3.9802172 12.761912 6.762885 -1.0843291
0000e0 86 a9 72 40 3b df 14 41 59 86 f8 bf 7b 16 f7 40
       3.791597 9.3045 -1.9416 7.721494
0000f0 b7 3b b0 3e ad a4 d9 3f 66 b5 8f 3e 9b af b6 3d
       0.3442056 1.700338 0.28068084 0.08920213
000100 a4 28 1e bf 8b 22 a5 3d 7c 11 ac 3f ec f1 25 c0
       -0.6178076 0.08063229 1.3442836 -2.5928907
000110 1a ca 70 40 95 6d 6d 40 c7 d9 30 bf 6c 77 13 40
       3.7623353 3.7098134 -0.690823 2.304164
000120 56 4b 01 3e be ad b0 40 9f 36 93 c0 35 e0 bf c0
       0.12626395 5.521209 -4.6004176 -5.996119
000130 82 1c 1b 3e 34 60 2b c1 ec 26 31 42 97 d9 7e c1
       0.15147594 -10.710987 44.28801 -15.9281225
000140 37 55 5f 42 75 f2 5c 42 70 9f 7c c1 40 ca 27 42
       55.833218 55.236774 -15.788925 41.94751
000150 9b e8 32 c2 94 3e 85 42 f7 86 5b c1 2c 3c 6a c2
       -44.727154 66.62222 -13.72045 -58.55876
000160 9a 06 ef 41 be a6 37 c2 da bb 15 c2 e9 6d 4e 42
       29.878223 -45.912834 -37.43345 51.607334
000170 4f 23 2d c2 66 8a 9a c0 d0 9e 09 41 5b cf fb c1
       -43.28448 -4.8293943 8.601273 -31.476248
000180 91 44 bc 3e d4 90 83 3f 8b 43 57 3f 0f 23 21 3e
       0.36771062 1.0278573 0.8408744 0.1573603
000190 7b 94 4f bf 15 5c 3d 3f e4 33 92 be bc d4 28 3f
       -0.8108594 0.7396863 -0.28555214 0.65949607
0001a0 c8 6d 10 bf e1 b0 cf bf 7b 94 9c 3e 6e 5a 4b 3d
       -0.5641751 -1.6225854 0.30582032 0.049646787
0001b0 c7 55 e3 41 bf b2 bc c1 c9 13 aa 41 3f ce cd 41
       28.416883 -23.587278 21.25966 25.725706
0001c0 59 a8 38 c0 7a d1 8b 41 28 47 ef 41 a8 85 1b c2
       -2.8852751 17.477283 29.909744 -38.880524
0001d0 87 41 31 42 c7 03 4a 42 e3 5f 51 c0 2c 65 91 41
       44.31399 50.50369 -3.2714775 18.1744
0001e0 9e b2 07 42 c2 87 53 c2 70 3f 10 42 42 c7 4f 42
       33.92443 -52.882576 36.06195 51.944588
0001f0 75 fe 89 c0 f8 88 a8 41 0e 22 e0 3f b9 2d fe c1
       -4.3123116 21.06688 1.7510393 -31.772326
000200 c7 ae f6 41 18 0b fc 41 e7 d1 88 bf 06 96 20 41
       30.83534 31.505417 -1.0689057 10.036627
000210 f1 36 d1 c0 e2 4d 40 41 d9 5b 95 c1 7b ea 97 c1
       -6.5379567 12.019014 -18.669847 -18.989492
000220 77 e3 b4 41 ce b7 f6 c0 b5 3f ac 41 7f e3 35 c2
       22.611067 -7.709937 21.531107 -45.472164
000230 57 ae 28 42 e9 9a 2d 42 5d 68 e5 c0 d4 c5 05 42
       42.170254 43.40128 -7.1689897 33.44319

weight_hh_l2 f4 [24, 6]
000000 b1 64 fc bf d6 ff 11 c1 a8 25 f6 40 3e ee ea 40
       -1.9718229 -9.12496 7.6920967 7.3415823
000010 13 50 f5 3f cd 1f c9 40 4d 5e 21 c0 91 05 7b bf
       1.9165062 6.285132 -2.5213807 -0.9805537
000020 f5 45 16 3f e9 f3 ab bf c2 f1 d1 be 45 07 6f 40
       0.58700496 -1.343381 -0.4100476 3.7348187
000030 bc 8c 87 c0 0c 79 60 bf bf 43 e2 be f8 db ec 3f
       -4.2359295 -0.876847 -0.4419231 1.8504629
000040 7a 38 e8 3f 5c 13 2b 40 55 f9 86 3f bf eb a5 bf
       1.8142235 2.6730566 1.054484 -1.2962569
000050 8d 33 46 bf 1b 1e 28 40 58 4a 87 3f a6 e6 f6 bd
       -0.7742241 2.6268375 1.0569563 -0.120557114
000060 95 87 62 3e f4 2a 9e 3e 5d 8b 2f bf 66 c1 33 bf
       0.22122033 0.30892146 -0.68572026 -0.7021698
000070 c4 87 03 3f 5c 04 a0 be d9 b0 99 3f 44 d8 40 bf
       0.51379037 -0.31253326 1.2007095 -0.75329995
000080 68 20 3b 3f 60 70 16 bf 98 21 a3 be ad 24 ae 3e
       0.73096323 -0.5876522 -0.31861567 0.34012356
000090 54 19 29 3d b9 bc a7 3f 42 9d 0a bf 4f 99 b9 bf
       0.04128392 1.3104469 -0.54146206 -1.4499911
0000a0 ed ed be 3e f2 69 27 40 94 4d 41 40 d0 27 4b c0
       0.37290898 2.6158414 3.02036 -3.174305
0000b0 21 78 60 40 39 e1 b5 be e1 c1 95 bf 4c ec 40 40
       3.507332 -0.35523394 -1.1699792 3.0144224
0000c0 68 3e f6 bd 38 18 9f bf 02 b3 8f 3f 71 a6 c8 3f
       -0.12023622 -1.2429266 1.1226504 1.5675794
0000d0 30 75 56 3f f4 04 ee 3f 2c 49 bd 3f 20 f3 d5 bf
       0.83772564 1.8595262 1.4787955 -1.6714821
0000e0 e2 c7 90 3f 23 cb 09 40 4c a4 94 be f3 50 84 3f
       1.1310999 2.1530235 -0.290316 1.0337204
0000f0 f5 e1 73 bf 25 78 5e 3f 4c cd 3f bf 84 e3 0e bf
       -0.9526666 0.86902076 -0.74922633 -0.5581591
000100 01 3d 4e 3f 01 87 5b bf 3a 83 82 bf b0 83 63 3f
       0.80561835 -0.85752875 -1.0196297 0.88872814
000110 64 aa 42 bf 7a 9c 06 be 09 5e a0 be 28 96 a7 be
       -0.76041245 -0.13145629 -0.31321743 -0.32731748
000120 cc 20 9b 3f 20 25 9f be 1d db bf 3e 81 14 9c 40
       1.2119384 -0.31083012 0.37471858 4.877503
000130 73 6a 8e 3e 24 02 0e 3f 4e 7d 47 3d 21 f0 12 3e
       0.2781559 0.55472016 0.048703484 0.14349414
000140 d2 5e af be 20 a3 02 3f 6c 64 45 3d 33 06 0e 3d
       -0.3425203 0.5103016 0.048191473 0.03467388
000150 fe ef 94 39 2e 65 db be b6 4a 55 3c be 68 f1 be
       0.00028407568 -0.4285063 0.013018301 -0.47150224
000160 68 b4 8e 3d c0 ea 85 3d cc 8e 86 bd 28 d4 c2 bc
       0.069680035 0.06538916 -0.06570205 -0.023782805
000170 51 e6 15 be 9f 51 55 3b 04 74 bc 3c ea 8d 36 3d
       -0.1463864 0.003254987 0.02300454 0.044568934
000180 14 01 17 bf d6 89 02 3f 7a 7b e4 be af fc 37 bf
       -0.5898602 0.5099157 -0.44625455 -0.7186994
000190 d1 b6 8a 3d d9 b7 98 be 13 c7 f3 bd c3 bf ef 3e
       0.06773151 -0.29827765 -0.11903205 0.4682599
0001a0 82 cc 91 be 9a af 59 be a0 7b e5 be 8e 1e 3f bf
       -0.2847634 -0.21258393 -0.4482088 -0.74656
0001b0 d7 b5 4d c0 74 0d 8c bf f7 0d 12 3f 03 21 8c bf
       -3.2142236 -1.0941606 0.5705256 -1.0947574
0001c0 9a 02 eb be 61 ed 6e 3f 8a e6 75 40 b3 b2 61 bf
       -0.45900422 0.9333096 3.842196 -0.881633
0001d0 b7 6e 63 bf df f5 97 3e 0a 60 e0 3e 71 11 be bf
       -0.8884081 0.29679772 0.43823272 -1.4849073
0001e0 0f 2f 41 40 1d cf b4 be 85 2f ba 3e e0 c6 f3 bd
       3.0184972 -0.35314265 0.3636438 -0.11903167
0001f0 8c 7f a6 3e dd df b2 bf 73 c5 ec 40 83 96 66 bf
       0.32519186 -1.3974568 7.3991027 -0.9007341
000200 9a a9 51 c0 a9 a1 ce c0 29 5d 87 3e 55 d9 7e c0
       -3.2759767 -6.457234 0.26438263 -3.982015
000210 5f 39 0d 41 5f 82 5d 3f 0b f6 a0 3e ce ef 31 bf
       8.826507 0.86527056 0.31437716 -0.6950654
000220 59 9f 10 40 a5 13 0b 40 cb ea d3 3f b2 b0 2d bf
       2.2597258 2.173074 1.6556028 -0.6784774
000230 f1 34 80 3f 71 f7 b8 3f 72 22 21 c0 62 49 f7 bf
       1.0016156 1.4450513 -2.5177274 -1.931927

bias_ih_l2 f4 [24]
000000 eb 53 eb c0 55 f3 b5 3f c4 d4 e2 3f c1 d1 1e 3f
       -7.353994 1.4214884 1.7721181 0.6203881
000010 ae 9e 49 be 34 4e b0 3e b9 c8 9a bf 65 99 cf c0
       -0.19689438 0.34434664 -1.2092506 -6.487475
000020 de 10 54 c0 39 c3 1c c0 f4 3a 19 3f 15 b1 85 3f
       -3.3135295 -2.4494154 0.5985558 1.0444666
000030 37 56 05 be 50 ab c9 3c cc fb 99 bd 75 3f 39 bc
       -0.1302117 0.024617821 -0.075187296 -0.011306633
000040 99 cd 15 3f 4e db 1d bf 56 26 eb bf 65 1d 00 bf
       0.5851684 -0.6166276 -1.8371074 -0.5004485
000050 89 90 82 bf 7f 0a 9e bb d1 2b 20 c0 67 a5 21 c0
       -1.0200359 -0.0048230286 -2.5026743 -2.5257204

bias_hh_l2 f4 [24]
000000 9d 08 f1 c0 ca 04 cb 3f ac 54 d9 3f 2b 54 84 3d
       -7.5323014 1.5860837 1.6978965 0.06461366
000010 fe 8f 3f 3e 0e 1e c5 3e 0b d4 4e bf 76 f9 cd c0
       0.18707272 0.38499492 -0.807923 -6.436702
000020 71 cb 68 c0 7f 0b 28 c0 92 e8 6c 3f 50 95 71 3f
       -3.637417 -2.6257017 0.92542374 0.9436846
000030 ee 9f ef 3e de e0 d9 bd b9 f1 12 3e ae 53 12 3d
       0.46801704 -0.10638593 0.14350022 0.035724334
000040 6b 96 27 3f fe e3 82 bf 4f 9e f9 bf b7 71 fc be
       0.65463895 -1.0225828 -1.9501437 -0.49305508
000050 ec d7 33 bf b5 7c 2e be 48 3d 1e c0 11 bc 3b c0
       -0.70251346 -0.1703976 -2.4724903 -2.9333537

weight_ih_l3 f4 [24, 6]
000000 83 3e 8f bf b5 30 7b 3f ad 0d 97 bf 63 1e ab bf
       -1.1190952 0.98121196 -1.1801049 -1.3368648
000010 c9 2a 5d be dc 0f 3c bf cf bd 6d bf f3 45 af 3f
       -0.21598352 -0.734617 -0.9286775 1.3693222
000020 78 b8 81 bf 24 04 1b bf 7e 2f b8 3e 66 95 8d bf
       -1.013442 -0.60553193 0.35973734 -1.1061218
000030 a3 c2 e2 be 30 d2 11 3f 79 07 b7 be 8f 45 14 3d
       -0.4428912 0.56961346 -0.3574789 0.03619915
000040 63 75 d1 3e 1a 81 da be 78 21 e2 be 73 4f 96 3e
       0.4090987 -0.42676622 -0.4416616 0.2935749
000050 d5 b8 89 bf 44 fe 1e be 7a a1 b2 3e 39 75 06 bf
       -1.0759531 -0.15526682 0.34888822 -0.5252262
000060 42 ad 20 bf a4 00 34 3f 85 64 02 bf 18 76 50 bf
       -0.6276437 0.7031348 -0.5093463 -0.81430197
000070 1f 99 0a 3e 5d 9e 1e bf 34 4d f7 bf 14 f9 9a 3f
       0.13534974 -0.61960393 -1.9320436 1.2107263
000080 bf 4f b0 bf 14 12 92 bf 8e 82 19 c1 6c 2c fd bf
       -1.3774337 -1.1411767 -9.594374 -1.9779181
000090 e9 87 30 bf a0 e4 1f 3f f0 22 eb be ef 6b c2 be
       -0.6895738 0.6245823 -0.45925093 -0.37972972
0000a0 92 b9 2b 3f f0 5e 26 bf a9 a9 3f bf 5c d8 c3 3e
       0.6708003 -0.64988613 -0.74868256 0.38251007
0000b0 a4 b6 8e be 2e 24 42 bf 22 c1 78 3e a7 07 58 bf
       -0.2787372 -0.75836456 0.24292424 -0.84386677
0000c0 ee a5 10 bf da 70 29 3f a8 e3 51 bd fd 87 dd be
       -0.5650319 0.6618782 -0.0512425 -0.43267813
0000d0 7c 2b 1e 3f 02 50 a6 be de 9e 11 bf 90 bd 92 3f
       0.617851 -0.32482916 -0.5688304 1.14641
0000e0 19 bf f1 be bb 42 64 bf b2 b5 41 3f 18 27 e3 be
       -0.47216108 -0.8916432 0.7566787 -0.44365764
0000f0 40 1f 9c be 3b c7 66 3e ba ec 30 bf b1 49 2b be
       -0.30492592 0.22536938 -0.69111216 -0.1672733
000100 03 1f 3f 3f 17 69 c8 be e2 10 80 40 96 8b 48 c0
       0.74656695 -0.39142677 4.002061 -3.1335196
000110 78 0e 5b 40 b1 e4 32 40 22 d6 ce 3f 96 85 31 40
       3.422758 2.7952082 1.6159098 2.7737784
000120 fc 9b 1a 3f 1a 49 49 bf 1d 64 62 3f 8c 1c 7a 3f
       0.60394263 -0.7862717 0.8843401 0.9769981
000130 d1 c8 c1 3d 7e c0 6d 3f 6d dd 1e bf dd b8 81 3f
       0.09462131 0.92871845 -0.6205662 1.0134541
000140 21 41 70 bf 05 27 64 bf c0 b3 3c 3f bb 48 04 bf
       -0.9384938 -0.8912204 0.73711777 -0.5167348
000150 73 68 33 3f 21 fc e5 be 00 3c 08 3f a3 c6 85 3d
       0.7008125 -0.44918922 0.5321655 0.065320276
000160 cf 91 c3 be fc 80 ed 3e f5 41 44 bf 61 cd 02 3f
       -0.3819718 0.4638747 -0.7666314 0.51094633
000170 39 57 12 be 12 59 09 bf ae 6f dc 3e dd 90 c4 be
       -0.14291085 -0.53651536 0.43053955 -0.38391772
000180 2b f0 24 3f 51 c8 20 bf 08 89 6e 3e f6 5b dc 3e
       0.6442897 -0.6280566 0.23294461 0.4303891
000190 1c a9 ec be cf 1c 83 3e 0a f8 ca bf 83 b8 83 40
       -0.4622277 0.25607917 -1.5856946 4.1162734
0001a0 4d 2a e0 c0 3c ea 7f c0 62 d9 36 c0 f9 3a 16 c1
       -7.0051637 -3.9986715 -2.857018 -9.389398
0001b0 27 cc c0 3f b1 4f 19 be 4f 6d 67 3e 39 2c 92 3e
       1.5062302 -0.14971806 0.22600292 0.28549364
0001c0 e0 88 3b 40 cc e8 5d 3f a8 12 27 41 13 34 c2 be
       2.9302292 0.86683345 10.442055 -0.37930354
0001d0 1e 39 39 3f 2b bf 31 3f c3 4f 60 40 d4 dd c9 3f
       0.7235278 0.69432324 3.5048683 1.5770822
0001e0 29 cb be c0 f0 0b 33 41 3d fe 52 c1 ae 3c 32 c1
       -5.9623 11.190414 -13.18707 -11.139814
0001f0 e8 3a 89 c0 1d 08 2f c1 4f d6 26 c1 d3 39 9f 41
       -4.2884407 -10.939481 -10.427321 19.903234
000200 5b a1 a6 c1 63 f8 99 c1 e3 be 91 c0 b9 e9 6e c1
       -20.828787 -19.246283 -4.5545516 -14.932061
000210 be 52 8c bf d7 37 4f 3f 8e 5d 76 bf 1e 3e 48 bf
       -1.0962751 0.8094458 -0.96236503 -0.78219783
000220 9a a0 46 41 6f b2 03 bf 27 1d 81 bf 51 f8 be be
       12.414209 -0.51444143 -1.0087022 -0.37298825
000230 e1 69 dd 3e c8 d3 cc 3e 98 44 d1 bf 7a 94 20 3e
       0.43244842 0.40005326 -1.6349058 0.1568164

weight_hh_l3 f4 [24, 6]
000000 15 11 dd be 42 f4 79 3f b9 19 29 bf d0 04 02 3f
       -0.43177095 0.9763833 -0.66054875 0.50788593
000010 66 18 fb be a2 e7 55 3f a9 75 c6 be 57 25 5b 3f
       -0.49042052 0.8355657 -0.38761643 0.8560385
000020 17 e9 06 bf 8b ff cf 3e 48 3c b5 be fa 62 aa 3e
       -0.52699417 0.4062465 -0.35397553 0.33278638
000030 06 8f af bc 1b 25 59 3e e3 43 20 be f0 1c 80 3e
       -0.021430504 0.21205561 -0.15650897 0.25022078
000040 1e f9 fe be 07 55 9f 3e 0c 3a 45 be 78 27 78 3f
       -0.49799436 0.31119558 -0.19260424 0.96935225
000050 01 44 34 be 2e e1 15 3f c6 e4 b1 be d8 f0 11 bf
       -0.17604066 0.5854672 -0.34744853 -0.57008123
000060 15 a1 7e be 1e 3e ce 3e 65 b6 27 bf ab 60 cc 3d
       -0.24866135 0.40281767 -0.65512687 0.099793755
000070 97 b0 29 bf da 08 1d be ba 4a 33 c1 e5 9e a9 3f
       -0.6628508 -0.15335408 -11.205744 1.3251616
000080 67 18 9e bf 66 24 14 40 70 c2 1f 40 4b 93 b0 40
       -1.2351197 2.3147216 2.4962425 5.51798
000090 29 5c a5 bf 8f 4b 90 3f f2 d6 a7 bf 2d 4e 2e 3f
       -1.291875 1.1273059 -1.3112471 0.68088037
0000a0 05 03 02 bf e9 85 04 3e 00 a2 40 bf 31 90 8a 3f
       -0.5078586 0.12941708 -0.7524719 1.0825254
0000b0 05 cb 7f bf e6 b2 57 3f 44 d1 05 bf a8 b4 ad 3f
       -0.9991916 0.8425735 -0.5227244 1.3570757
0000c0 f4 1d 7d be 3f 27 31 3f 0d b9 f9 be 8b 4b 88 3e
       -0.24718457 0.6920051 -0.48773995 0.26620135
0000d0 e5 7f a7 be 8b c9 ba 3e 68 68 d9 be ed 23 3c 3f
       -0.32714763 0.3648189 -0.42462468 0.7349232
0000e0 70 6c 52 bf 23 aa fb 3e 87 9a e7 be e2 90 a4 3e
       -0.8219671 0.49153242 -0.45235083 0.32141787
0000f0 45 e2 18 bf 59 17 45 3f 93 44 3e bf da 06 af 3d
       -0.5972026 0.7698875 -0.74323386 0.08546229
000100 ba c7 0a bf 5c d3 cd 3e d3 ea c1 bf d3 48 09 bf
       -0.5421101 0.40200317 -1.5149788 -0.53626746
000110 fe c9 8a bf a8 27 f4 3e eb 3c f5 be 1e a6 c0 3f
       -1.0842893 0.47686505 -0.4789804 1.5050695
000120 34 df 7b 3f 7d 50 9d bf 96 5f 96 3f 3c bd 1d bf
       0.98387456 -1.2290188 1.174792 -0.61616874
000130 d2 3b 35 3f 1c 24 35 be 6f 2e 71 bf 10 7f a1 3f
       0.70794404 -0.17689556 -0.9421148 1.2616901
000140 75 cd 0b bf 00 61 7e 3f a6 1e 34 be 68 11 89 3f
       -0.5461038 0.9936676 -0.17589816 1.0708437
000150 aa 76 cc 3e 7a fd 83 be ef 5f 06 3f fa 5f 31 bf
       0.39934283 -0.25779325 0.52490133 -0.69287074
000160 14 80 f9 3e 90 df 4d 3d 07 5b a7 be 25 a4 d5 3d
       0.48730528 0.050262034 -0.32686636 0.10431699
000170 59 51 d8 3c f9 bb 4a 3f e4 60 8e bd 49 5c 36 bc
       0.026405977 0.79193074 -0.06952074 -0.011130401
000180 7a 45 52 3f 5d bf a0 be 23 ef 95 3e 24 df 34 bf
       0.8213726 -0.31396 0.2928401 -0.70652986
000190 67 30 76 3e 6f df 55 be de 70 5f bd 17 0d d0 3c
       0.24041902 -0.20886014 -0.054550998 0.025396867
0001a0 e7 35 e7 3e 69 3f 45 3e 2a 1c 04 3e 87 48 3a bf
       0.45158312 0.1926247 0.12901369 -0.7276692
0001b0 2e 44 42 be 23 19 90 40 e9 ed 30 40 0c 4c 84 3f
       -0.18971321 4.5030684 2.764521 1.0335708
0001c0 a8 1f c5 3f c5 6b 29 c0 d2 25 94 bf 21 f5 82 40
       1.5400286 -2.6472027 -1.1574042 4.092423
0001d0 c4 e8 18 bf 99 cf b4 3f 77 33 10 40 f4 f4 c8 bf
       -0.5973017 1.4125854 2.2531412 -1.5699754
0001e0 10 b3 5a 3e a1 2b 8f 3f 0c 9f c9 40 36 45 62 3e
       0.2135737 1.118519 6.300665 0.22096714
0001f0 68 3c c5 be 91 b9 f4 bf 1b cd 5c 3f a3 17 2a 3f
       -0.3852265 -1.911913 0.86250466 0.66442317
000200 64 0d fd 3f 91 8a ad 3f 3d 68 61 40 20 8b bd c0
       1.9769711 1.3557912 3.5219872 -5.923233
000210 f2 a1 93 c0 a2 36 5f c0 f1 ed d0 3d cc 51 47 3f
       -4.6135187 -3.4877095 0.10201634 0.7785919
000220 3c 00 eb bf 35 96 a2 40 f9 ef 7c 3f 3c e7 e0 3f
       -1.8359447 5.080836 0.9880367 1.7570567
000230 4a 29 40 bf 6f 11 94 bf f2 f6 38 c1 bb 2a b0 3f
       -0.75063 -1.156782 -11.560289 1.376304

bias_ih_l3 f4 [24]
000000 47 af c2 3e 71 0d 40 3f bd b0 b1 3d e5 e8 c5 3e
       0.3802435 0.7502051 0.08676288 0.38654247
000010 c9 52 2a 3e 24 81 48 bd 30 b2 bd 3f 8b 92 86 3f
       0.16633143 -0.048951283 1.4820004 1.0513471
000020 20 b2 00 3f d4 9a 4a 3f fb f0 b4 3d d4 d8 69 bf
       0.502718 0.791425 0.08835026 -0.9134648
000030 d9 9e 59 bf 9e b5 8d 3f 54 5a 64 3e a0 67 3e 3f
       -0.8500801 1.107105 0.22300082 0.7437687
000040 50 31 e4 be 2e 1b 87 be 3d 95 90 bf aa 6c 6b bf
       -0.44568872 -0.26387924 -1.1295544 -0.91962683
000050 c1 b2 c5 bf 3c 27 93 bf c6 b0 56 c0 91 c8 18 bf
       -1.5445176 -1.1496348 -3.3545394 -0.5968104

bias_hh_l3 f4 [24]
000000 6c e5 c4 bc 57 ec 83 3e 5f 2d ab 3d 4e df 8c 3d
       -0.024035178 0.2576625 0.08358263 0.068785295
000010 a1 7f 26 3f 45 d8 0f 3d 9c 54 96 3f ec 59 d5 3f
       0.65038496 0.03511836 1.1744571 1.6668067
000020 a6 99 4f 3f 8d 31 40 3f 95 c5 12 3f 4b 75 7d bf
       0.81093824 0.7507561 0.57332736 -0.990071
000030 1a 62 48 bf f0 91 86 3f 96 34 c7 3e da 29 2f 3f
       -0.7827469 1.0513287 0.38907307 0.68423235
000040 fb c4 34 bf 9c 4e 44 3e cc 15 82 bf df bc 98 bf
       -0.7061307 0.19170612 -1.0162902 -1.1932639
000050 e8 80 a8 bf c6 3d dc bf 31 16 60 c0 98 19 e8 be
       -1.3164339 -1.7206352 -3.5013545 -0.45332026

weight f4 [70, 6]
000000 11 8b be 3f 15 28 09 c0 70 bb cf bf fd 86 c2 3f
       1.488619 -2.1430714 -1.6229076 1.5197445
000010 28 d1 3a bf aa c4 cb 3f 37 0a 22 40 99 ec 01 c0
       -0.729754 1.5919392 2.5318735 -2.0300658
000020 b0 2e 36 bf 7e 32 20 3f be 4e e5 bf 10 bf ce 3f
       -0.7116499 0.62577045 -1.7914655 1.6152058
000030 39 b2 36 3f 96 64 67 3e 10 f4 a0 bf c8 b4 8f 3f
       0.71365696 0.22596964 -1.2574482 1.1227045
000040 91 47 00 c0 f8 0e 0d 40 7c 64 e4 bf 1d 6a cd 3f
       -2.004368 2.2040386 -1.7843165 1.6048008
000050 10 a6 a8 bf 25 02 9b 3f 1b dd cc bf da 62 07 40
       -1.3175678 1.211003 -1.6004976 2.1154084
000060 3a 0f 90 3e 87 bc 0d 3e 25 12 2a 40 88 d9 44 c0
       0.28136617 0.13841449 2.6573575 -3.075777
000070 1a 9c ee bf 83 63 95 c0 83 a6 f3 3f 28 14 39 c0
       -1.8641388 -4.6683974 1.903519 -2.8918552
000080 d5 87 c4 bf 18 da a7 3f f2 5b 99 3f f2 ff c2 3f
       -1.5353953 1.3113432 1.1981184 1.5234358
000090 14 56 a9 40 77 a9 96 c0 e0 17 b6 bf 3d 79 a5 3f
       5.2917576 -4.7081866 -1.4226036 1.2927624
0000a0 27 ed 32 c0 dc 26 31 40 d2 5a 1e 40 e1 3b c2 bf
       -2.7957246 2.7679968 2.4742932 -1.5174524
0000b0 25 b7 bf bf bf 51 95 3f 91 24 28 c0 3a 3b 26 40
       -1.4977766 1.1665572 -2.6272318 2.597365
0000c0 d8 59 19 40 59 87 1c c0 75 27 af bf 42 ab 9a 3f
       2.3961086 -2.445761 -1.3683916 1.2083514
0000d0 95 14 01 c0 ec c2 20 40 b1 71 1e 40 3d 4e 60 c0
       -2.0168812 2.511897 2.4756892 -3.5047753
0000e0 b5 c3 00 40 b3 aa be bf eb 8a 08 40 85 d1 9a 3e
       2.011945 -1.4895843 2.1334789 0.30237976
0000f0 50 40 fa be 22 49 e7 3e e6 53 97 bf 97 78 87 3f
       -0.48877192 0.45172983 -1.1822479 1.0583676
000100 8a d2 a1 bf 4c 9c e0 3f 8e 1e b5 40 36 6d 0f c0
       -1.2642376 1.7547698 5.65998 -2.2410407
000110 31 3a 89 bf 1d 3d 8b 3f e5 b1 a0 bf 80 0f 19 40
       -1.0720884 1.0878025 -1.2554289 2.391571
000120 5d 01 e1 bf d1 b5 89 3f 2d c3 21 3e 21 00 b7 be
       -1.7578541 1.0758611 0.1579711 -0.35742286
000130 99 39 5e 3f c1 15 1a c1 ae f3 fc 3e e0 1c 8d be
       0.8680664 -9.630311 0.49404663 -0.27561092
000140 00 c6 9e bf 0d 4d 8b 3f 31 ba e2 be 8c c6 d8 3f
       -1.2404175 1.0882889 -0.44282678 1.6935592
000150 4f 38 10 40 2f 1f d0 be 57 e6 b1 bf fe a0 a9 3f
       2.2534368 -0.4064879 -1.3898419 1.3252256
000160 08 fc f1 bf 53 1d f1 3f 74 25 51 3e 6e 6b 42 bf
       -1.8905039 1.8837074 0.20424443 -0.75945175
000170 cc 13 63 bf 89 e5 5e 3f 0a 38 d2 bf 5d 49 e7 3f
       -0.8870208 0.8706899 -1.6423352 1.8069264
000180 a5 4c f7 3f ee 43 17 c0 59 8b 9d bf 72 6e 89 3f
       1.9320265 -2.363521 -1.230815 1.073683
000190 9f d4 da bf d6 d1 03 40 a8 c9 10 40 2e bc 3d c0
       -1.7096137 2.0596824 2.2623081 -2.9646106
0001a0 a3 a6 fd be d2 af c8 bc 02 d6 c7 3f 3d 28 e1 3f
       -0.49541196 -0.0244979 1.5612185 1.7590405
0001b0 28 17 39 40 ff a7 4b c0 81 da 45 3e 2e 02 01 bf
       2.8920383 -3.1821287 0.19321634 -0.5039395
0001c0 75 2a 85 3f 81 f7 1b 40 1c d8 4a 3e c8 4f 73 bf
       1.0403582 2.4369814 0.19809002 -0.9504361
0001d0 c3 3a a7 bf 72 4c 9b 3f e1 a8 09 c0 a9 22 1a 40
       -1.3064808 1.2132704 -2.1509326 2.4083655
0001e0 b3 1c 23 3f 8c 39 26 bf a3 44 a8 bf 1e 84 9e 3f
       0.63715667 -0.6493156 -1.3145946 1.2384069
0001f0 f8 76 f8 bf 08 6f 10 40 7e f2 1e be 16 67 ee be
       -1.9411306 2.2567768 -0.15522191 -0.46563023
000200 74 f4 b3 bf 6b 13 9c 3f 43 ee e9 bf 5c 7e 0a 40
       -1.4058976 1.2193426 -1.8275837 2.1639624
000210 c2 25 f1 40 2a 0f b1 c0 b1 0c be bf 11 9f b2 3f
       7.535859 -5.533101 -1.4847623 1.3954793
000220 c9 c6 27 c0 80 0a 2d 40 20 44 70 bf 21 d6 3c 3f
       -2.621508 2.7037659 -0.9385395 0.73764235
000230 68 e3 9d bf 03 2a 92 3f c2 12 9a bf 96 af f8 3f
       -1.2335024 1.1419071 -1.2036974 1.9428585
000240 8b 05 a5 bf 4d 2a 3d 3f da 12 9c bf b5 b7 8f 3f
       -1.2892317 0.7389267 -1.2193253 1.1227938
000250 00 07 b7 bf 26 15 c1 3f 5c 6e c4 bf 75 7d be 3f
       -1.4299011 1.5084579 -1.5346179 1.4882036
000260 f7 f7 1e 40 5e 9e f7 bf b8 f1 aa bf 14 25 b2 c0
       2.4838846 -1.9345205 -1.3355017 -5.567026
000270 8a db 24 40 70 b3 54 c0 85 be a3 bf d9 d5 7d 3f
       2.5758996 -3.323452 -1.2792517 0.9915443
000280 62 6e 76 bf a0 c8 29 40 d8 3f 10 40 59 bb 15 c0
       -0.9626218 2.6528702 2.2538967 -2.3395598
000290 af e8 bd bf bf 5c ab 3f e1 f3 23 c0 87 dd 27 40
       -1.4836634 1.3387679 -2.5617602 2.622896
0002a0 1d 5a 77 be 17 ff 9b be 00 04 af bf 22 5e 99 3f
       -0.24155469 -0.30468056 -1.3673096 1.1981852
0002b0 40 5b cd bf b8 77 15 40 0d 20 22 40 2c 61 17 c0
       -1.6043472 2.335432 2.5332062 -2.365306
0002c0 a0 59 ef 3f 15 16 e5 bf 36 b2 be 3f 4e 5d 48 bf
       1.8699226 -1.7897364 1.4898136 -0.7826737
0002d0 22 a6 14 3f f2 1a d6 bf 6f 34 97 bf 11 ee 92 3f
       0.58066 -1.6726973 -1.1812876 1.1478902
0002e0 64 0b f9 bf 2e 34 ca 3f e4 3e b3 bf a8 c7 1c 3e
       -1.9456601 1.5797174 -1.4003568 0.15310538
0002f0 8d bd bf 3f bc a5 d5 bf 22 52 b0 bf b3 96 8c c0
       1.4979721 -1.6691203 -1.3775065 -4.393396
000300 28 a7 65 3e 11 5e 6e 3f 6e 89 98 40 44 0c 34 c0
       0.22427046 0.93112284 4.766776 -2.8132486
000310 4b 30 77 bf f3 ac 73 c0 cb 89 92 bf a7 2e 20 3f
       -0.96558064 -3.807431 -1.1448301 0.62571186
000320 6c 21 b7 bf aa 01 a5 3f c3 d5 b6 bf 97 24 ac 3f
       -1.4307075 1.2891133 -1.4283985 1.3448666
000330 ce 69 13 40 99 36 4c c0 62 22 f8 be 26 52 02 bd
       2.3033328 -3.1908324 -0.48463732 -0.031816624
000340 3f d0 7d be 0e 00 57 40 8a de ad 3f de 4d 63 bf
       -0.24786471 3.3593783 1.3583539 -0.8879069
000350 05 4d ae bf 65 ff a1 3f 9e 7e 0e c0 cd 60 1b 40
       -1.3617254 1.2656065 -2.226478 2.4277833
000360 35 04 ee 3f 6f 25 22 c0 9f f6 c2 bf e2 3b b3 3f
       1.8595034 -2.5335348 -1.5231513 1.400265
000370 ae 90 d2 bf d0 61 07 40 09 33 4f 40 39 6b 88 c0
       -1.6450403 2.115345 3.23749 -4.2630887
000380 32 32 82 bf 1c fe 53 3f ce 03 b0 bf 08 b1 0d 3f
       -1.0171568 0.82809615 -1.3751161 0.55348253
000390 ed e6 81 3f c5 29 79 3f 01 e4 36 40 af 41 15 c0
       1.0148598 0.9732936 2.8576663 -2.332134
0003a0 27 9c 28 c0 63 00 33 c0 64 60 b0 be 4b ec c4 bf
       -2.6345308 -2.7968986 -0.3444854 -1.5384611
0003b0 dd e9 d2 bf 25 ce d5 3f d2 5c d7 bd 44 d1 ca 3f
       -1.647762 1.6703535 -0.10515751 1.5845113
0003c0 24 af 1f bf cb 0f 8c be ed 3b ac bf 96 f5 94 3f
       -0.6237662 -0.273558 -1.3455788 1.1637447
0003d0 5f c1 7c bf 06 31 c9 3f e2 31 1c 40 5e 55 88 be
       -0.9873256 1.5718086 2.4405446 -0.2662763
0003e0 7f f9 1d 40 c8 bb e1 bf db f4 83 bf 03 0c 94 bf
       2.468353 -1.7635431 -1.0309099 -1.1566166
0003f0 ec b9 8b 3e ce 1e 17 bf 96 43 89 bf 2e aa 78 3f
       0.27290285 -0.5903138 -1.072375 0.97134674

bias f4 [70]
000000 01 fb 3b bf db f4 89 c0 1f c9 78 3f 8d 13 7d 3e
       -0.73429877 -4.3111396 0.97181886 0.2471449
000010 4b 52 06 40 85 ff ca c0 7b bc a2 c0 6d 53 9d c0
       2.0987728 -6.3436913 -5.085508 -4.916434
000020 75 86 0c c0 c7 15 d3 c0 b0 a4 46 3f 55 c1 32 c0
       -2.1957066 -6.5964084 0.77595043 -2.79305
000030 c3 ce 32 40 bd d7 fc be 07 9c d5 bc c8 8b 1d c0
       2.7938697 -0.49383345 -0.026075376 -2.4616566
000040 ad 8b 85 bd 50 57 ce c0 b2 41 ce c0 df d2 9a bf
       -0.06520782 -6.4481583 -6.4455194 -1.2095603
000050 c9 22 36 3f 56 c7 6c 3e 50 48 7b c0 93 68 63 3f
       0.7114683 0.23122916 -3.9262886 0.8883144
000060 15 97 2e bf 0d 43 3a c0 c2 01 b8 c0 84 7e 09 c0
       -0.6819928 -2.9103425 -5.7502146 -2.148347
000070 50 11 db 3e 9f b6 a8 c0 f9 df 94 bf d3 e5 83 bf
       0.42786646 -5.2722926 -1.1630851 -1.0304512
000080 d9 72 2c 40 a2 88 8f c0 9e 1b c7 c0 20 7f 12 be
       2.6945097 -4.485429 -6.2221212 -0.14306307
000090 bb b0 c6 bf e2 b4 b5 bf 68 c6 77 c0 fa 37 82 c0
       -1.5522684 -1.4195826 -3.8714848 -4.069333
0000a0 9a d1 fb 3e a5 08 9c c0 02 45 b5 3e ef b7 c5 c0
       0.4918335 -4.8760552 0.3540421 -6.178703
0000b0 aa 5e c9 c0 b9 b0 bb c0 c7 3d 43 c0 ea 4e d5 bf
       -6.2928057 -5.8653226 -3.0506456 -1.6664708
0000c0 fa 3b 2a c0 39 31 28 bf 66 7f 6f bf 07 4f b4 c0
       -2.6599107 -0.6570011 -0.9355377 -5.634647
0000d0 17 ca a1 c0 7f 5a c2 c0 c0 f9 a2 3f b3 b4 c4 3f
       -5.055919 -6.073547 1.2732468 1.5367645
0000e0 28 69 32 c0 64 f1 81 c0 27 5a 27 3f 11 82 25 40
       -2.7876682 -4.0607166 0.65371937 2.5860636
0000f0 e9 8e 21 c0 77 33 d2 3f d8 24 fa 3f 90 9b c7 c0
       -2.5243475 1.6421956 1.9542494 -6.2377396
000100 f0 0a 69 bf db cb c9 c0 83 a4 c5 be eb c6 b2 c0
       -0.91032314 -6.3061347 -0.38602075 -5.586782
000110 db 5b e3 3e df 6c b6 c0
       0.44406018 -5.70079
