Language_Model/Neural_Language_Model/Saved_Models/neural-model-state-dict-tokenized-2048-2-4.pth (torch, 107939 bytes, 18 tensors)

lstm.weight_ih_l0 f4 [8, 2379]
-3.2128546 -1.0096984 -1.603884 0.5680128 -2.0348842 -2.5831568 -1.4669973 0.031893175
-0.37310168 0.32705456 -0.5598269 -0.0772593 8.522127 0.05720772 -0.43728405 -4.260442
0.791889 -1.2468493 0.2988569 -3.0503778 -5.375744 1.8765744 -3.1792479 -1.3051572
-0.25259355 -0.21528468 -1.9196945 -2.2390254 -2.6948318 -0.32295984 2.020775 0.6179831
-0.19722162 0.13146585 0.6064423 9.4886055 -0.7011997 -1.78184 -1.9623505 -2.4425642
2.3859692 -3.1508574 -2.029902 0.9754289 -0.5627954 -1.2903174 1.311229 -1.4394102
0.3404617 0.0012469329 1.9242387 -1.4984511 -2.2181613 0.9315375 -2.238579 2.0797606
3.7766483 3.6144037 -1.6955038 3.344892 2.3482285 -0.0058150007 -0.19023232 -0.058478247
0.36266217 -0.6803268 0.044134747 0.48529422 -0.55872315 0.65427536 -0.2647703 0.22943538
0.30488524 0.6986769 -0.57265484 -0.63329136 -0.39548028 -0.34881836 -0.3828955 -1.4601393
0.51355684 -0.17240009 -1.6140876 7.90587 3.102522 9.516154 2.3007224 -0.48915428
-3.901977 -1.8649111 -0.48353595 2.5245326 2.9883575 -1.5980676 0.03789929 4.8133903
-0.37412366 -0.014430069 -0.47072542 0.41004592 -0.17080802 -0.09919067 0.65385413 0.30271292
-0.6922604 0.1228498 0.6956836 0.32322562 0.5991423 0.21045564 -0.2807088 -0.62757754
-0.32376787 0.3168552 0.21158679 -0.68883365 0.6873098 0.3419705 -0.23565845 -0.54204065
-0.11481847 0.51242745 0.52906966 -0.2458187 0.6074715 -0.6339567 0.6184303 -0.27557287
0.3670221 0.22061363 -0.044230673 0.11023576 0.6182746 -1.2633003 0.6966267 0.9551013
1.4443715 0.3199529 0.5406509 1.6035678 1.4740632 0.13555767 -0.057082005 -0.06440485
0.30777407 -0.3952695 -0.1057644 -0.10989571 0.6384711 0.6005599 -0.652993 -0.6535932
-0.03964299 0.39186537 -0.40926316 -0.24500729 -0.57844764 0.6898481 0.15309252 0.21378736
0.10991156 -0.49888584 0.5940568 0.16964881 -0.09664357 -0.15175444 -0.21302989 0.36112177
0.35481358 0.47234377 -0.28650045 -0.38758224 -0.47142446 -0.35716859 0.21407294 0.18707502
0.07113857 0.077094086 0.56197375 0.6542967 0.6262656 -0.5168227 -0.6560135 -0.14493677
-0.2086371 -0.5758884 -0.55819994 -0.50130296 0.24139303 1.1913905 0.4182794 0.23992462
2.9902506 -3.0132365 0.32337573 -0.84837866 1.5678592 -3.8434498 -0.30557004 -0.43550912
6.032255 2.7878304 1.8227533 3.0719454 -2.7164009 1.2511969 -0.14963943 -0.4796875
-0.6823714 0.618128 -0.11842961 0.56542385 0.41941735 0.41439363 -0.11881896 0.03524842
-0.44929248 -0.0997841 -0.48581752 0.40527305 -0.4882385 -0.24013588 -0.5550868 0.5889352
-0.26665813 -0.37760094 -0.33425957 0.69073623 -0.33054307 0.025446244 0.35937792 0.05230508
0.17459373 -0.6921294 -0.49567726 -0.034071006 -0.35109967 0.108816415 -0.3447216 0.05966645
-0.48530814 0.24898317 -0.51216394 0.6036519 -0.665216 1.12229 5.764493 -0.46824786
1.3499063 0.09887145 0.06660938 -0.54707533 -0.50967157 1.5411603 0.023100182 0.18909031
00000000: 699f 4dc0 cc3d 81bf 124c cdbf 4969 113f
00000010: 8b3b 02c0 7152 25c0 91c6 bbbf 6ba2 023d
00000020: 2f07 bfbe b273 a73e d150 0fbf 203a 9ebd
00000030: a25a 0841 a452 6a3d b2e3 dfbe 8a55 88c0
00000040: 3db9 4a3f c298 9fbf c603 993e 6439 43c0
00000050: 1806 acc0 9733 f03f cc78 4bc0 640f a7bf
00000060: f153 81be 9673 5cbe 8db8 f5bf 314c 0fc0
00000070: 2078 2cc0 fe5a a5be 6154 0140 2434 1e3f
00000080: 77f4 49be fc9e 063e cd3f 1b3f 54d1 1741
00000090: d381 33bf 5513 e4bf 4d2e fbbf f952 1cc0
000000a0: b8b3 1840 a6a7 49c0 eae9 01c0 b5b5 793f
000000b0: 5c13 10bf 1f29 a5bf 5ad6 a73f 983e b8bf
000000c0: ff50 ae3e 2070 a33a 744d f63f 3fcd bfbf
000000d0: 5bf6 0dc0 3e79 6e3f e144 0fc0 cc1a 0540
000000e0: 9bb4 7140 6452 6740 4506 d9bf b612 5640
000000f0: 6049 1640 c38b bebb 43cc 42be e386 6fbd
00000100: dbae b93e e629 2ebf a3c6 343d 7c78 f83e
00000110: 7b08 0fbf 977e 273f f98f 87be 1cf1 6a3e
00000120: eb19 9c3e 7ddc 323f 8299 12bf 621f 22bf
00000130: 647c cabe 5298 b2be e10a c4be d8e5 babf
00000140: 7678 033f a689 30be 6c9a cebf e3fc fc40
00000150: b88f 4640 2b42 1841 093f 1340 6e72 fabe
00000160: feb9 79c0 68b5 eebf 0692 f7be f191 2140
00000170: 4041 3f40 7b8d ccbf 493c 1b3d 4b07 9a40
00000180: 238d bfbe 196c 6cbc ec02 f1be 8af1 d13e
00000190: 4ce8 2ebe 7a24 cbbd fc62 273f 30fd 9a3e
000001a0: fa37 31bf ad98 fb3d 5218 323f d47d a53e
000001b0: 6461 193f af81 573e 10b9 8fbe eca8 20bf
000001c0: e7c4 a5be d83a a23e 35aa 583e 6757 30bf
000001d0: 89f3 2f3f c216 af3e 7350 71be 2dc3 0abf
000001e0: f225 ebbd 722e 033f 1c71 073f e6b7 7bbe
000001f0: 4183 1b3f fc4a 22bf 7351 1e3f e317 8dbe
00000200: 52ea bb3e 8ae8 613e 392b 35bd 49c3 e13d
00000210: 3f47 1e3f d3b3 a1bf 2156 323f 8581 743f
00000220: 2ae1 b83f ded0 a33e 1968 0a3f b641 cd3f
00000230: 1aae bc3f a1cf 0a3e d2ce 69bd b1e6 83bd
00000240: 9094 9d3e c460 cabe 019b d8bd 0111 e1bd
00000250: d872 233f 4bbe 193f 8d2a 27bf e251 27bf
00000260: b060 22bd 94a2 c83e f18a d1be 31e3 7abe
00000270: 2515 14bf e399 303f 49c4 1c3e 13eb 5a3e
00000280: 5019 e13d f76d ffbe 1b14 183f 6bb8 2d3e
00000290: 10ed c5bd 8465 1bbe 8224 5abe f4e4 b83e
000002a0: 20aa b53e 0bd7 f13e 30b0 92be 2e71 c6be
000002b0: 8c5e f1be cdde b6be f035 5b3e 9890 3f3e
000002c0: 19b1 913d 81e3 9d3d 83dd 0f3f fd7f 273f
000002d0: f152 203f 7e4e 04bf 80f0 27bf 4e6a 14be
000002e0: f7a4 55be 6c6d 13bf 31e6 0ebf 6455 00bf
000002f0: bc2f 773e 7c7f 983f b828 d63e cdae 753e
00000300: 4460 3f40 ded8 40c0 8191 a53e 582f 59bf
00000310: 9caf c83f 15fb 75c0 ad73 9cbe 0dfb debe
00000320: 3c08 c140 d06b 3240 fb4f e93f c19a 4440
00000330: 83d9 2dc0 3827 a03f 143b 19be 9a99 f5be
00000340: e4af 2ebf a33d 1e3f 398b f2bd 9ebf 103f
00000350: dfbd d63e 672b d43e 5b57 f3bd a660 103d
00000360: aa09 e6be 9b5b ccbd 13bd f8be f37f cf3e
00000370: 66fa f9be 2ee6 75be 2b1a 0ebf 75c4 163f
00000380: 6a87 88be e954 c1be 1224 abbe 17d4 303f
00000390: f13c a9be a474 d03c 6200 b83e da3d 563d
000003a0: b3c8 323e 642f 31bf 69c9 fdbe 0a8e 0bbd
000003b0: 56c3 b3be 24db de3d 597f b0be cf64 743d
000003c0: 4f7a f8be 72f5 7e3e 2d1d 03bf ee88 1a3f
000003d0: 994b 2abf 33a7 8f3f ba76 b840 2fbe efbe
000003e0: bbc9 ac3f 1d7d ca3d 806a 883d 210d 0cbf
000003f0: d679 02bf be44 c53f 983c bd3c e4a0 413e

lstm.weight_hh_l0 f4 [8, 2]
-6.6272955 7.094017 -1.523382 7.577465 -1.8565265 -5.004582 0.35590744 -0.44054553
1.4627689 3.8561888 -1.0027796 0.5296663 -1.6125586 1.5448126 -6.3247523 0.9737975
00000000: ce12 d4c0 3002 e340 2efe c2bf 987a f240
00000010: a9a2 edbf 8925 a0c0 8039 b63e 2f8f e1be
00000020: 033c bb3f cccb 7640 155b 80bf 3698 073f
00000030: 5268 cebf 6bbc c53f 5f64 cac0 cb4a 793f

lstm.bias_ih_l0 f4 [8]
0.42732254 -2.1403642 -0.21922998 -1.0278821 -0.30149764 -0.9923328 -2.233343 1.8833368
00000000: 05ca da3e bafb 08c0 d37d 60be a491 83bf
00000010: e65d 9abe 8609 7ebf 17ef 0ec0 2e11 f13f

lstm.bias_hh_l0 f4 [8]
0.3280277 -2.7183454 0.18014903 -0.6899986 -0.7040666 -1.093881 -2.0172355 1.5820571
00000000: 3ff3 a73e 5ff9 2dc0 fd78 383e c0a3 30bf
00000010: b53d 34bf 4b04 8cbf 631a 01c0 d980 ca3f

lstm.weight_ih_l1 f4 [8, 2]
-3.344652 1.5830153 -8.062161 0.13740821 -11.390101 5.0830092 -1.9340734 2.9173517
-3.7046113 6.1736317 3.2190385 -4.5955486 -59.97841 17.82286 -5.94479 4.1012774
00000000: c70e 56c0 3fa0 ca3f 9dfe 00c1 bdb4 0c3e
00000010: db3d 36c1 03a8 a240 b88f f7bf e4b5 3a40
00000020: 5a18 6dc0 648e c540 ba04 4e40 bc0e 93c0
00000030: e4e9 6fc2 3895 8e41 b83b bec0 aa3d 8340

lstm.weight_hh_l1 f4 [8, 2]
-4.177811 -4.895151 -3.4492595 5.02978 5.909138 -6.036454 -1.9949281 0.24928518
0.56979203 -0.9655944 -1.6576927 -1.1420774 -0.084391356 -0.443548 1.4531516 2.6053114
00000000: a1b0 85c0 14a5 9cc0 abc0 5cc0 f5f3 a040
00000010: a917 bd40 a22a c1c0 ce59 ffbf 9d44 7f3e
00000020: e4dd 113f 3231 77bf 462f d4bf 982f 92bf
00000030: 60d5 acbd b918 e3be df00 ba3f 6cbd 2640

lstm.bias_ih_l1 f4 [8]
-2.0520139 -0.98440355 -2.749376 -0.05164097 -1.6698251 0.5790303 -1.6288165 -0.50595856
00000000: 3254 03c0 df01 7cbf c7f5 2fc0 7b85 53bd
00000010: d4bc d5bf 543b 143f 0f7d d0bf 8086 01bf

lstm.bias_hh_l1 f4 [8]
-0.9873858 -0.07783394 -2.9982624 -0.3723089 -1.4243464 1.7728678 -1.0508031 -1.1043121
00000000: 51c5 7cbf 6767 9fbd 88e3 3fc0 469f bebe
00000010: fc50 b6bf 55ed e23f b780 86bf 195a 8dbf

lstm.weight_ih_l2 f4 [8, 2]
17.777803 17.357983 0.7994228 -0.33834732 5.8947515 15.606514 10.492741 1.4504459
-24.624037 -4.726734 -11.260015 0.9023743 46.794323 34.83161 -0.59759194 2.804156
00000000: f138 8e41 26dd 8a41 f9a6 4c3f dc3b adbe
00000010: cea1 bc40 48b4 7941 44e2 2741 36a8 b93f
00000020: 07fe c4c1 6841 97c0 0529 34c1 0102 673f
00000030: 632d 3b42 9253 0b42 c9fb 18bf 4b77 3340

lstm.weight_hh_l2 f4 [8, 2]
-0.23148394 0.9360503 -4.4598675 -0.37513062 -0.8420323 0.0915796 -16.929928 7.259401
0.17103678 2.3760467 0.40989912 -0.09887836 0.938042 1.769126 -7.975079 1.8892304
00000000: 200a 6dbe fea0 6f3f 3cb7 8ec0 1f11 c0be
00000010: 6e8f 57bf 168e bb3d 7e70 87c1 034d e840
00000020: 4424 2f3e 2611 1840 4cde d13e bd80 cabd
00000030: 8523 703f b972 e23f d933 ffc0 4dd2 f13f

lstm.bias_ih_l2 f4 [8]
0.85458773 3.840697 -2.4099877 -0.29214182 1.2741258 -0.1511959 -3.2902858 7.5957355
00000000: 43c6 5a3f fbcd 7540 3d3d 1ac0 9d93 95be
00000010: 8e16 a33f 19d3 1abe 0b94 52c0 4410 f340

lstm.bias_hh_l2 f4 [8]
0.5082121 4.835561 -2.9308507 -0.27752215 1.3800274 0.13464294 -3.0679858 7.591581
00000000: 301a 023f eabc 9a40 0f93 3bc0 6217 8ebe
00000010: bda4 b03f d7df 093e e159 44c0 3bee f240

lstm.weight_ih_l3 f4 [8, 2]
-0.6043161 1.3195232 0.5652491 -2.838885 -0.2884279 -0.33835882 1.7699126 4.1528006
-1.3062685 0.5778064 0.11594343 -0.18883297 -7.213259 -0.8301289 4.944965 3.1869113
00000000: 76b4 1abf 23e6 a83f 2ab4 103f 4bb0 35c0
00000010: d2ac 93be 5e3d adbe 7f8c e23f bee3 8440
00000020: ce33 a7bf 1feb 133f c073 ed3d 6e5d 41be
00000030: 05d3 e6c0 5483 54bf 273d 9e40 5bf6 4b40

lstm.weight_hh_l3 f4 [8, 2]
1.5827757 -0.7171348 0.6301961 -1.9530146 1.4742274 -0.4327909 4.361327 -1.3825519
-0.05110588 -0.78002596 -4.368604 0.93876284 0.0025647155 11.027036 -3.4926653 -4.9634466
00000000: 6598 ca3f 2596 37bf 8854 213f 62fc f9bf
00000010: 7cb3 bc3f c596 ddbe fe8f 8b40 76f7 b0bf
00000020: 6654 51bd c8af 47bf 9bcb 8bc0 c352 703f
00000030: c914 283b bd6e 3041 d487 5fc0 8ed4 9ec0

lstm.bias_ih_l3 f4 [8]
0.9750171 0.5356017 0.45911962 1.3474997 0.512564 -1.0425543 -0.94162107 -0.70803225
00000000: b89a 793f 311d 093f ba11 eb3e df7a ac3f
00000010: 6537 033f 6b72 85bf 140e 71bf 9a41 35bf

lstm.bias_hh_l3 f4 [8]
1.2705932 -0.0525539 1.0634187 0.6834547 1.353161 -0.8692597 -0.9514643 -1.2597318
00000000: cca2 a23f c242 57bd 1b1e 883f e3f6 2e3f
00000010: 6134 ad3f ce87 5ebf 2a93 73bf e43e a1bf

fc.weight f4 [2379, 2]
4.170038 3.1972601 4.140672 0.57510644 4.1155105 1.3038915 3.5563514 0.21765122
4.1363645 3.320954 4.03481 1.0040141 4.1700864 2.5975327 4.267088 0.92224085
-2.4764946 2.2094567 -2.6613781 1.7528257 -3.5134454 2.250895 -2.6328814 2.6746848
4.1628113 2.5961156 4.2409244 2.1672394 1.7023218 0.06574276 3.9882915 0.7386794
4.035807 0.57620066 2.1547966 -0.23311122 -1.3813126 -2.332372 0.5079887 -0.15135247
2.7142944 -3.0789912 -2.1420898 -3.3124797 2.2165544 -2.6507897 0.62665784 -1.7575667
-2.3188293 2.453406 0.56502527 -1.9644158 4.101081 0.43340552 1.9909098 -0.08964513
3.648451 -0.8557201 -2.8680096 2.574241 -0.83053374 -3.1382167 1.8904326 -1.7580166
-3.0294454 1.739417 -0.17658496 -2.280753 1.0097853 -1.0731763 0.051131707 -2.9583256
-2.5296693 1.8467102 0.34335634 -2.1452558 0.4183019 -1.4445051 1.6777188 -3.2294786
-0.14944059 -2.8540566 1.8687181 -2.6808565 3.3055108 -2.499268 1.0513104 -3.1999955
1.1569439 -0.6558158 3.4477816 -1.3777184 -0.8782154 0.8219282 3.759233 -0.68105334
1.8325663 -0.65270287 2.72026 -1.8069487 0.38526097 -1.5392209 -0.2517561 -2.3954206
1.7317266 -2.6141605 1.1645675 -2.7109509 1.7570622 -2.3400712 1.2720785 -2.550563
0.0063889464 -2.4376836 3.6972914 -1.1392994 2.104215 -2.6089137 1.0994444 -2.7309449
3.8569705 0.26470092 -3.4037569 2.3632767 -3.1176403 2.338041 -2.9972227 2.1611116
-3.019898 2.2427158 -2.947376 1.7095052 -2.5617158 2.7646167 -3.4068553 2.4644346
-3.0277078 2.7010674 -3.2654917 2.134539 -3.1426446 2.2681804 -3.3430948 2.0867724
-2.4538126 1.9814719 -2.3198404 2.6243417 -3.4060075 2.7033794 -2.7890248 2.2065208
-1.221168 0.48333982 -2.263444 2.6519237 -2.742828 1.7813784 -0.35078317 -2.1395583
0.024919683 -3.0317278 3.7018533 -0.036081154 2.5250309 -1.3883477 3.2356803 -1.3274728
3.1017694 -1.4075845 3.8461146 -1.1390612 3.2403517 -0.4817939 -0.16499479 0.7640191
3.2352574 -1.1504463 1.2497661 -2.5123768 0.8189033 0.15055928 3.6894526 -0.7820592
2.7018201 -1.7041782 4.246078 1.8500882 -3.4542234 1.8571993 0.3820281 -3.5560772
-3.3190205 1.9223081 -2.4341938 1.7910179 -2.7828321 1.9795513 -3.445529 2.5806222
-3.2413182 2.3914468 -3.2376819 2.088739 -2.9776928 1.9729488 -3.2911205 2.098019
-2.695916 2.2443998 -3.522303 2.1289682 -3.3003547 2.0302036 -3.335414 2.583459
-2.676814 2.6289964 -2.636348 2.3202436 -2.73043 2.4528413 -2.7186909 2.117711
-2.8260398 2.1435812 -3.446398 1.8164905 -2.555821 1.9431094 -2.467881 2.7243536
-2.285181 2.5012631 -2.4410322 1.7972232 -2.727035 2.384467 -2.8916636 2.4136074
-2.4432297 1.6784788 -3.4928493 1.7546215 -2.7218149 1.9083235 -3.3919191 1.7167748
-2.978019 2.4069698 -2.8619874 2.3870926 -2.8252542 1.7870091 -3.2680557 1.7401803
00000000: f470 8540 e99f 4c40 6380 8440 2d3a 133f
00000010: 43b2 8340 ebe5 a63f 439b 6340 f6df 5e3e
00000020: 195d 8440 838a 5440 2a1d 8140 8983 803f
00000030: 5971 8540 fa3d 2640 fc8b 8840 fa17 6c3f
00000040: e37e 1ec0 bd67 0d40 0554 2ac0 985c e03f
00000050: 4adc 60c0 aa0e 1040 2181 28c0 092e 2b40
00000060: c035 8540 c226 2640 a7b5 8740 0db4 0a40
00000070: aee5 d93f 24a4 863d 2b40 7f40 181a 3d3f
00000080: 5525 8140 e381 133f 30e8 0940 b5b4 6ebe
00000090: dace b0bf 9545 15c0 8c0b 023f 24fc 1abe
000000a0: 00b7 2d40 310e 45c0 0018 09c0 abff 53c0
000000b0: 07dc 0d40 8aa6 29c0 a66c 203f f2f7 e0bf
000000c0: b367 14c0 9b04 1d40 7fa5 103f fa71 fbbf
000000d0: 0e3c 8340 54e7 dd3e 22d6 fe3f de97 b7bd
000000e0: 3980 6940 7910 5bbf 788d 37c0 5dc0 2440
000000f0: dc9d 54bf 8bd8 48c0 b2f9 f13f b006 e1bf
00000100: 6fe2 41c0 37a5 de3f b0d2 34be dbf7 11c0
00000110: a540 813f d75d 89bf 7b6f 513d 3555 3dc0
00000120: 1ae6 21c0 0061 ec3f 67cc af3e df4b 09c0
00000130: ab2b d63e 8be5 b8bf 7dbf d63f c7af 4ec0
00000140: f406 19be dda8 36c0 2832 ef3f 2793 2bc0
00000150: 7d8d 5340 02f4 1fc0 5791 863f bacc 4cc0
00000160: bd16 943f 8be3 27bf 74a8 5c40 1459 b0bf
00000170: b9d2 60bf e369 523f 4697 7040 8359 2ebf
00000180: 8891 ea3f 8917 27bf bd18 2e40 184a e7bf
00000190: ed40 c53e 3105 c5bf 2de6 80be 924e 19c0
000001a0: 38a9 dd3f 684e 27c0 8c10 953f 3880 2dc0
000001b0: 6ae7 e03f bac3 15c0 78d3 a23f 6d3c 23c0
000001c0: 5e5a d13b 0203 1cc0 6ca0 6c40 90d4 91bf
000001d0: 75ab 0640 71f8 26c0 98ba 8c3f cdc7 2ec0
000001e0: 9bd8 7640 e186 873e 27d7 59c0 ed3f 1740
000001f0: 6b87 47c0 77a2 1540 7fd2 3fc0 a74f 0a40
00000200: 0246 41c0 a888 0f40 cfa1 3cc0 11d1 da3f
00000210: 27f3 23c0 7bef 3040 eb09 5ac0 4cb9 1d40
00000220: f7c5 41c0 4ade 2c40 d1fd 50c0 499c 0840
00000230: 1721 49c0 de29 1140 44f5 55c0 ae8d 0540
00000240: 440b 1dc0 dfa0 fd3f 4478 14c0 37f5 2740
00000250: 07fc 59c0 2b04 2d40 627f 32c0 a337 0d40
00000260: 3c4f 9cbf 5178 f73e 44dc 10c0 1eb9 2940
00000270: 7e8a 2fc0 3504 e43f da99 b3be 86ee 08c0
00000280: 5d24 cc3c d407 42c0 2aeb 6c40 d5c9 13bd
00000290: 1b9a 2140 61b5 b1bf 6315 4f40 a1ea a9bf
000002a0: 6483 4640 bb2b b4bf be26 7640 c2cc 91bf
000002b0: ec61 4f40 b1ad f6be 65f4 28be c196 433f
000002c0: 750e 4f40 d341 93bf 56f8 9f3f c8ca 20c0
000002d0: a6a3 513f 362c 1a3e fe1f 6c40 0835 48bf
000002e0: 9fea 2c40 8322 dabf dfdf 8740 b1cf ec3f
000002f0: ff11 5dc0 b5b8 ed3f 3099 c33e c596 63c0
00000300: d56a 54c0 310e f63f d5c9 1bc0 1340 e53f
00000310: ec19 32c0 f061 fd3f 8c83 5cc0 ea28 2540
00000320: c271 4fc0 770d 1940 2e36 4fc0 e6ad 0540
00000330: 8592 3ec0 9689 fc3f b8a1 52c0 f145 0640
00000340: e389 2cc0 3fa4 0f40 6a6d 61c0 0441 0840
00000350: 0339 53c0 dbee 0140 6c77 55c0 6457 2540
00000360: ec50 2bc0 7a41 2840 edb9 28c0 df7e 1440
00000370: 5dbf 2ec0 5afb 1c40 08ff 2dc0 9488 0740
00000380: d6dd 34c0 6f30 0940 c991 5cc0 c382 e83f
00000390: 9292 23c0 cfb7 f83f c3f1 1dc0 cf5b 2e40
000003a0: 6840 12c0 b214 2040 df39 1cc0 690b e63f
000003b0: be87 2ec0 1b9b 1840 0411 39c0 8b78 1a40
000003c0: e05d 1cc0 65d8 d63f d88a 5fc0 7097 e03f
000003d0: 3732 2ec0 f243 f43f 3415 59c0 47bf db3f
000003e0: dd97 3ec0 cb0b 1a40 cd2a 37c0 20c6 1840
000003f0: f7d0 34c0 b7bc e43f d327 51c0 3abe de3f

fc.bias f4 [2379]
3.2746983 2.5644464 0.63814265 -2.6082454 2.099093 -1.3856002 1.7661686 -1.7139369
-7.302532 -6.2348623 -7.167771 -7.0687103 0.82883537 -0.077553615 -5.3671527 -0.38530895
-1.0031315 -4.7637715 3.7134275 -5.376683 3.3471134 -0.31428194 3.1152678 -4.0433183
-6.402164 -1.7792135 2.0871778 -5.227766 2.6933196 -6.3709292 -1.8912164 -3.9235816
-6.377081 1.6457987 -4.389391 1.8592433 -6.3853164 2.3944612 -4.775127 2.71905
-2.2088814 3.096322 1.3899305 3.4973752 0.92982227 2.7312222 -6.2627554 2.125336
-1.0993104 3.9271739 0.010601397 4.065677 4.3234305 3.5476975 3.5689795 1.3235589
1.8559831 3.2801914 3.3239863 -0.11148998 0.3208642 -6.445671 -6.421216 -6.642693
-7.3032956 -7.122541 -7.5796022 -6.5449543 -6.381536 -7.3540134 -6.9399633 -7.182546
-6.8327837 -6.901317 -7.4672217 -6.8503423 -6.700884 -6.7336245 -6.4988136 2.6673758
2.8245409 0.013654354 -2.9954863 0.9951945 -0.34046078 2.8846977 -2.2474542 -6.084384
-1.0362018 0.11002267 -5.2980213 1.1915547 1.3282014 -0.7788681 -6.0585346 -4.420442
-6.1209574 -6.815944 -6.968379 -6.8816595 -7.4073243 -6.5715337 -6.3999653 -6.83455
-7.2126455 -6.0678797 -6.4242597 -7.5215044 -7.0738344 -6.9197125 -7.559172 -6.1658697
-6.731443 -6.2805305 -7.323166 -7.67097 -6.635441 -6.154843 -6.2591343 -6.917242
-7.111074 -6.210012 -6.402306 -6.019412 -7.014648 -6.950295 -6.434334 -6.1850133
-6.8190436 -7.2795424 -6.303815 -7.4856906 -6.5417814 -2.3330703 1.4365852 -5.8273754
-1.8292162 -6.7020597 -6.3843827 -3.310842 -5.731215 -6.39595 -6.3108416 -7.307105
-6.8834815 -5.7861724 -6.6754484 -6.256434 -7.155014 -7.048088 -7.4599466 -7.1224
-6.484757 -7.0340137 -6.4227023 -6.726642 -7.3226395 -6.243482 -6.409249 -6.866579
-7.4428005 -6.4301033 -6.3360453 -7.0783134 -7.62433 -6.8497114 -7.20048 -6.4827557
-6.639003 -6.172958 -7.532866 -6.6937394 -6.6170077 -6.9227552 -6.262575 -6.288506
-6.8048215 -6.2234945 -6.4299335 -6.516605 -7.5483265 -6.504389 -6.5948076 -7.0155864
-7.1676583 -6.480721 -6.357211 -6.655191 -7.1195517 -5.2029996 -7.434823 -0.37839028
0.52247953 -2.3476503 -6.4024916 0.48042673 -0.2095515 1.3204938 -4.3576026 -6.2508254
1.6655936 3.6102333 -5.8307867 1.3721231 -0.71948177 -2.409888 -7.0224695 -7.088363
-5.9071155 -5.973 -7.048726 -6.2593136 -7.4173 -7.476583 -6.388183 -6.9055424
-6.2505155 -7.169998 -6.5856066 -6.540338 -7.2585144 -6.6443295 -6.099721 -5.9523697
-6.320013 -6.837416 -7.375183 -6.417056 -7.388644 -6.917371 -7.420551 -7.4621205
-6.4721107 -6.2235885 -7.258963 -7.6584597 -6.3458395 -6.665243 -6.248346 -6.905048
-6.509057 -7.3584785 -6.94725 -7.3928003 -7.399679 -3.143456 -1.955426 -6.6515465
-4.224139 -6.6834044 -6.424816 -5.992692 -6.2607727 -6.802729 -6.498827 -6.4698763
00000000: a894 5140 e41f 2440 515d 233f 7eed 26c0
00000010: 8a57 0640 595b b1bf d011 e23f 4962 dbbf
00000020: 58ae e9c0 fe83 c7c0 615e e5c0 e032 e2c0
00000030: 8e2e 543f 6ed4 9ebd b7bf abc0 3747 c5be
00000040: 9d66 80bf d170 98c0 cca8 6d40 ca0d acc0
00000050: 1b37 5640 90e9 a0be 8c60 4740 dd62 81c0
00000060: 87de ccc0 45bd e3bf 5294 0540 dc49 a7c0
00000070: 595f 2c40 a7de cbc0 6113 f2bf f61b 7bc0
00000080: 0c11 ccc0 88a9 d23f e475 8cc0 affb ed3f
00000090: 8354 ccc0 da3e 1940 d7cd 98c0 ea04 2e40
000000a0: 505e 0dc0 242a 4640 3ee9 b13f ffd4 5f40
000000b0: d508 6e3f 58cc 2e40 7e68 c8c0 8105 0840
000000c0: 34b6 8cbf d156 7b40 7bb1 2d3c 071a 8240
000000d0: 8b59 8a40 7a0d 6340 296a 6440 616a a93f
000000e0: db90 ed3f a8ee 5140 31bc 5440 dc54 e4bd
000000f0: 5048 a43e f042 cec0 9a7a cdc0 f190 d4c0
00000100: 99b4 e9c0 dbeb e3c0 1a8c f2c0 4470 d1c0
00000110: 8b35 ccc0 1454 ebc0 2e14 dec0 6bd7 e5c0
00000120: 2aa6 dac0 97d7 dcc0 7bf3 eec0 0136 dbc0
00000130: a46d d6c0 da79 d7c0 48f6 cfc0 49b6 2a40
00000140: 47c5 3440 83b6 5f3c 0cb6 3fc0 11c5 7e3f
00000150: e050 aebe e39e 3840 4ad6 0fc0 46b3 c2c0
00000160: 43a2 84bf 9153 e13d 6489 a9c0 dd84 983f
00000170: 8102 aa3f e663 47bf 84df c1c0 4374 8dc0
00000180: e2de c3c0 371c dac0 f6fc dec0 8e36 dcc0
00000190: cd08 edc0 014a d2c0 84cc ccc0 a2b4 dac0
000001a0: fecd e6c0 122c c2c0 8993 cdc0 2ab0 f0c0
000001b0: da5c e2c0 496e ddc0 bde4 f1c0 ce4e c5c0
000001c0: fb67 d7c0 1bfa c8c0 6057 eac0 9678 f5c0
000001d0: 8855 d4c0 79f4 c4c0 d44a c8c0 0c5a ddc0
000001e0: eb8d e3c0 6bb8 c6c0 b1df ccc0 069f c0c0
000001f0: ff77 e0c0 d168 dec0 10e6 cdc0 a1eb c5c0
00000200: 9b35 dac0 03f2 e8c0 dab8 c9c0 c78a efc0
00000210: 4656 d1c0 0651 15c0 06e2 b73f dc79 bac0
00000220: c223 eabf 4677 d6c0 dd4c ccc0 d6e4 53c0
00000230: 1d66 b7c0 9fab ccc0 6af2 c9c0 ced3 e9c0
00000240: 7b45 dcc0 5328 b9c0 469d d5c0 b534 c8c0
00000250: e0f5 e4c0 f089 e1c0 e2b7 eec0 b3ea e3c0
00000260: 2183 cfc0 a416 e1c0 c786 cdc0 a740 d7c0
00000270: 1053 eac0 9bca c7c0 9118 cdc0 04bb dbc0
00000280: 6c2b eec0 68c3 cdc0 e2c0 cac0 8b81 e2c0
00000290: 83fa f3c0 d630 dbc0 556a e6c0 bc72 cfc0
000002a0: b672 d4c0 df88 c5c0 3d0d f1c0 1d33 d6c0
000002b0: 87be d3c0 3687 ddc0 0467 c8c0 713b c9c0
000002c0: 19c1 d9c0 de26 c7c0 04c2 cdc0 0788 d0c0
000002d0: e48b f1c0 f423 d0c0 aa08 d3c0 af7f e0c0
000002e0: 755d e5c0 1162 cfc0 466e cbc0 53f7 d4c0
000002f0: 5ed3 e3c0 f97e a6c0 12ea edc0 5fbc c1be
00000300: 38c1 053f e73f 16c0 36e1 ccc0 7efa f53e
00000310: ab94 56be f105 a93f 7b71 8bc0 c306 c8c0
00000320: 2c32 d53f 100e 6740 ce95 bac0 bba1 af3f
00000330: f52f 38bf 9b3b 1ac0 12b8 e0c0 dfd3 e2c0
00000340: 1707 bdc0 d122 bfc0 2a8f e1c0 4c4c c8c0
00000350: 865a edc0 2b40 efc0 ff6b ccc0 34fa dcc0
00000360: 3904 c8c0 a070 e5c0 4abd d2c0 734a d1c0
00000370: c045 e8c0 599e d4c0 ea30 c3c0 d079 bec0
00000380: 8c3d cac0 1dcc dac0 8001 ecc0 8658 cdc0
00000390: c66f ecc0 1a5b ddc0 2775 edc0 b1c9 eec0
000003a0: 881b cfc0 a327 c7c0 6d49 e8c0 1a12 f5c0
000003b0: 1e11 cbc0 ac49 d5c0 73f2 c7c0 27f6 dcc0
000003c0: 324a d0c0 a878 ebc0 df4f dec0 d291 ecc0
000003d0: 2cca ecc0 622e 49c0 664b fabf 78d9 d4c0
000003e0: 262c 87c0 73de d5c0 1898 cdc0 22c4 bfc0
000003f0: 4058 c8c0 f5af d9c0 64f6 cfc0 3a09 cfc0
