Language_Model/Neural_Language_Model/Saved_Models/neural-model-tokenized-512-4-2.pth (torch, 292771 bytes, 10 tensors)

weight_ih_l0 f4 [16, 2379]
-0.1379801 9.5791025 -1.7720062 -2.1062474 -1.2630692 1.9366341 -0.73060966 4.575068
-0.17676568 -0.026826143 -0.355698 -0.2560355 -3.7748413 -10.12292 -3.892762 -7.3576117
8.047532 2.6870208 -0.05925398 2.9290974 1.574104 -7.235864 11.1347065 0.22058278
-0.38966244 -0.81234866 1.4795061 3.2172458 5.400346 -0.085837066 -2.5911453 2.20912
-0.32084292 -4.7605953 -2.4685986 9.785179 -0.41727936 -0.6152091 -3.1796587 -1.7913852
0.002593734 -2.4320824 -0.5460386 -2.5490458 -5.0286117 -4.3210673 -2.6252868 -4.5543947
5.9368696 -4.854013 8.743576 -1.7304868 -8.953 -3.6531389 -3.399892 -3.1817467
-1.6320834 -2.1657498 5.748214 2.3730776 -1.3651235 -0.48453456 -0.1540066 0.183245
0.23616922 -0.37405008 0.33840722 0.3878005 -0.15276599 0.117114544 0.019193232 0.024853408
-0.34369665 0.04247713 -0.03611642 -0.47213054 0.05488334 0.27353936 -0.03941846 -1.3599452
-3.2527525 -1.2888741 3.8644848 1.053302 -1.5611511 5.9913554 0.56834227 -1.8209553
8.058278 2.131183 -5.568608 -2.547284 -2.4450426 2.2860723 0.46718955 1.2744381
-0.12115252 0.15161091 -0.1526066 -0.22480595 -0.10724056 0.34377056 0.4020723 -0.4045648
0.027240574 -0.30280125 0.26765776 0.39596796 0.4043439 0.056370914 -0.14929336 -0.015791774
0.45437944 -0.008060992 -0.30888677 -0.13228285 0.45444667 0.018265963 -0.104935884 0.06553137
-0.43419462 0.24492246 0.32277173 -0.1144864 -0.02866584 -0.20069486 0.05638784 0.14202231
0.44991863 0.47765094 -0.26761097 -0.04579556 -0.0759657 3.8948073 2.2025652 -0.70319563
-3.434772 0.16144878 0.4239604 -6.0449686 0.35203695 0.44324672 -0.46287084 0.38122004
0.21193045 -0.27847657 -0.114263535 0.17800152 0.09873694 -0.26557302 0.32998276 -0.45276308
0.009427726 0.02481401 -0.4276927 0.30986023 0.0360716 -0.15590256 -0.1008687 0.12585533
0.47917455 0.4255023 0.016049385 -0.2423898 -0.43477 -0.22702402 0.4201662 -0.13428068
0.31191856 0.41492343 0.09268618 0.15497601 -0.49140263 -0.48253268 0.07640642 -0.47679502
-0.25510806 0.13100421 0.45491266 0.09725344 0.018042505 0.4096951 -0.18035477 -0.14448398
0.1926235 0.26970643 -0.44555157 -0.09403503 -0.45795596 0.4192318 -0.10473144 7.899368
3.0724533 0.033161942 -4.016784 -0.8730728 6.288605 9.978679 4.248416 0.44726217
-4.4945836 -3.598782 1.5211711 0.2000594 -0.9722012 -2.3265352 0.1956904 0.27559978
-0.46150482 0.4502126 0.42809194 -0.421596 -0.09704584 0.15902561 0.4405492 0.28667986
-0.08445853 0.12028718 -0.291511 -0.097408175 -0.05255711 0.36191136 -0.23800302 0.33537918
-0.30770916 0.029518545 -0.2705148 0.48463976 0.39160788 0.18654042 0.13545233 0.38562238
-0.035759807 0.24123454 -0.4597736 0.4304096 0.29059947 -0.16829824 -0.35128635 0.2547415
-0.41519046 0.45553583 -0.17305475 -0.10509181 0.4524209 -0.6799421 5.610734 -0.034940124
0.59425455 -0.028597772 0.082181096 0.24139738 0.23638815 -0.39347625 -0.48930937 0.12536293
00000000: a84a 0dbe 0144 1941 19d1 e2bf c2cc 06c0
00000010: 40ac a1bf a0e3 f73f 3c09 3bbf f566 9240
00000020: 1002 35be 80c2 dbbc 0c1e b6be 1617 83be
00000030: 0097 71c0 7bf7 21c1 0323 79c0 8e71 ebc0
00000040: b1c2 0041 26f8 2b40 4db4 72bd 5576 3b40
00000050: 3d7c c93f 338c e7c0 c227 3241 74e0 613e
00000060: d681 c7be 15f6 4fbf 7560 bd3f 5be7 4d40
00000070: a2cf ac40 58cb afbd 53d5 25c0 3962 0d40
00000080: 8645 a4be cc56 98c0 85fd 1dc0 1890 1c41
00000090: a4a5 d5be 587e 1dbf 877f 4bc0 1c4c e5bf
000000a0: a3fb 293b 3da7 1bc0 30c9 0bbf 9123 23c0
000000b0: 63ea a0c0 2f46 8ac0 b304 28c0 9abd 91c0
000000c0: d6fa bd40 1354 9bc0 b0e5 0b41 9780 ddbf
000000d0: 7d3f 0fc1 07cd 69c0 d597 59c0 bda1 4bc0
000000e0: 1ce8 d0bf a59b 0ac0 5ef1 b740 81e0 1740
000000f0: 5ebc aebf ea14 f8be e8b3 1dbe 94a4 3b3e
00000100: 58d6 713e 7e83 bfbe b643 ad3e ca8d c63e
00000110: b06e 1cbe c0d9 ef3d 203b 9d3c 6099 cb3c
00000120: 02f9 afbe 80fc 2d3d d0ee 13bd 18bb f1be
00000130: 5acd 603d 5a0d 8c3e 4075 21bd af12 aebf
00000140: 192d 50c0 d4f9 a4bf b853 7740 9ad2 863f
00000150: cdd3 c7bf 2fb9 bf40 e17e 113f 1015 e9bf
00000160: b5ee 0041 4d65 0840 0932 b2c0 b306 23c0
00000170: 947b 1cc0 024f 1240 7833 ef3e ca20 a33f
00000180: d01e f8bd e43f 1b3e e844 1cbe 8833 66be
00000190: f0a0 dbbd b202 b03e 6cdc cd3e 1e23 cfbe
000001a0: a027 df3c c408 9bbe 700a 893e 50bc ca3e
000001b0: 2a06 cf3e 30e5 663d 5ce0 18be c05d 81bc
000001c0: 6ca4 e83e 4012 04bc 6826 9ebe 2875 07be
000001d0: 3cad e83e 80a2 953c a0e8 d6bd 5035 863d
000001e0: c24e debe f4cc 7a3e 5642 a53e d877 eabd
000001f0: a0d4 eabc f482 4dbe f0f6 663d 4c6e 113e
00000200: bc5b e63e aa8e f43e 4e04 89be 2094 3bbd
00000210: e893 9bbd 8644 7940 d4f6 0c40 a104 34bf
00000220: 4ed3 5bc0 d452 253e 5611 d93e 6270 c1c0
00000230: 303e b43e 3cf1 e23e 68fd ecbe 462f c33e
00000240: 4c04 593e 7b94 8ebe 0003 eabd 0846 363e
00000250: 9836 ca3d 30f9 87be 80f3 a83e 90d0 e7be
00000260: c076 1a3c c046 cb3c 8afa dabe 00a6 9e3e
00000270: d0bf 133d eca4 1fbe 4094 cebd 38e0 003e
00000280: 5e56 f53e 70db d93e 007a 833c 0835 78be
00000290: 2c9a debe fc78 68be 0620 d73e e080 09be
000002a0: cab3 9f3e d870 d43e 40d2 bd3d 08b2 1e3e
000002b0: 2099 fbbe 860e f7be f87a 9c3d 7a1e f4be
000002c0: 869d 82be f825 063e 50ea e83e d02c c73d
000002d0: e0cd 933c 8ec3 d13e ecae 38be 9cf3 13be
000002e0: 183f 453e f616 8a3e 561f e4be 7095 c0bd
000002f0: 3479 eabe 8da5 d63e 707d d6bd 9fc7 fc40
00000300: 13a3 4440 d1d4 073d 7f89 80c0 b381 5fbf
00000310: 413c c940 aba8 1f41 06f3 8740 8cff e43e
00000320: a1d3 8fc0 7252 66c0 bcb5 c23f 5fdc 4c3e
00000330: 2ee2 78bf f4e5 14c0 1063 483e 6a1b 8d3e
00000340: 5c4a ecbe 4482 e63e de2e db3e 6edb d7be
00000350: f8bf c6bd 9cd7 223e aa8f e13e b4c7 923e
00000360: 98f8 acbd 2059 f63d ee40 95be f07d c7bd
00000370: 2046 57bd 724c b93e 10b7 73be d2b6 ab3e
00000380: 0e8c 9dbe e0d0 f13c ea80 8abe b422 f83e
00000390: d480 c83e 7404 3f3e 04b4 0a3e 4c70 c53e
000003a0: e078 12bd 3006 773e 7267 ebbe a65e dc3e
000003b0: 74c9 943e 6056 2cbe cedb b3be 7a6d 823e
000003c0: d893 d4be fe3b e93e 4435 31be 603a d7bd
000003d0: b6a3 e73e af10 2ebf 228b b340 601d 0fbd
000003e0: 1121 183f e045 eabc 904e a83d e030 773e
000003f0: bc0f 723e b875 c9be c286 fabe 245f 003e

weight_hh_l0 f4 [16, 4]
-1.2723312 -0.78529507 3.446079 -3.3317714 0.516391 3.5616848 -9.2547865 9.000669
-2.3440387 -8.507207 21.018366 1.7015958 2.8392193 -8.843237 1.7502835 16.102646
4.412521 1.1315528 -2.6448493 3.8212519 -3.0795493 -5.0613604 -8.343112 -0.79488045
4.107392 -3.8596673 4.465472 -4.272659 -3.438071 -1.9215649 -2.145586 2.7763262
12.026236 14.540516 2.55663 3.7281723 0.4673218 4.0428452 1.6002452 1.3467289
9.895378 -4.370061 -10.589007 -4.2511406 6.9143753 -0.5029975 0.22331296 -9.687976
5.5799417 -6.093194 -4.386289 3.1193411 14.276341 -9.838685 -3.360799 -2.618301
16.68279 -8.986869 -3.4607165 6.5632305 7.3515286 -2.757465 1.4265512 -1.3470675
00000000: c0db a2bf 1909 49bf 8f8c 5c40 be3b 55c0
00000010: 3332 043f a5f2 6340 9b13 14c1 bd02 1041
00000020: bb04 16c0 851d 08c1 9d25 a841 e4cd d93f
00000030: c5b5 3540 e67d 0dc1 4a09 e03f 38d2 8041
00000040: 5f33 8d40 b9d6 903f 3645 29c0 648f 7440
00000050: 5617 45c0 aaf6 a1c0 637d 05c1 497d 4bbf
00000060: c16f 8340 ca04 77c0 26e5 8e40 9fb9 88c0
00000070: 5b09 5cc0 d7f5 f5bf 4851 09c0 54af 3140
00000080: 766b 4041 f4a5 6841 d39f 2340 609a 6e40
00000090: ce44 ef3e fd5e 8140 d6d4 cc3f 9d61 ac3f
000000a0: 7853 1e41 8ad7 8bc0 936c 29c1 5809 88c0
000000b0: 9042 dd40 72c4 00bf 27ac 643e f301 1bc1
000000c0: e28e b240 72fb c2c0 7b5c 8cc0 49a3 4740
000000d0: e56b 6441 416b 1dc1 5517 57c0 3e92 27c0
000000e0: 5b76 8541 37ca 0fc1 617c 5dc0 fc05 d240
000000f0: b93f eb40 4e7a 30c0 3b99 b63f b56c acbf

bias_ih_l0 f4 [16]
0.7957822 1.1805712 -1.054395 -1.1059303 1.4482479 0.30262604 -0.29434726 -0.02294318
-1.1999047 -2.556903 0.3511227 -0.289443 -2.2374575 -2.5581133 -1.4220828 -1.3030008
00000000: 62b8 4b3f f51c 973f 6af6 86bf 208f 8dbf
00000010: 3060 b93f cdf1 9a3e afb4 96be 56f3 bbbc
00000020: 7a96 99bf 4ca4 23c0 5bc6 b33e df31 94be
00000030: 8132 0fc0 21b8 23c0 cf06 b6bf bbc8 a6bf

bias_hh_l0 f4 [16]
0.8048989 1.5954716 -1.3587418 -0.75972235 1.1714394 0.6762216 -0.06353384 -0.13512447
-1.1166565 -2.752214 0.006067326 -0.26536337 -1.9010352 -2.8177297 -1.8679405 -1.6245303
00000000: db0d 4e3f 6a38 cc3f 40eb adbf 2a7d 42bf
00000010: baf1 953f dc1c 2d3f 081e 82bd 125e 0abe
00000020: 9aee 8ebf 4624 30c0 6bd0 c63b b5dd 87be
00000030: 1f55 f3bf af55 34c0 ad18 efbf 9cf0 cfbf

weight_ih_l1 f4 [16, 4]
0.72898155 1.1133156 9.252507 1.2264717 -0.04956322 0.58896536 -0.5190905 -1.4748999
2.5481706 1.5438231 -2.7696042 -2.1924927 0.5668429 0.9660072 -3.8383737 -2.2191906
1.3592759 -9.231652 5.6140885 41.11966 -1.3833191 -0.888197 -0.66966546 -0.8754601
-1.0972321 -1.7760737 0.43778846 0.59078085 3.7728515 -3.305731 7.801763 4.577177
4.2516904 4.377344 -1.1833206 -0.30408388 -1.0962086 0.23228389 -0.7619771 -1.6733207
-0.18254972 -0.45047912 -1.3089861 -0.6012236 -4.620054 12.445882 -5.4080286 -0.8215369
-63.12929 -30.545767 56.57686 18.600422 0.18650691 0.14367668 -8.866702 -8.569372
0.13087857 -0.07598276 44.840515 9.644587 2.8235881 0.6171558 1.2898078 3.1681383
00000000: 899e 3a3f 2081 8e3f 450a 1441 06fd 9c3f
00000010: ce02 4bbd 6fc6 163f 1de3 04bf 85c9 bcbf
00000020: 3a15 2340 ff9b c53f 3241 31c0 cd51 0cc0
00000030: 9e1c 113f 3f4c 773f eaa7 75c0 3807 0ec0
00000040: c1fc ad3f d9b4 13c1 9da6 b340 887a 2442
00000050: 9a10 b1bf e160 63bf 326f 2bbf 271e 60bf
00000060: 1a72 8cbf 6256 e3bf cf25 e03e 6a3d 173f
00000070: 6676 7140 1991 53c0 0ba8 f940 3c78 9240
00000080: d90d 8840 3413 8c40 0d77 97bf e2b0 9bbe
00000090: 9050 8cbf d4db 6d3e ee10 43bf 5f2f d6bf
000000a0: 50ee 3abe 33a5 e6be db8c a7bf cae9 19bf
000000b0: 7bd7 93c0 5522 4741 920e adc0 3e50 52bf
000000c0: 6584 7cc2 bb5d f4c1 b44e 6242 aacd 9441
000000d0: abfb 3e3e fb1f 133e 03de 0dc1 261c 09c1
000000e0: 0805 063e d99c 9bbd b05c 3342 3a50 1a41
000000f0: abb5 3440 ecfd 1d3f 6c18 a53f c7c2 4a40

weight_hh_l1 f4 [16, 4]
-0.5976447 1.6271722 -1.4967344 -0.38463503 -0.25549966 1.9116255 0.086955905 -0.3098449
-1.8164232 -0.6678806 1.7331246 -0.10694061 -0.49347603 -0.85791034 5.866643 -11.837383
-22.3337 -79.35945 9.426124 31.325542 -0.77747184 2.1146545 0.8327975 -1.0008067
-1.7855496 4.3883395 2.3394048 -1.3745205 -8.343189 -7.39501 5.215059 -16.238373
0.16685374 4.9387984 -2.2269518 4.887355 0.018305939 1.6441493 1.1661881 -0.57093644
-1.9336678 1.8299068 0.15720741 -1.5382915 8.33786 -1.9038563 -11.673859 4.521735
0.008453898 -4.685438 -1.1916356 3.4534917 9.968297 7.046989 -28.502157 27.860449
-2.0812314 -29.517996 -1.3878798 -1.8404309 0.90615934 -22.16877 0.22932224 -4.489626
00000000: 3eff 18bf 2e47 d03f fe94 bfbf e2ee c4be
00000010: dad0 82be 25b0 f43f f015 b23d fea3 9ebe
00000020: 8e80 e8bf 39fa 2abf 07d7 dd3f ae03 dbbd
00000030: e4a8 fcbe 03a0 5bbf 8abb bb40 ec65 3dc1
00000040: 6bab b2c1 0ab8 9ec2 67d1 1641 b69a fa41
00000050: 6508 47bf 8056 0740 3832 553f 6f1a 80bf
00000060: e48c e4bf 476d 8c40 cfb8 1540 4af0 afbf
00000070: b47d 05c1 eca3 ecc0 c3e1 a640 30e8 81c1
00000080: b5db 2a3e a30a 9e40 6186 0ec0 3665 9c40
00000090: 56f6 953c 7c73 d23f a745 953f e428 12bf
000000a0: 6d82 f7bf 633a ea3f fbfa 203e bce6 c4bf
000000b0: e067 0541 90b1 f3bf 20c8 3ac1 0eb2 9040
000000c0: 3882 0a3c 1cef 95c0 8487 98bf 0206 5d40
000000d0: 257e 1f41 ef80 e140 6b04 e4c1 33e2 de41
000000e0: e532 05c0 db24 ecc1 0ca6 b1bf 3d93 ebbf
000000f0: 0ffa 673f a459 b1c1 73d3 6a3e 04ab 8fc0

bias_ih_l1 f4 [16]
0.096300334 -0.8795228 -0.65327805 -0.12034092 -5.960922 1.1105696 2.0694525 -0.18580256
0.31232056 0.66841745 0.6495505 -3.0795941 -0.57848376 -4.775279 -1.1990196 -1.1295888
00000000: 1c39 c53d 6828 61bf 3b3d 27bf 4d75 f6bd
00000010: dfbf bec0 2527 8e3f e971 0440 0743 3ebe
00000020: 7be8 9f3e 681d 2b3f f148 263f 1218 45c0
00000030: 8317 14bf 16cf 98c0 7979 99bf 5e96 90bf

bias_hh_l1 f4 [16]
0.038450714 -0.996899 -0.07496265 -0.4770742 -5.825683 1.4390279 1.8173671 -0.55206615
0.37905195 -0.1124441 0.9591093 -2.6237597 -0.30966383 -5.2255974 -0.78673 -0.6599083
00000000: 7f7e 1d3d c634 7fbf 0586 99bd 1243 f4be
00000010: ff6b bac0 1132 b83f 7c9f e83f 3554 0dbf
00000020: 1913 c23e 1849 e6bd 3088 753f aeeb 27c0
00000030: 428c 9ebe 1838 a7c0 2367 49bf c0ef 28bf

weight f4 [2379, 4]
-3.1295874 13.03635 -14.361779 20.977453 -3.516712 13.270427 -3.2361953 3.8047457
-3.3021612 13.089728 -7.78058 8.665363 -3.051226 13.178558 -10.106611 14.573975
-3.0634997 12.986591 -18.134087 32.244453 -2.824795 13.209242 -10.92142 17.746008
-3.510918 13.031625 -11.712973 15.959099 -3.4745796 13.049165 -20.071085 38.671665
2.8379593 -2.9011862 -2.8313181 3.92662 2.5547981 -2.937028 -2.4763746 3.3740685
2.6684284 -3.1305916 -3.4211428 3.8847616 2.6361122 -3.2017734 -3.118052 4.056887
-3.1798027 12.611623 -18.748795 26.422165 -3.1004725 12.942562 -22.4282 41.226727
-3.1543093 2.59261 -25.752079 24.76837 -3.4085937 13.101988 -9.338064 5.866406
-3.1505423 13.15965 -7.0961485 5.2925506 -3.2987254 8.567886 -18.952595 29.215202
3.6030264 -69.011696 4.215488 -4.266265 5.555833 -16.411701 0.021861106 6.975619
-1.9019318 12.668012 0.29306296 -5.6477594 0.26312205 -35.451847 -2.0053754 -6.110264
-1.3328844 10.931163 0.74331266 -4.372318 1.5173748 -27.292316 0.150438 -3.5327013
2.8932588 -2.740265 -3.395561 4.241444 2.8914278 -38.962444 0.57000154 -1.270076
-3.2031271 13.193313 -6.734029 6.7910876 -3.3449104 5.7257924 -17.500113 24.488056
-1.7729561 12.551254 -3.0976896 0.8659 2.6564176 -2.748337 -2.5542445 3.0597718
-0.4206554 -9.860143 4.401775 -5.836115 -2.733966 8.910013 3.49737 -2.7291553
2.7108657 -3.1928895 -3.1452441 3.985447 1.9313768 -20.075012 3.0793805 -3.0042322
0.8017457 -4.6108537 1.854372 -2.207759 1.0300176 -3.259243 3.8240628 -4.359887
2.466242 -2.610842 -2.840577 2.9746861 5.29788 -46.801807 2.4992566 -1.8611959
2.7013257 -16.749287 0.5522381 -3.3744705 -3.4833145 4.561973 3.857551 -3.9543264
0.35755405 -28.018246 5.4601893 -3.6640954 -3.4129832 -5.9864483 3.300218 -2.26567
-2.7774103 12.976941 -2.7891262 -4.2894607 -3.5832803 -5.7484794 3.8185468 -3.7321804
5.055388 -58.403294 2.7100031 4.6824675 -2.353872 12.232685 -0.8064456 0.5010292
3.7014725 -7.921177 1.0651582 3.2599902 -2.690902 12.928156 -0.47817692 2.0901167
0.2917862 -2.0274117 2.4209645 4.688678 -0.13874662 10.565047 0.40160325 0.6063252
2.6792169 -43.498295 -0.8577465 -0.40850765 6.241478 -4.667498 6.0130835 -3.788356
-4.0614614 -8.542716 4.0298033 -0.4356768 -1.0570511 0.9216447 3.5788293 -3.0350773
-2.3289719 1.0906063 3.1982977 -1.8473204 -0.8860553 4.754985 -1.4017049 -4.587921
-0.0019272525 -1.6267297 -1.1505244 -4.387752 -2.2651978 12.800371 -0.117515415 1.4530201
0.27909097 8.038616 -2.3434207 -4.8002152 1.249909 1.3624567 2.7637706 -2.1681774
-2.9494164 12.986022 -3.3532984 3.8986804 2.2886078 -2.7797923 -2.364337 2.875098
2.7525396 -2.8712893 -2.8135414 3.373579 2.6503544 -2.576407 -3.117722 3.5009072
00000000: 294b 48c0 e494 5041 d9c9 65c1 d3d1 a741
00000010: cf11 61c0 ab53 5441 d31d 4fc0 f480 7340
00000020: 9c56 53c0 876f 5141 83fa f8c0 54a5 0a41
00000030: 4947 43c0 60db 5241 aeb4 21c1 002f 6941
00000040: 6110 44c0 14c9 4f41 9c12 91c1 52fa 0042
00000050: 71c9 34c0 0e59 5341 23be 2ec1 d3f7 8d41
00000060: e1b2 60c0 8981 5041 5668 3bc1 7858 7f41
00000070: 835f 5ec0 61c9 5041 9591 a0c1 c9af 1a42
00000080: 20a1 3540 09ad 39c0 5134 35c0 be4d 7b40
00000090: d081 2340 44f8 3bc0 ec7c 1ec0 bdf0 5740
000000a0: 88c7 2a40 9d5b 48c0 01f4 5ac0 ef9f 7840
000000b0: 10b6 2840 dbe9 4cc0 2a8e 47c0 05d2 8140
000000c0: e381 4bc0 35c9 4941 88fd 95c1 9860 d341
000000d0: 246e 46c0 bc14 4f41 f46c b3c1 2be8 2442
000000e0: 34e0 49c0 52ed 2540 4204 cec1 9f25 c641
000000f0: 6626 5ac0 bea1 5141 b668 15c1 99b9 bb40
00000100: 7ca2 49c0 ed8d 5241 a613 e3c0 935c a940
00000110: 511e 53c0 1016 0941 ea9e 97c1 bcb8 e941
00000120: fc97 6640 fd05 8ac2 47e5 8640 3e85 88c0
00000130: 62c9 b140 2a4b 83c1 1016 b33c 4538 df40
00000140: 8072 f3bf 2db0 4a41 590c 963e 72ba b4c0
00000150: efb7 863e b1ce 0dc2 1258 00c0 4887 c3c0
00000160: f59b aabf 0be6 2e41 bd49 3e3f 07ea 8bc0
00000170: 5639 c23f aa56 dac1 6b0c 1a3e c717 62c0
00000180: 272b 3940 8060 2fc0 df50 59c0 e9b9 8740
00000190: 270d 3940 8bd9 1bc2 9feb 113f da91 a2bf
000001a0: 0900 4dc0 cf17 5341 2a7d d7c0 9750 d940
000001b0: 0313 56c0 b139 b740 3b00 8cc1 8ae7 c341
000001c0: 3af0 e2bf f0d1 4841 8c40 46c0 9fab 5d3f
000001d0: bf02 2a40 c1e4 2fc0 be78 23c0 4dd3 4340
000001e0: 2560 d7be 25c3 1dc1 57db 8c40 74c1 bac0
000001f0: 4df9 2ec0 6a8f 0e41 e9d4 5f40 7baa 2ec0
00000200: d37e 2d40 4d58 4cc0 ae4b 49c0 9011 7f40
00000210: 5b37 f73f a099 a0c1 9214 4540 5745 40c0
00000220: 353f 4d3f 1d8c 93c0 105c ed3f ec4b 0dc0
00000230: 9ed7 833f 7097 50c0 72bd 7440 3284 8bc0
00000240: e9d6 1d40 0918 27c0 03cc 35c0 4261 3e40
00000250: 3c88 a940 0d35 3bc2 d2f3 1f40 ab3b eebf
00000260: 85e2 2c40 8afe 85c1 7a5f 0d3f 53f7 57c0
00000270: a0ee 5ec0 affb 9140 1ee2 7640 af13 7dc0
00000280: 5311 b73e 5e25 e0c1 dfb9 ae40 8a80 6ac0
00000290: 516e 5ac0 fc90 bfc0 c636 5340 bd00 11c0
000002a0: 17c1 31c0 8da1 4f41 0b81 32c0 4343 89c0
000002b0: 7754 65c0 8bf3 b7c0 1263 7440 0bdc 6ec0
000002c0: bdc5 a140 f99c 69c2 b170 2d40 c6d6 9540
000002d0: d7a5 16c0 14b9 4341 3873 4ebf 7343 003f
000002e0: ede4 6c40 487a fdc0 1b57 883f aea3 5040
000002f0: bd37 2cc0 bad9 4e41 9bd3 f4be 79c4 0540
00000300: 0065 953e 1dc1 01c0 15f1 1a40 a609 9640
00000310: 9813 0ebe 6f0a 2941 f19e cd3e 2138 1b3f
00000320: 4a78 2b40 41fe 2dc2 4695 5bbf ea27 d1be
00000330: 30ba c740 255c 95c0 2e6b c040 6d74 72c0
00000340: 7ef7 81c0 f7ae 08c1 26f4 8040 0811 dfbe
00000350: 734d 87bf e8f0 6b3f 8a0b 6540 b53e 42c0
00000360: e00d 15c0 fd98 8b3f e9b0 4c40 ff74 ecbf
00000370: 85d4 62bf d628 9840 116b b3bf 40d0 92c0
00000380: dd9b fcba ae38 d0bf 6244 93bf 7768 8cc0
00000390: 00f9 10c0 52ce 4c41 ecab f0bd 90fc b93f
000003a0: 03e5 8e3e 2c9e 0041 9bfa 15c0 5d9b 99c0
000003b0: 05fd 9f3f fb64 ae3f 9ee1 3040 6bc3 0ac0
000003c0: 3dc3 3cc0 bfc6 4f41 719c 56c0 fb83 7940
000003d0: 8d78 1240 1ee8 31c0 4c51 17c0 9b01 3840
000003e0: 9c29 3040 34c3 37c0 1011 34c0 b8e8 5740
000003f0: 689f 2940 dae3 24c0 c288 47c0 dd0e 6040

bias f4 [2379]
2.9992118 2.1749883 0.30390003 -2.8105347 2.03095 -1.3626449 1.3651118 -1.6208601
-13.804616 -13.712058 -13.236506 -13.17713 0.63716555 -0.13455926 -5.5315137 -0.77499837
-1.2581068 -4.838938 2.627912 -5.616374 2.8288615 -0.669752 2.5804853 -4.3393126
-13.898649 -1.9696763 1.821791 -5.215918 2.5062125 -13.5064945 -2.2505803 -4.500684
-13.912737 0.8827785 -5.2916136 1.1964868 -13.433802 1.669874 -5.921158 1.9807022
-3.4582114 2.4770818 0.9267271 2.854734 0.5335949 2.4783258 -7.8989472 1.8290509
-1.1339774 3.763333 0.031654395 2.508746 3.652597 3.0332024 3.0154834 0.88570505
1.4186465 3.0928125 2.8940065 -0.48467103 -0.16812134 -13.348674 -13.108308 -13.151782
-13.338619 -13.812809 -13.689522 -13.24367 -13.291394 -13.249559 -13.598118 -13.083901
-13.612054 -13.747178 -13.236058 -13.105763 -7.719357 -13.398916 -13.510384 1.8842455
2.0374918 -0.22578277 -3.767314 0.76440287 -0.26331556 2.5314317 -2.4506714 -7.0992484
-1.4826868 -0.45659703 -5.3045783 0.9084517 0.92302537 -0.90009826 -13.548356 -5.7812676
-13.652331 -13.597201 -13.826593 -13.220788 -13.788993 -13.532062 -13.821885 -13.7385845
-13.913885 -13.169055 -13.191524 -13.225552 -13.230557 -13.304117 -13.234471 -13.486403
-13.77944 -13.544077 -13.279188 -13.393403 -13.656253 -13.3266945 -13.680236 -13.062567
-13.295138 -13.103176 -13.747257 -13.964391 -13.831127 -13.362956 -13.318018 -13.349746
-13.690937 -13.749091 -13.536231 -13.614922 -13.309015 -3.2324204 1.3037716 -6.7581325
-2.874169 -13.208821 -13.970603 -3.346839 -6.377287 -13.4650955 -13.66999 -13.917815
-13.243314 -5.9466777 -13.454556 -13.687676 -13.388619 -13.284098 -13.595385 -13.0828495
-13.703344 -13.994958 -13.748049 -12.992164 -13.48422 -13.446612 -13.527643 -13.044736
-13.9114485 -13.100038 -13.793287 -12.942861 -13.29579 -13.75471 -13.316169 -13.691061
-13.612641 -13.499757 -13.487771 -13.6546 -13.405832 -13.195231 -13.435105 -12.7616005
-13.110548 -13.690885 -13.835116 -13.7053795 -13.7169285 -13.035609 -13.614748 -13.765433
-12.947538 -13.401774 -13.115395 -13.297242 -13.782189 -6.7433424 -13.150184 -1.0519333
0.22105548 -2.6507077 -6.9564705 0.042732008 -0.6765768 1.1348536 -4.7192993 -13.442334
0.87023485 1.7173197 -6.290808 0.7320593 -1.0251998 -2.7596095 -13.405968 -13.491128
-13.7336645 -13.070213 -13.240769 -13.623678 -14.003399 -13.460197 -13.500806 -13.429313
-13.375651 -13.366313 -13.182281 -13.758201 -13.061408 -13.170522 -13.515281 -13.616314
-13.575655 -13.919513 -13.514358 -13.745931 -13.174297 -13.599917 -13.842159 -13.298551
-13.571491 -13.562643 -13.880825 -13.221998 -13.229348 -13.878521 -13.219503 -13.2866955
-13.807905 -13.492974 -13.344069 -13.504077 -13.449768 -3.980913 -2.0226157 -13.395726
-4.9316964 -13.558563 -13.582742 -13.20065 -13.201987 -13.628632 -13.19468 -12.948941
00000000: 16f3 3f40 0233 0b40 c998 9b3e cddf 33c0
00000010: 16fb 0140 266b aebf fcbb ae3f 5878 cfbf
00000020: b5df 5cc1 9764 5bc1 bbc8 53c1 86d5 52c1
00000030: 481d 233f e7c9 09be 2902 b1c0 4b66 46bf
00000040: a509 a1bf 95d8 9ac0 b62f 2840 56b9 b3c0
00000050: 110c 3540 de74 2bbf ac26 2540 a6db 8ac0
00000060: de60 5ec1 5a1e fcbf 7330 e93f cde8 a6c0
00000070: c965 2040 9a1a 58c1 8209 10c0 9a05 90c0
00000080: 929a 5ec1 c6fd 613f e654 a9c0 7b26 993f
00000090: daf0 56c1 6ebe d53f 207a bdc0 a687 fd3f
000000a0: 5653 5dc0 8288 1e40 fd3d 6d3f f6b3 3640
000000b0: ad99 083f e49c 1e40 2dc4 fcc0 571e ea3f
000000c0: 2c26 91bf 73da 7040 0aa8 013d 4b8f 2040
000000d0: 26c4 6940 fd1f 4240 aefd 4040 91bd 623f
000000e0: 3596 b53f a4f0 4540 6737 3940 cd26 f8be
000000f0: 0028 2cbe 2b94 55c1 a1bb 51c1 b36d 52c1
00000100: fc6a 55c1 4401 5dc1 4808 5bc1 13e6 53c1
00000110: 8da9 54c1 32fe 53c1 e491 59c1 a957 51c1
00000120: f9ca 59c1 71f4 5bc1 e5c6 53c1 35b1 51c1
00000130: f904 f7c0 f661 56c1 882a 58c1 f52e f13f
00000140: 4466 0240 9933 67be ac1b 71c0 e8af 433f
00000150: 4cd1 86be fa02 2240 cdd7 1cc0 0b2d e3c0
00000160: aec8 bdbf 16c7 e9be 1bbf a9c0 4a90 683f
00000170: 644b 6c3f d76c 66bf 11c6 58c1 2500 b9c0
00000180: f36f 5ac1 238e 59c1 ba39 5dc1 5988 53c1
00000190: b79f 5cc1 5383 58c1 7126 5dc1 3ed1 5bc1
000001a0: 469f 5ec1 73b4 52c1 7b10 53c1 dc9b 53c1
000001b0: 5db0 53c1 aadd 54c1 65c0 53c1 4fc8 57c1
000001c0: 9678 5cc1 8ab4 58c1 8e77 54c1 614b 56c1
000001d0: 0380 5ac1 243a 55c1 3fe2 5ac1 4600 51c1
000001e0: e3b8 54c1 9ca6 51c1 c4f4 5bc1 256e 5fc1
000001f0: 4c4c 5dc1 abce 55c1 9a16 55c1 8f98 55c1
00000200: 140e 5bc1 47fc 5bc1 6794 58c1 b8d6 59c1
00000210: baf1 54c1 fadf 4ec0 fde1 a63f 9f42 d8c0
00000220: 63f2 37c0 5557 53c1 9787 5fc1 9c32 56c0
00000230: bc12 ccc0 0871 57c1 47b8 5ac1 5faf 5ec1
00000240: 9de4 53c1 2f4b bec0 dd45 57c1 b900 5bc1
00000250: c937 56c1 aa8b 54c1 b286 59c1 5a53 51c1
00000260: e640 5bc1 59eb 5fc1 02f8 5bc1 e7df 4fc1
00000270: 5dbf 57c1 5325 57c1 3a71 58c1 3db7 50c1
00000280: 4b95 5ec1 c199 51c1 4eb1 5cc1 f515 4fc1
00000290: 8ebb 54c1 4b13 5cc1 070f 55c1 960e 5bc1
000002a0: 61cd 59c1 01ff 57c1 e9cd 57c1 3e79 5ac1
000002b0: 4a7e 56c1 ab1f 53c1 31f6 56c1 842f 4cc1
000002c0: cec4 51c1 dd0d 5bc1 a35c 5dc1 3c49 5bc1
000002d0: 8a78 5bc1 db91 50c1 02d6 59c1 373f 5cc1
000002e0: 1e29 4fc1 ab6d 56c1 a8d8 51c1 81c1 54c1
000002f0: d983 5cc1 76c9 d7c0 2767 52c1 c0a5 86bf
00000300: 5e5c 623e 32a5 29c0 689b dec0 c207 2f3d
00000310: 2334 2dbf e242 913f 8004 97c0 cd13 57c1
00000320: b6c7 5e3f 22d1 db3f 4d4e c9c0 3d68 3b3f
00000330: bf39 83bf 719d 30c0 d87e 56c1 a9db 57c1
00000340: 17bd 5bc1 981f 51c1 31da 53c1 96fa 59c1
00000350: ec0d 60c1 f85c 57c1 4d03 58c1 77de 56c1
00000360: ab02 56c1 6bdc 55c1 9fea 52c1 9721 5cc1
00000370: 87fb 50c1 75ba 52c1 973e 58c1 6cdc 59c1
00000380: e235 59c1 53b6 5ec1 cf3a 58c1 55ef 5bc1
00000390: ecc9 52c1 4399 59c1 7c79 5dc1 ddc6 54c1
000003a0: d424 59c1 9600 59c1 dc17 5ec1 4e8d 53c1
000003b0: 69ab 53c1 6c0e 5ec1 1683 53c1 4e96 54c1
000003c0: 2eed 5cc1 39e3 57c1 4e81 55c1 b310 58c1
000003d0: 4032 57c1 47c7 7ec0 8972 01c0 e554 56c1
000003e0: 75d0 9dc0 e0ef 58c1 e952 59c1 dd35 53c1
000003f0: 573b 53c1 e00e 5ac1 691d 53c1 dd2e 4fc1
