Language_Model/Neural_Language_Model/Saved_Models/neural-model-state-dict-tokenized-1024-2-2.pth (torch, 106915 bytes, 10 tensors)

lstm.weight_ih_l0 f4 [8, 2379]
0	0x400c82f7	2.1954935
1	0x409439f5	4.632075
2	0xbef64cf2	-0.4810558
3	0xc0f13da6	-7.5387754
4	0xc0ca84b6	-6.3287
5	0xc00f4e50	-2.2391548
6	0xbfa7ccb7	-1.3109349
7	0x3f5774b9	0.8416248
8	0x3f2f14e0	0.6839123
9	0x3df1528c	0.11783323
10	0xbee6e3f3	-0.45095786
11	0x3f08fb34	0.53508306
12	0x4091aa8b	4.552068
13	0xc024a26e	-2.572414
14	0x3fbbf12d	1.4682976
15	0x3f85b025	1.044438
16	0x405f5b74	3.4899569
17	0x3fa23bd0	1.2674503
18	0xc0a626e9	-5.19225
19	0xbf5f52d3	-0.87235755
20	0x404ca268	3.1974125
21	0x3fffcc76	1.9984272
22	0xc053d99c	-3.3101568
23	0xbfb92b00	-1.4466248
24	0x3ee1fed6	0.44139737
25	0x40138429	2.3049414
26	0x40be7760	5.952072
27	0x3feba520	1.8409767
28	0x40b5a4a3	5.6763473
29	0xbe34258c	-0.17592448
30	0xbea22a1d	-0.31672755
31	0x3ee1bdca	0.4409011
32	0x3e49f324	0.19721657
33	0xc071750f	-3.7727697
34	0xbfc69721	-1.5514871
35	0x40ddcaf2	6.9310236
36	0xbec7e628	-0.39042783
37	0xbeaa3ca9	-0.33249405
38	0xc023af7d	-2.557586
39	0xc13beefb	-11.745845
40	0x401bc999	2.4341795
41	0x3fb72ee2	1.4311182
42	0x3f27facd	0.65617067
43	0x4007b421	2.1203692
44	0xc09e6320	-4.9496
45	0x40487ff3	3.1328094
46	0x3f696e6c	0.91184115
47	0xc0af1e44	-5.4724445
48	0xc092af2a	-4.5838823
49	0xc0df7a25	-6.98366
50	0xbf98695c	-1.1907153
51	0xbfad66e4	-1.3547025
52	0x3fbdceb2	1.4828703
53	0x4047fb41	3.1247103
54	0xc01d837f	-2.461151
55	0x4038a0e3	2.8848197
56	0xbfb39b52	-1.4031775
57	0x3fb885ac	1.4415793
58	0xc09b07a4	-4.8446827
59	0x3fa41efd	1.2821957
60	0xbea8cfd0	-0.32971048
61	0xbcc2413a	-0.023712743
62	0x3ed5ca1c	0.4175576
63	0x3e246524	0.16054207
64	0xbf152e47	-0.5827374
65	0x3f132762	0.5748197
66	0x3c13ef39	0.009029203
67	0xbefd8fbd	-0.49523726
68	0x3f05d5dc	0.5227945
69	0x3f07313a	0.5280949
70	0xbea3c4e4	-0.31986153
71	0x3f320056	0.6953176
72	0xbe16f423	-0.14741568
73	0xbf056bad	-0.52117425
74	0xbee4eb38	-0.44710708
75	0x3e680f33	0.22662048
76	0x3f3c523a	0.7356297
77	0xbea75345	-0.32680717
78	0x3f0465ce	0.5171784
79	0xbfdce7d8	-1.7258253
80	0x40a01043	5.001985
81	0x3dbd8074	0.09253016
82	0x4007aef2	2.1200528
83	0xbf5082cd	-0.81449586
84	0x40a8271e	5.254775
85	0x408de3ab	4.4340415
86	0x40876e67	4.232227
87	0xbd5f1b71	-0.05446953
88	0xc0e7f2c7	-7.248386
89	0x4001422d	2.019664
90	0x3eefb721	0.46819404
91	0xbf23a222	-0.6391927
92	0x4020e56b	2.5140026
93	0x3ebc81a5	0.3681766
94	0x3f2b5f46	0.6694225
95	0x4043ad11	3.0574381
96	0xbca066ed	-0.019580329
97	0xbd1f4ea6	-0.038893364
98	0xbf199b45	-0.6000255
99	0x3e4caba9	0.19987358
100	0xbd4b95ec	-0.049703524
101	0xbeb50490	-0.35355043
102	0x3e9719f7	0.29511997
103	0xbf26e2e6	-0.6518997
104	0xbf2b47db	-0.6690652
105	0x3f0c5d59	0.5482994
106	0xbe30273a	-0.17202464
107	0xbec3c97f	-0.38239667
108	0x3ec40679	0.38286188
109	0x3ee8990b	0.45429263
110	0x3e946520	0.28983402
111	0xbec8f6a3	-0.3925067
112	0x3e297128	0.16547072
113	0x3ed64cca	0.4185546
114	0x3e6a950e	0.22908422
115	0xbbd5c5d2	-0.006523826
116	0xbd7ae447	-0.06125286
117	0x3d5a6a34	0.05332394
118	0x3f100bc0	0.5626793
119	0x3c6ecfbf	0.014575898
120	0x3ec7f474	0.3905369
121	0x3b8593af	0.004076443
122	0xbe9e7c73	-0.30954322
123	0x3f10176b	0.56285733
124	0xbeffa924	-0.49933732
125	0xbee1d0e2	-0.44104677
126	0x3dd6df4b	0.104918085
127	0xbe7685a8	-0.24074423
128	0xbf300142	-0.6875192
129	0x3ea09ee3	0.3137122
130	0xbf05b966	-0.5223602
131	0x3e9720f3	0.29517326
132	0xbe30367f	-0.17208289
133	0xc0857f5c	-4.171797
134	0xc073b264	-3.807763
135	0x4021503e	2.5205226
136	0x408d14f3	4.4088073
137	0x3f301976	0.6878885
138	0x3b9568d2	0.0045596147
139	0x403cb264	2.948388
140	0x3fa14a97	1.2600888
141	0xbf0c0e6b	-0.547095
142	0x3f0e248e	0.5552453
143	0x3e9a6895	0.30157915
144	0xbf2be79e	-0.67150295
145	0xbfa2af35	-1.2709719
146	0x3e4f90e3	0.20270114
147	0xbe3e6be5	-0.18595846
148	0x3f32aad5	0.6979192
149	0xbe85069e	-0.2598161
150	0x3f223c2c	0.63373065
151	0xbe02fc16	-0.12791476
152	0xbf2011a1	-0.625269
153	0x3e9014fa	0.28141004
154	0x3eca5622	0.3951884
155	0xbefb47c5	-0.49078193
156	0xbf0df2e0	-0.5544872
157	0x3ed6a0a0	0.41919422
158	0x3d4507f5	0.04810329
159	0xbe8cafa8	-0.27477765
160	0x3e973536	0.29532784
161	0xbe34afeb	-0.17645232
162	0x3f254f8e	0.64574516
163	0x3e9123f7	0.28347751
164	0x3f220fe6	0.6330551
165	0x3e7499f3	0.23886852
166	0xbe921cad	-0.28537503
167	0xbeed3904	-0.46332562
168	0x3ce6806a	0.028137404
169	0xbeb80952	-0.3594461
170	0xbf073e13	-0.5282909
171	0xbed7e473	-0.4216648
172	0x3bb8eaad	0.00564321
173	0xbe4070ed	-0.18793078
174	0x3eb84f39	0.35997942
175	0x3bfb2c0c	0.007665163
176	0xbf26769a	-0.6502472
177	0x3e20bd3d	0.15697189
178	0x3eac977d	0.33709326
179	0xbdff78d6	-0.124742195
180	0x3eaefd6c	0.3417772
181	0x3edbc874	0.4292637
182	0xbe9b3191	-0.30311254
183	0xbf187d52	-0.59566224
184	0xbd83cdcf	-0.06435739
185	0xbe86b062	-0.26306444
186	0x3ec507f3	0.38482627
187	0xbf32daad	-0.6986492
188	0x3f19df73	0.6010658
189	0x4011497e	2.2701106
190	0x3f09cdc0	0.53829575
191	0x4023c65e	2.5589824
192	0x407b1a56	3.9234824
193	0xc0333bc4	-2.8005228
194	0x3fce99e7	1.6140717
195	0xc0acd393	-5.400827
196	0xc06dcbff	-3.715576
197	0x40972864	4.7236805
198	0x4038cf88	2.8876667
199	0x3f1fe543	0.624592
200	0xc0a857c3	-5.260713
201	0x40fd7df7	7.9216266
202	0x4000aa88	2.0104084
203	0x408faca8	4.489826
204	0xc0c9e0da	-6.3086977
205	0xbeeeb8c0	-0.46625328
206	0x3ef05cff	0.4694595
207	0xbe3f2eaf	-0.18670152
208	0x3edf7d42	0.43650252
209	0x3f31c040	0.69433975
210	0x3f3079f1	0.6893607
211	0x3e53ab29	0.20670761
212	0xbcc11921	-0.023571553
213	0x3e655d5f	0.223989
214	0x3ec99893	0.39374217
215	0x3eb737e5	0.35784832
216	0x3e1744b4	0.14772302
217	0x3d1f21ec	0.03885071
218	0xbc80c3e7	-0.015718414
219	0xbe6d58fa	-0.23178473
220	0xbee25be0	-0.4421072
221	0x3a44a458	0.0007501296
222	0xbee2e76b	-0.44317183
223	0x3eaf3fc5	0.3422834
224	0x3e1f5cae	0.15562698
225	0x3de27c1a	0.11058827
226	0x3f34cea4	0.7062781
227	0x3d2db75c	0.042411193
228	0x3df2ad57	0.11849468
229	0x3e5b50c9	0.21417536
230	0x3e748b20	0.23881197
231	0x3ef036a5	0.4691669
232	0x3d4a48f7	0.04938599
233	0xbf09ffe2	-0.5390607
234	0xbed38b27	-0.41317102
235	0x3c5e108e	0.013553752
236	0x3ceb3991	0.028713973
237	0x3f28fe6f	0.66013235
238	0xbf121bfe	-0.5707396
239	0xbe4012f8	-0.18757236
240	0x3ed75d0c	0.42063177
241	0x3ef30a83	0.47468957
242	0xbf235228	-0.63797235
243	0xbf13367a	-0.57505
244	0xbe85470d	-0.2603077
245	0x3ef7e576	0.48417252
246	0x404d836a	3.2111459
247	0x3f0c4b4d	0.548024
248	0x404318ef	3.0483968
249	0x3cf9a14e	0.030472424
250	0xbe9a3f7e	-0.30126566
251	0xbf169994	-0.5882809
252	0x3f30495f	0.68861955
253	0x3e94c866	0.29059142
254	0x3f1850fe	0.59498584
255	0x3f28ab2c	0.6588619

lstm.weight_hh_l0 f4 [8, 2]
0	0xc0c50479	-6.156796
1	0x3ce223dd	0.027604992
2	0x41218b18	10.096458
3	0xbeb03a29	-0.34419373
4	0xc09bfae0	-4.8743744
5	0xc097d716	-4.7450056
6	0x3fa26075	1.2685686
7	0xbebf09c2	-0.37312132
8	0x409cef4d	4.9042115
9	0xc09db471	-4.9282765
10	0x4093a6d7	4.614116
11	0x3f7c6b2a	0.9860102
12	0x40fdd5c9	7.932347
13	0xc098fe02	-4.781007
14	0x3fc33c9c	1.5252872
15	0xc02b5ed0	-2.677662

lstm.bias_ih_l0 f4 [8]
0	0x3ef13c84	0.47116482
1	0x3e940014	0.2890631
2	0xbf68e7cc	-0.90978694
3	0x3f24d5b4	0.64388585
4	0xbf47aee4	-0.78001237
5	0xbfccd88e	-1.6003587
6	0x3e7217b0	0.23641849
7	0xbff32532	-1.8995726

lstm.bias_hh_l0 f4 [8]
0	0x3fa71871	1.3054334
1	0x3f774118	0.965837
2	0xbf22814c	-0.6347854
3	0x3f19f87e	0.60144794
4	0xbf8705d2	-1.0548651
5	0xbea86785	-0.3289148
6	0xbf190347	-0.59770626
7	0xc018b98b	-2.3863246

lstm.weight_ih_l1 f4 [8, 2]
0	0x3ee1bc08	0.4408877
1	0x3ea0c670	0.31401396
2	0xc0005e32	-2.0057492
3	0x3fcb220b	1.5869764
4	0xbf248dd6	-0.64278924
5	0xbf87dec2	-1.0614855
6	0x3f4e51fa	0.80593836
7	0xbf268db8	-0.65059996
8	0x3ea7a314	0.32741606
9	0x3f476e51	0.77902704
10	0x3f532d6f	0.824912
11	0xbdb9b3dd	-0.09067509
12	0x400ee3c2	2.2326512
13	0x419278aa	18.308918
14	0xc15666c0	-13.400085
15	0xc15a1252	-13.629473

lstm.weight_hh_l1 f4 [8, 2]
0	0xbfd89fc3	-1.6923755
1	0xbe367941	-0.17819692
2	0xbfa42e51	-1.2826635
3	0xbfb797d7	-1.4343213
4	0xbfd68fc8	-1.6762629
5	0xbf1740c0	-0.59083176
6	0xbfb69cc3	-1.426659
7	0xbf956a42	-1.1673052
8	0x3fd79450	1.6842136
9	0x3c1c39be	0.009535251
10	0x3f5d21c2	0.86379635
11	0x3dff2bd7	0.12459534
12	0xc1216fe2	-10.089815
13	0x4125ea97	10.369773
14	0x40111831	2.2671015
15	0xbed0b773	-0.4076496

lstm.bias_ih_l1 f4 [8]
0	0x3f165e36	0.58737504
1	0xbca38c38	-0.019964322
2	0x3fddffd6	1.73437
3	0x3fdb1969	1.711713
4	0xbf90c0aa	-1.1308796
5	0xbeafa933	-0.34308776
6	0xbfd3bd28	-1.6542101
7	0xc10ef357	-8.934409

lstm.bias_hh_l1 f4 [8]
0	0xbe3faebd	-0.18719001
1	0x3ec5682a	0.38556033
2	0x3fcd8288	1.605546
3	0x3fe68454	1.8009133
4	0xbf876556	-1.05778
5	0xbf5d7bfb	-0.86517304
6	0xbf5fb303	-0.87382525
7	0xc10f432f	-8.953902

fc.weight f4 [2379, 2]
0	0x4186aa20	16.833069
1	0xbfd2c22d	-1.6465508
2	0x40bd80a2	5.9219522
3	0xbfd0d41f	-1.6314734
4	0x40c62a66	6.1926756
5	0xbfbaaaf5	-1.4583422
6	0x408ee1ba	4.4650545
7	0xbf97898b	-1.183885
8	0x418ef59c	17.869926
9	0xbfc8b6ad	-1.5680748
10	0x40e7ded3	7.24595
11	0xbfadb364	-1.3570371
12	0x414d2305	12.82105
13	0xbfd6a243	-1.6768268
14	0x4111eb51	9.11995
15	0xbfc7ebd8	-1.5618849
16	0x404ca101	3.197327
17	0x401f880b	2.4926784
18	0x4008ee5b	2.139548
19	0x401b28fc	2.4243765
20	0x4026071d	2.5941842
21	0x40001a73	2.0016143
22	0x4034ad78	2.8230877
23	0x3ff211a4	1.8911633
24	0x416e0c60	14.878021
25	0xbfc6e66e	-1.5539072
26	0x41555dad	13.33537
27	0xbfb62161	-1.4228936
28	0x4025d5d3	2.5911758
29	0x3e1e6fbf	0.15472315
30	0x40c594fa	6.1744356
31	0xbf972513	-1.1808189
32	0x40aacba7	5.33736
33	0xbfae783b	-1.3630441
34	0x40594064	3.394555
35	0xbf3f4f92	-0.7473079
36	0xc06a1300	-3.6574097
37	0x3e6a832c	0.229016
38	0x3f402c17	0.75067276
39	0xbf4b7f96	-0.79491556
40	0xc0733314	-3.7999926
41	0xbf7ad0f8	-0.9797511
42	0xc0933e1d	-4.601332
43	0xbf604a28	-0.87613153
44	0xc06352a9	-3.5519202
45	0xbf370f95	-0.7150815
46	0xc018cd1b	-2.3875186
47	0xbf77aaf3	-0.9674522
48	0x403073ca	2.7570672
49	0x4003ebfb	2.061278
50	0xc03783ac	-2.8674116
51	0xbfa46a01	-1.284485
52	0x409e6b4b	4.9505973
53	0xbfc147ce	-1.5100038
54	0x401a0272	2.4063993
55	0xbf305de7	-0.68893284
56	0x3f4824a1	0.7818089
57	0xbf977c71	-1.1834852
58	0x402e9c48	2.7282887
59	0x4014f18c	2.3272429
60	0xc09d51be	-4.9162283
61	0xbf314065	-0.69238883
62	0xc015cc23	-2.3405845
63	0xbfaa0db0	-1.3285427
64	0x4022f10b	2.545962
65	0x401d6abc	2.4596395
66	0xc054a9fe	-3.3228755
67	0xbf21a6bd	-0.6314505
68	0xbff8cfc9	-1.9438411
69	0xbf5c57e8	-0.86071634
70	0xc087a981	-4.2394414
71	0xbf3e6e48	-0.74387026
72	0x40103506	2.2532363
73	0x40153798	2.3315182
74	0xc040d78d	-3.0131562
75	0xbef713d7	-0.48257324
76	0xc0353cc6	-2.8318343
77	0xbf1bda6d	-0.60880166
78	0xc087b2ae	-4.2405615
79	0xbf195773	-0.5989906
80	0xc08acc34	-4.337427
81	0xbf8a0972	-1.0784132
82	0xc07599d5	-3.8375142
83	0xbec713e9	-0.38882378
84	0xc036040f	-2.8439977
85	0xbf9da377	-1.231551
86	0xc08c7e6f	-4.390434
87	0xbea88c32	-0.3291946
88	0xbf9ac70d	-1.2091995
89	0xbf27c36d	-0.6553257
90	0x3ec039be	0.37544054
91	0xbfc5b24d	-1.5445038
92	0x3fc265f9	1.518737
93	0x3f86a8f2	1.0520308
94	0x3f94bb00	1.1619568
95	0xbfa9a405	-1.325318
96	0xbf0e7317	-0.55644363
97	0xbf8bccc7	-1.0921868
98	0xbfc36342	-1.5264666
99	0xbf2f9438	-0.6858554
100	0xc0114391	-2.269749
101	0xbf6f1fc6	-0.9340786
102	0xc062b69d	-3.5423958
103	0x3f1c468e	0.6104516
104	0xc0726a0b	-3.7877223
105	0xbdbc3fba	-0.091918424
106	0xc06da885	-3.7134106
107	0xbeb83024	-0.35974228
108	0xc0508a88	-3.2584553
109	0xbecc13f7	-0.39858982
110	0xc0581d3f	-3.376785
111	0xbf621941	-0.88319784
112	0xc0690b47	-3.6413133
113	0xbf2be21e	-0.671419
114	0xbf01db33	-0.50725096
115	0xbfaa8650	-1.3322239
116	0xc07d755f	-3.9602888
117	0xbf349f1b	-0.70555276
118	0xc07c22f0	-3.9396324
119	0xbf79ba17	-0.97549576
120	0x40625751	3.5365794
121	0xbfa53048	-1.2905359
122	0x40087e72	2.1327176
123	0x3fdf9639	1.7467719
124	0x403ca34a	2.9474664
125	0x40053656	2.0814414
126	0x3ff192e6	1.8872955
127	0x3ff55d7d	1.9169155
128	0x40406072	3.0058866
129	0x402456b1	2.5677912
130	0x4022c11a	2.543036
131	0x3fdf0893	1.7424492
132	0x403feaa4	2.9986963
133	0x40140d9a	2.3133302
134	0x4024adfe	2.5731196
135	0x4018b4d2	2.3860364
136	0x4002fa0f	2.0465124
137	0x40042ab1	2.0651057
138	0x4022159a	2.5325685
139	0x40060631	2.094128
140	0x40246973	2.568936
141	0x4001020f	2.0157506
142	0x400a2683	2.1586006
143	0x3ffdd4ab	1.9830526
144	0x3ff16649	1.885934
145	0x3fe7a5f0	1.8097515
146	0x40010b23	2.0163047
147	0x400ac3db	2.168204
148	0x40280fec	2.6259718
149	0x3fdf6656	1.7453105
150	0x402ef60b	2.7337673
151	0x3fe9eaeb	1.8274816
152	0xbcebb702	-0.028773788
153	0x3f2977b4	0.6619828
154	0x4026575d	2.5990822
155	0x3fe3dee2	1.7802393
156	0x40123b82	2.284882
157	0x3ff330d1	1.8999273
158	0xc0465da8	-3.0994663
159	0xbdf11292	-0.1177112
160	0xc080790b	-4.0147758
161	0xbee8526d	-0.45375386
162	0x4045f58c	3.093112
163	0xbfa9dd1e	-1.3270605
164	0xc024a526	-2.5725799
165	0xbf469ede	-0.7758616
166	0xbf4b6961	-0.7945767
167	0xbf8aaec9	-1.083459
168	0xbf990a73	-1.1956314
169	0xbf979cb4	-1.1844697
170	0x3ed8cfff	0.42346188
171	0xbfbf2e7f	-1.4936064
172	0x3fa37cee	1.27725
173	0xbf90a876	-1.130141
174	0x401de8f8	2.4673443
175	0x3ed930b0	0.42419958
176	0xbfba6120	-1.456089
177	0xbfa2487f	-1.2678374
178	0xc082733c	-4.0765667
179	0xbf7f1d1b	-0.99653786
180	0x4021b228	2.5264988
181	0xbee26dc0	-0.44224358
182	0x3f5591bb	0.8342549
183	0xbfa67a90	-1.3006153
184	0xbfb1427c	-1.3848414
185	0xbf80e783	-1.0070652
186	0x41414cec	12.08128
187	0xbfb4ac63	-1.4115108
188	0x4025abdc	2.5886145
189	0x400d4787	2.2074907
190	0xc0a81725	-5.2528253
191	0xbf38f224	-0.7224448
192	0x4001a692	2.0257916
193	0x3ffa87ae	1.9572656
194	0x40085b07	2.1305559
195	0x4010a32f	2.25996
196	0x400f982f	2.2436635
197	0x4001762c	2.0228376
198	0x3ffc18a9	1.9695026
199	0x3fbff442	1.4996417
200	0x401ef7d7	2.483877
201	0x40027d5b	2.038901
202	0x40040904	2.0630503
203	0x3fce356b	1.6110052
204	0x403bab3f	2.932327
205	0x3fe90871	1.8205701
206	0x401426ce	2.3148685
207	0x3fc5cc02	1.5452883
208	0x40182c98	2.3777218
209	0x40134d67	2.3015993
210	0x400c05a1	2.1878436
211	0x4008cf27	2.1376436
212	0x4007b4c2	2.1204076
213	0x401564f9	2.334288
214	0x40113416	2.268804
215	0x40132f6e	2.2997699
216	0x401009e6	2.2506042
217	0x3ff65500	1.924469
218	0x4047aeab	3.120036
219	0x401b0340	2.4220734
220	0x401f7867	2.4917238
221	0x400ca740	2.1977081
222	0x3ff38de2	1.9027674
223	0x40085d95	2.1307118
224	0x400dceb1	2.2157404
225	0x3fce9371	1.6138746
226	0x4024e15f	2.5762556
227	0x3ff8ed1e	1.9447362
228	0x403300c0	2.7969208
229	0x3ffbc626	1.9669845
230	0x40297fda	2.6484284
231	0x40031dfa	2.0487046
232	0x40214638	2.5199108
233	0x40048b96	2.0710196
234	0x402c2ddb	2.6902988
235	0x400d58d0	2.2085457
236	0x400d13c5	2.2043316
237	0x40107827	2.2573335
238	0x40033dfb	2.050658
239	0x3ffdde13	1.9833397
240	0x40085035	2.1298954
241	0x400c09e8	2.1881046
242	0x40045128	2.0674534
243	0x3fe0076b	1.7502264
244	0x4008f29e	2.1398082
245	0x3fe3e6ed	1.7804848
246	0x4030e4cd	2.763965
247	0x400c246c	2.189723
248	0x401c19e7	2.439081
249	0x3fcbd661	1.5924798
250	0x4025b67d	2.5892632
251	0x40227afc	2.5387564
252	0x4014d3bb	2.325423
253	0x3fe08c0b	1.7542738
254	0x4030dd55	2.763509
255	0x3fcf6176	1.6201618

fc.bias f4 [2379]
0	0x405be992	3.436131
1	0x4031c6f0	2.7777672
2	0x3f606cad	0.87665826
3	0xc00f53ee	-2.2394977
4	0x4015c85d	2.3403542
5	0xbf90b914	-1.1306481
6	0x400171f6	2.0225806
7	0xc004f4b2	-2.077435
8	0xc11efd52	-9.936846
9	0xc123f990	-10.248428
10	0xc11e07fd	-9.87695
11	0xc114590a	-9.271738
12	0x3f9741e6	1.1816986
13	0x3e3762b8	0.17908752
14	0xc0a4bd75	-5.148127
15	0xbea6cfcc	-0.3258041
16	0xbf1e3245	-0.61795455
17	0xc08dde35	-4.433375
18	0x404c5a1c	3.1929998
19	0xc0b277c9	-5.577122
20	0x4053916e	3.3057513
21	0xbf2341a2	-0.6377202
22	0x403edff2	2.9824185
23	0xc08985fc	-4.2976055
24	0xc11f510f	-9.95729
25	0xc009452f	-2.1448476
26	0x4019ed94	2.4051256
27	0xc0abf1fe	-5.37329
28	0x40350767	2.8285768
29	0xc125804d	-10.343823
30	0xc00b3d12	-2.1756024
31	0xc0750730	-3.8285637
32	0xc11fc10c	-9.984631
33	0x3f89c996	1.0764644
34	0xc0a09d7c	-5.019224
35	0x3fc787c0	1.5588303
36	0xc11d639e	-9.836821
37	0x4004c4e2	2.0745168
38	0xc0a3586e	-5.1045446
39	0x401e1555	2.470052
40	0xc0327b77	-2.7887857
41	0x40356c12	2.834721
42	0x3faff013	1.374514
43	0x4051833b	3.2736347
44	0x3f2b42b0	0.6689863
45	0x40358762	2.836388
46	0xc0e5bf22	-7.1795816
47	0x40124324	2.285348
48	0xbf9ad607	-1.2096566
49	0x407a7d28	3.913889
50	0xbe43a3d4	-0.19105464
51	0x406d0a27	3.7037446
52	0x4082d85c	4.088911
53	0x4056953b	3.3528583
54	0x40595ddf	3.3963544
55	0x3f9453c0	1.1588058
56	0x3fac9a6f	1.3484629
57	0x4053e36a	3.3107553
58	0x40416ac3	3.0221412
59	0xbefa97e4	-0.48944008
60	0x3f2000c2	0.62501156
61	0xc10de617	-8.868674
62	0xc11e54f2	-9.895739
63	0xc1232176	-10.195669
64	0xc11c3fa8	-9.765541
65	0xc1211375	-10.06725
66	0xc12a713d	-10.652646
67	0xc1234e05	-10.206548
68	0xc1129c85	-9.163213
69	0xc12247b2	-10.142504
70	0xc11a1a87	-9.631476
71	0xc1220ca5	-10.128087
72	0xc10e5f42	-8.898256
73	0xc119a613	-9.603045
74	0xc1101352	-9.004717
75	0xc1255853	-10.334064
76	0xc0f9386b	-7.788137
77	0xc11ec287	-9.922492
78	0xc11676bb	-9.403987
79	0x4011de98	2.279211
80	0x402061fd	2.5059807
81	0x3e51c3ea	0.20484892
82	0xc047e00e	-3.1230502
83	0x3f8a0823	1.0783733
84	0xbeca7ad4	-0.39546835
85	0x403eca23	2.9810874
86	0xc01c0f89	-2.4384482
87	0xc0c2629a	-6.0745363
88	0xbf80ad8b	-1.0052961
89	0xbe55a317	-0.20862995
90	0xc0ac7f37	-5.390529
91	0x3fafabb9	1.372428
92	0x3fa1b9af	1.2634791
93	0xbe89c8e0	-0.26911068
94	0xc11b3f42	-9.702944
95	0xc0a74085	-5.226626
96	0xc1182444	-9.508854
97	0xc11c08cc	-9.752148
98	0xc11269bb	-9.150813
99	0xc10922e2	-8.571016
100	0xc1233707	-10.200934
101	0xc10bbe06	-8.733892
102	0xc1132c22	-9.198275
103	0xc1168029	-9.406289
104	0xc115537a	-9.33288
105	0xc112740b	-9.153331
106	0xc1169b8d	-9.412976
107	0xc1187ec8	-9.530952
108	0xc11e6b86	-9.901251
109	0xc11c7f8a	-9.781137
110	0xc120bb7d	-10.0457735
111	0xc115d3df	-9.364226
112	0xc118c3ce	-9.547804
113	0xc120f544	-10.059879
114	0xc1245bf6	-10.272451
115	0xc1150c80	-9.315552
116	0xc122fc45	-10.186589
117	0xc119d66b	-9.614848
118	0xc1268808	-10.408211
119	0xc1243892	-10.263811
120	0xc11fd758	-9.990074
121	0xc11c3871	-9.76378
122	0xc116e1b3	-9.430102
123	0xc11addd2	-9.679155
124	0xc11af386	-9.684454
125	0xc12ada85	-10.6783495
126	0xc1133942	-9.201479
127	0xc11030fa	-9.011957
128	0xc1179045	-9.472722
129	0xc1204ba4	-10.018467
130	0xc113c5a1	-9.235749
131	0xc1195643	-9.58356
132	0xc11797c2	-9.47455
133	0xc041e365	-3.029504
134	0x3faeab53	1.3646034
135	0xc0d10ef2	-6.5330744
136	0xc02cab4e	-2.6979556
137	0xc124e49b	-10.305812
138	0xc1254e42	-10.331606
139	0xc057a91a	-3.3696961
140	0xc0c11999	-6.0343747
141	0xc124e55e	-10.305998
142	0xc1276cdd	-10.464078
143	0xc12741e2	-10.453585
144	0xc120a7ea	-10.040995
145	0xc0bed992	-5.964059
146	0xc116563f	-9.396056
147	0xc1188609	-9.532723
148	0xc11105e9	-9.063943
149	0xc11a7ae9	-9.655007
150	0xc11b7e50	-9.718338
151	0xc11a8bc6	-9.659124
152	0xc11d90d9	-9.847863
153	0xc110a0b9	-9.039239
154	0xc10ad949	-8.678048
155	0xc1197321	-9.590608
156	0xc11d99f5	-9.850087
157	0xc11a656a	-9.649759
158	0xc12a1188	-10.62928
159	0xc116205e	-9.382902
160	0xc129e6e4	-10.61887
161	0xc118780f	-9.529311
162	0xc120dc19	-10.053735
163	0xc11e6506	-9.899664
164	0xc1199103	-9.597903
165	0xc1256dd6	-10.339315
166	0xc12479e0	-10.279755
167	0xc1145418	-9.270531
168	0xc123b27b	-10.231074
169	0xc11d3d97	-9.827537
170	0xc11e0033	-9.875049
171	0xc1226ef4	-10.152088
172	0xc11e3c98	-9.889793
173	0xc11b84d4	-9.719929
174	0xc1221ec6	-10.132513
175	0xc1247598	-10.278709
176	0xc113d44b	-9.239329
177	0xc11c02d8	-9.750694
178	0xc1213ef0	-10.077866
179	0xc1227ed5	-10.155965
180	0xc12a380f	-10.638686
181	0xc128e284	-10.555302
182	0xc120d7d1	-10.05269
183	0xc11a1d05	-9.632085
184	0xc11b6e1e	-9.714384
185	0xc11cab0a	-9.791758
186	0xc118976e	-9.53697
187	0xc11a9084	-9.660282
188	0xc1137098	-9.214989
189	0xc0cb9870	-6.362358
190	0xc1210c6e	-10.065535
191	0xbf466ba3	-0.7750799
192	0x3edb4eae	0.42833465
193	0xc008c23a	-2.1368546
194	0xc0d1cccb	-6.556249
195	0x3ee36238	0.44410872
196	0xbea96bbf	-0.33090016
197	0x3fbbd97b	1.4675745
198	0xc0888831	-4.266625
199	0xc121bf79	-10.109246
200	0x3fef289f	1.8684272
201	0x4039e200	2.904419
202	0xc0da48b9	-6.8213773
203	0x3f91a38a	1.1378033
204	0xbf17640e	-0.59137046
205	0xbffd1a9f	-1.9773749
206	0xc119e601	-9.618653
207	0xc110fb70	-9.061386
208	0xc1144c90	-9.268692
209	0xc123a662	-10.228121
210	0xc116e81c	-9.431667
211	0xc1179a4a	-9.475168
212	0xc10ddfe7	-8.867164
213	0xc124a486	-10.290167
214	0xc119d851	-9.615312
215	0xc117729c	-9.465481
216	0xc105e996	-8.369528
217	0xc11bb5c5	-9.731877
218	0xc118ce17	-9.550315
219	0xc11d2b7b	-9.823115
220	0xc118e366	-9.555517
221	0xc10dab95	-8.85439
222	0xc1195df0	-9.585434
223	0xc10b1dbf	-8.694762
224	0xc1157254	-9.340412
225	0xc1205755	-10.021321
226	0xc11ecafd	-9.924558
227	0xc112b2ee	-9.168684
228	0xc11416b5	-9.255544
229	0xc1166b95	-9.401265
230	0xc110eecf	-9.058303
231	0xc127af89	-10.480355
232	0xc11bc947	-9.73664
233	0xc128dbcb	-10.55366
234	0xc125fbf8	-10.374016
235	0xc122d5a3	-10.177157
236	0xc1148ca1	-9.284333
237	0xc1169d5c	-9.413418
238	0xc11d4954	-9.830402
239	0xc11e3020	-9.886749
240	0xc111e56d	-9.118512
241	0xc120acfa	-10.042231
242	0xc110bb71	-9.045762
243	0xc127a7ae	-10.478437
244	0xc11bbc62	-9.733492
245	0xc06c5e72	-3.6932645
246	0xbfdd29ca	-1.7278378
247	0xc121f2bc	-10.121761
248	0xc0a9e1d6	-5.308818
249	0xc11adff8	-9.67968
250	0xc11fe3f5	-9.993154
251	0xc11c1778	-9.75573
252	0xc1230502	-10.188723
253	0xc0f4392c	-7.631979
254	0xc1215697	-10.08364
255	0xc11eacca	-9.917185
