Language_Model/Neural_Language_Model/Saved_Models/neural-model-tokenized-512-2-4.pth (torch, 198691 bytes, 18 tensors)

weight_ih_l0 f4 [8, 2379]
00000000: 7fc3 1241 6ac2 983f 13bc ee40 3d4b 753f
00000010: 3f33 9340 cfc8 8d40 ce80 c240 63d4 a43f
00000020: 2187 1fbd 58b0 0cbf 7bfe 0a3f 279f 7fbe
00000030: f043 0641 1a88 b140 dd32 4e40 3a52 eb3f
00000040: 62e2 623f 753b 453e 6de9 90c0 ff1b ffbe
00000050: 6a0d 0641 ab09 6dbf a3f4 d33e df09 1bbf
00000060: 4c9a 84bd f485 52bf d880 0840 279d 3240
00000070: 2c84 c640 3d1f 7e3d 129f 553f 00fa 42c0
00000080: 6024 0abe 3d95 713f 79a7 1640 5002 8f3f
00000090: 3bc7 1bbd bd25 88be 2098 fc3d 372b 9d40
000000a0: 803a fe3e 2183 3b40 7003 2041 1344 4040
000000b0: 234f 303e 021a 7e40 1488 073f 0b8c 0640
000000c0: 694f bd3f dd84 9640 df26 2440 0d7a 6540
000000d0: 3451 cb40 95d7 2440 831d d540 edb3 8d3f
000000e0: dc59 e33f e193 ff40 c35f 1e40 f6c2 d43f
000000f0: ccca ca3f c2b0 023c 8b21 a03e 976e 36be
00000100: 6a89 313f fcb3 2dbf 3a27 34be fab4 f4bd
00000110: aecf 263e 3620 1cbf 0156 93bd 5f19 d2bc
00000120: 4474 1abf 18c3 9e3e f624 293f 3284 e33e
00000130: a2b7 debe 49c3 69be f0a2 4b3e 938a ad40
00000140: d2e3 1141 f49b 7e40 522c 813f e609 eb40
00000150: d72b 9240 9680 ad3f 047c 5ac0 024f 23be
00000160: cb91 36c0 e997 cb3f 04b4 8240 0f54 e640
00000170: bbd0 7d3f d3ea 873f 20e6 34bf 0973 b3be
00000180: 9a5d 0f3f 2d4d 06bf bcc5 c83e c115 243f
00000190: 2e90 133f a30f 9fbe fffb d23c 6fea 123f
000001a0: 8df8 d2be d0da 773c 40df 003f 3c85 72be
000001b0: c760 c5be 4a24 083f db51 553d 7c43 c63e
000001c0: 8249 84be 8dcd 0cbf d323 a53e b718 c83e
000001d0: 3cd1 143e d85c 9fbe a462 20be 0ac2 ef3e
000001e0: 81a3 16be 3a71 8f3e 261f 2abe fd78 163f
000001f0: f106 843e 45ca 603e fdea 16bf 8fcf a6be
00000200: c503 e5be ef92 e1be cb2d e2bc e99f cb3c
00000210: 695b 233f dca0 913e c5e3 d040 ba00 1e3f
00000220: 6fbe 22c0 415f 1abf 0ac6 0a3f 86ae 3a3e
00000230: baaf 243f a73a a7be 6230 7abe 4c9b 35be
00000240: 75ad debe 6698 333f 3294 003f 845a 02bf
00000250: ff4b 03bf 12d4 dc3e aa14 9d3e a9b0 0d3f
00000260: 1b4e 1d3f eb41 103f b2a7 17bd 853c 05bf
00000270: 122d a1be 654b d7be 23fc c03a ac35 6c3e
00000280: 3bc3 bb3e e3b6 763e e50f a3be 5db3 283e
00000290: 3caf c5bd afcb fc3e d81b 2fbf 3446 163f
000002a0: 6607 a5be b575 243f 28e8 aebe 14de 19bf
000002b0: 826a 0b3f 65e7 333f 333c 2ebf 5c20 ab3d
000002c0: 5efc 033f 7feb 2dbf d54b 963e 6ba3 193f
000002d0: 05cf ef3e 72d9 ec3e 36a9 043f 1448 bcbe
000002e0: 1261 203e 3b3e dabd 34bb 283f 3636 17bf
000002f0: 6b72 633e d930 153f 00a0 a93d 4291 b840
00000300: 9057 8b3f 73d3 a640 d77c 02bf b1e5 593f
00000310: be75 a63f f491 4940 3eae c5bc daf6 bc3d
00000320: edff 953f 1284 323f 9777 a2be 5dac 4a40
00000330: 5b5f c540 1231 633f 80f5 bdbe d3f1 d6be
00000340: 6ceb e3be 3fe4 a53e b9eb ae3e f554 5cbe
00000350: 066a fcbe da0b 313f b348 93be 1678 0c3f
00000360: 61b7 fbbe 432d 2bbf 37e4 b6be 91e0 c53e
00000370: 2458 68be cd7d e3bd b7a0 3dbe f239 c0be
00000380: 9f02 263d 9b3a c53d f01b 3cbe c5ca 223f
00000390: 8cc5 e13e 36cf 4d3e e683 cebd 0d1e 093f
000003a0: 97b1 94bd 179c 1abf 51dc 2e3f 1201 72bd
000003b0: 0f0b 26be 8760 163f ab1f 04bf 8a07 ae3e
000003c0: 732b a73e 7bfb ed3d 5873 92be 12ed 24bf
000003d0: 3c97 243f 4f2d 3abf d357 b33f 80af 0a3f
000003e0: 7c97 0d3f b59f 503e bb50 d9be e0c6 82be
000003f0: 77c0 d73e 37ce 0d3f 09c9 983d 712c 493e
9.172729 1.193433 7.4604583 0.9581793 4.6000056 4.430763 6.078223 1.2877315
-0.03894723 -0.5495658 0.54294556 -0.24963056 8.391586 5.547864 3.2218544 1.8384469
0.8862668 0.19260962 -4.5284944 -0.49826047 8.378275 -0.9259288 0.4139758 -0.6056194
-0.06474742 -0.82235646 2.132864 2.7908418 6.2036343 0.06204151 0.8344585 -3.0465088
-0.13490438 0.94368345 2.3539717 1.1172581 -0.038031798 -0.26591292 0.12333703 4.9115252
0.49654007 2.9298785 10.000839 3.004155 0.17217688 3.9703374 0.52942014 2.1022975
1.4789859 4.7037187 2.5648725 3.5855744 6.3536625 2.575658 6.6598525 1.1070534
1.7761798 7.9868016 2.4745948 1.6621997 1.5843139 0.007976713 0.3127559 -0.17815624
0.693503 -0.6785276 -0.17593089 -0.11948581 0.16290161 -0.6098665 -0.07194138 -0.025646864
-0.6033366 0.3100822 0.6607202 0.44436795 -0.43499476 -0.22828402 0.19886374 5.423166
9.11812 3.9782686 1.009165 7.3449583 4.5678515 1.3554866 -3.4138193 -0.15948108
-2.8526485 1.5905734 4.0844746 7.197761 0.9914662 1.0618538 -0.7066364 -0.35048702
0.560022 -0.5246151 0.3921336 0.64095694 0.57641876 -0.31066617 0.025754927 0.5738897
-0.41205254 0.015127853 0.5034065 -0.23683637 -0.38550398 0.5318037 0.052080017 0.38723361
-0.25837332 -0.55001146 0.32253894 0.39081356 0.14532942 -0.31125522 -0.15662628 0.46827728
-0.1471081 0.28016073 -0.16613445 0.58778363 0.25786546 0.2195216 -0.58952314 -0.3258023
-0.44729438 -0.44057414 -0.027609726 0.024856525 0.63811356 0.28443038 6.527804 0.6171986
-2.5428731 -0.60301596 0.54208434 0.18230638 0.6433064 -0.32661936 -0.24432519 -0.17735022
-0.43491712 0.70154417 0.5022613 -0.50919366 -0.51287836 0.43130547 0.30679828 0.55347687
0.61447304 0.5635058 -0.03702516 -0.5204547 -0.31479698 -0.4204971 0.001472358 0.23067349
0.36672387 0.24093203 -0.31848064 0.16474672 -0.09652564 0.49374148 -0.6840186 0.5870087
-0.32232207 0.64242107 -0.34161496 -0.6010449 0.54459393 0.70274955 -0.68060607 0.083557814
0.51556957 -0.67937464 0.2935473 0.6001498 0.4683763 0.46259648 0.51820695 -0.3677374
0.1566203 -0.10656401 0.6591065 -0.59067094 0.22211616 0.5827766 0.08282471 5.7677317
1.0886097 5.2133117 -0.5097174 0.85116106 1.3004682 3.1495333 -0.024130937 0.09226771
1.1718727 0.69732773 -0.31731865 3.1667702 6.16789 0.8874675 -0.37101364 -0.41981372
-0.4451555 0.324007 0.34164217 -0.21516784 -0.4929964 0.6915871 -0.28766403 0.54870737
-0.49163345 -0.6686594 -0.3572099 0.38647893 -0.22689873 -0.11107979 -0.18518339 -0.3754421
0.040529843 0.09630319 -0.18370032 0.6359065 0.4409603 0.20098576 -0.100837514 0.5356148
-0.07260435 -0.60394424 0.68304926 -0.059083052 -0.16215156 0.5874104 -0.5161082 0.33990127
0.32650337 0.11620232 -0.28603625 -0.6442424 0.64293265 -0.72725385 1.4011177 0.5417404
0.5530927 0.20373423 -0.42444405 -0.25542355 0.42139027 0.55392784 0.074602194 0.1964586

weight_hh_l0 f4 [8, 2]
00000000: 5f8e b741 8c77 0ebf 972d a13e c9ef 123f
00000010: 3585 0240 9134 9bbf 0384 ff3e 18de 903f
00000020: 2435 b0bf f826 d43f ff96 c3be dc36 183e
00000030: 2248 60c0 a91d eb3f f478 fbbe d101 0841
22.944517 -0.55651164 0.31480095 0.57397133 2.0393803 -1.2125417 0.49905404 1.1317778
-1.3766217 1.6574392 -0.38201138 0.14864677 -3.5044026 1.8368427 -0.49115717 8.500443

bias_ih_l0 f4 [8]
00000000: 7738 88bf d3f9 f43f 7e42 dc3e b99d e73f
00000010: 71a4 5240 9b56 c43f 0faf 8c40 f315 acc0
-1.0642232 1.913874 0.4301948 1.8095008 3.2912867 1.533893 4.3963695 -5.3776793

bias_hh_l0 f4 [8]
00000000: d25b abbf f33b 813f c932 253f c43e 9d3f
00000010: 45c2 4740 f53a 483f a02a 9940 5966 b3c0
-1.3387396 1.009642 0.64530617 1.228478 3.1212323 0.7821496 4.7864532 -5.6062436

weight_ih_l1 f4 [8, 2]
00000000: 0bb0 5c3f ae67 0d40 1b4a 1541 d501 93c1
00000010: 75a5 67bd 22bc a43f f6f5 9840 328e 52c1
00000020: 0d5c 413f 3990 aa3f 42d0 1cc2 7d8c bbc1
00000030: 213a 73c1 bbaf 9341 dce6 2b41 e8d6 1c42
0.8620612 2.209453 9.330592 -18.375895 -0.056554276 1.2869914 4.7800245 -13.159716
0.75531083 1.3325263 -39.203377 -23.443598 -15.201692 18.460806 10.743862 39.20987

weight_hh_l1 f4 [8, 2]
00000000: 9a51 883f f516 8ebf ca2e 873e b650 b3c0
00000010: 6595 ab3f 8317 dbbe 12e4 cabf 328b b2c0
00000020: 8742 813f 9865 23bf 4235 3b3e 4c24 c141
00000030: d7f9 3b40 76ba 8440 bbec f93d 2554 75c0
1.0649903 -1.1100756 0.26402885 -5.6036024 1.3404967 -0.42791376 -1.5850852 -5.5794916
1.0098428 -0.63826895 0.18282035 24.142723 2.937124 4.1477613 0.12203356 -3.8332608

bias_ih_l1 f4 [8]
00000000: 9b19 b73f d9ca 6d40 3ca7 d93f 6844 b0bf
00000010: eddb cd3f 6883 083f 171f 26c1 c1ad debf
1.4304689 3.7155058 1.7004161 -1.3770876 1.6082741 0.5332551 -10.38259 -1.7396775

bias_hh_l1 f4 [8]
00000000: 65ba 813f e460 8340 a60a b63f 2655 08c0
00000010: eb27 ab3f fc6e ffbe 933f 1dc1 d183 21c0
1.0135008 4.1055775 1.4222 -2.130197 1.3371557 -0.49889362 -9.828021 -2.5236704

weight_ih_l2 f4 [8, 2]
00000000: 158f 9f3f dd02 d23e 7f10 4bbf 146d 2c42
00000010: 65ce 8abf 1462 79bf 805d 1142 9161 b440
00000020: eaab febe b76e 213e f921 5941 1304 07c1
00000030: eb53 ae43 4c19 8b43 8c06 93c3 3d1f 5bc2
1.246554 0.4101781 -0.79322046 43.10652 -1.0844237 -0.9741528 36.34131 5.63691
-0.49740535 0.1576489 13.570794 -8.438495 348.6556 278.19763 -294.05115 -54.780506

weight_hh_l2 f4 [8, 2]
00000000: 6201 33c0 e3f5 0cc0 ac0d 35c1 425f 07c2
00000010: e679 bebf 9ddb 70bf bee4 4fc0 a922 a0bf
00000020: 1545 423f 7bfc 9e3f 1d11 803f 2bfc 8b40
00000030: c551 a3c0 836c 28bf 16fb 6840 325b a0c0
-2.7969594 -2.2025077 -11.315838 -33.843025 -1.488095 -0.94085103 -3.2483363 -1.2510577
0.7588666 1.2420801 1.0005223 4.374532 -5.1037316 -0.65790576 3.640325 -5.0111322

bias_ih_l2 f4 [8]
00000000: a3aa 89bf f07d d541 84a0 1140 4547 e9c0
00000010: ecbb bfbf 4949 ffc0 27db a6bf 88b6 63bf
-1.0755199 26.686493 2.275422 -7.28995 -1.4979224 -7.977696 -1.303563 -0.88950396

bias_hh_l2 f4 [8]
00000000: 46cb bfbe 284e d641 4d7f 1340 08d3 d1c0
00000010: def9 03c0 4496 09c1 4b7e 92bf d964 85bf
-0.37459773 26.788162 2.3046448 -6.5570107 -2.0621257 -8.599186 -1.1444792 -1.0421401

weight_ih_l3 f4 [8, 2]
00000000: e387 cac0 d0ee 97c0 3148 4c41 33d3 42c0
00000010: 55c1 d741 689d bf41 ff93 8f41 e54c 1541
00000020: 48d9 f3c0 1e0f 0e40 042d f8c2 787a 1bc1
00000030: eb01 033a 4854 c5be bc06 9cbf a7d3 a3be
-6.3290877 -4.747902 12.767625 -3.0441406 26.9694 23.951859 17.947264 9.331273
-7.6202736 2.2196727 -124.08792 -9.7174 0.0004997539 -0.38540864 -1.2189555 -0.31997415

weight_hh_l3 f4 [8, 2]
00000000: 9bb5 44c1 d6e2 4942 05bb e2bf daf1 b23f
00000010: 91dc 11c1 b2db a741 48d9 bcc0 245a 5641
00000020: bb0d 703f 9ba8 1d40 1f92 4cc0 a2da e040
00000030: 821c fdc0 8e36 2d3f ef6d 26c1 ad64 1541
-12.294337 50.47152 -1.7713324 1.3980057 -9.116349 20.982273 -5.9015236 13.397007
0.9377095 2.4634159 -3.1964185 7.0266886 -7.90973 0.6766137 -10.401839 9.337079

bias_ih_l3 f4 [8]
00000000: 49d7 38bf cad3 b840 1240 cdbe 14ec 543e
00000010: 7d9f 8ec0 c956 953d ef99 80bf 1503 b9bf
-0.722035 5.775853 -0.40087944 0.20793182 -4.456969 0.072919436 -1.0046977 -1.4454066

bias_hh_l3 f4 [8]
00000000: 3c6c b2bf b0cd 9c40 eefa 683e 7fdf 203e
00000010: ee4b adc0 5903 9cbd dc22 c4bf 559f 9abf
-1.393928 4.9001083 0.22751972 0.15710257 -5.4155188 -0.07617826 -1.5323138 -1.2079874

weight f4 [2379, 2]
00000000: 63bb 6241 fb38 68c0 e2c8 c340 0006 7bbe
00000010: 51e7 0f41 bf8a c7bf c1dd 2541 b993 46c0
00000020: 9e8d 7f41 d804 a5c0 7bb8 3741 41d2 a2c0
00000030: f128 5841 7d45 57c0 6c7b 8241 7f32 c8c0
00000040: 59d2 8240 b674 35c0 7c45 3640 71c6 2ec0
00000050: 1407 4040 ff6b 53c0 a0bc 5840 6511 6fc0
00000060: 42d3 7941 1c01 9cc0 6e65 8941 ed75 a9c0
00000070: 029a 1141 3ed6 e5c0 6474 da40 765f 0fbf
00000080: 44d2 e040 f8c7 69bf 8ba6 2741 efe3 dfc0
00000090: ddaf 28c0 da24 0c40 76d6 dc3f dd15 a8bf
000000a0: c661 3dc0 8458 1340 2828 72c0 bb51 5e40
000000b0: 0d21 31c0 0250 0a40 2a0f 07c0 0dce ae3f
000000c0: e9dc 6740 3dd5 80c0 22f4 05c0 6fa2 da3f
000000d0: e256 ad40 19a5 d5be 625a 2341 53ff a3c0
000000e0: 7847 f13f 9225 4b3f 8109 5040 df3b 73c0
000000f0: d489 46c0 d5b4 1d40 1c86 2ac0 9f29 0040
00000100: 5b74 6140 3ef6 62c0 5479 1fc0 8387 e23f
00000110: ddd7 76bf cb9a 7d3f 4466 63c0 2d08 2340
00000120: 9af6 7240 7a25 78c0 3daa 1cc0 0b2d df3f
00000130: 5c32 0cc0 fd0c 973f 7fca 2dc0 9cfc 0940
00000140: 9d82 4cc0 48af 3140 be93 2dc0 749a f63f
00000150: eb7e 35c0 a2a1 1940 7b5e 5ec0 f860 2040
00000160: 14b8 893e f243 4cbe 3a78 113e c681 433f
00000170: b5ee 0140 7301 e1bf 683c 0240 6612 7f3e
00000180: 8801 2d3f 1109 8c3e f3ea b2bf ef96 b23f
00000190: a3f0 90bf 3a80 803f 7d74 3ac0 3880 0140
000001a0: 4381 30c0 ddff fc3f 0064 31c0 0c2a 0a40
000001b0: fc48 09c0 6821 e93f f573 48c0 5c7f 0940
000001c0: 5f8b 36c0 d709 1140 2226 463f 798f 6c3f
000001d0: e127 45c0 390d 1940 f77c 1cc0 3baf de3f
000001e0: 979b 9c40 59c5 6fbf b518 4940 08a9 5dc0
000001f0: f348 8640 e5a7 75c0 2297 7940 0e9c 50c0
00000200: cad1 4d40 590e 3bc0 f734 4a40 b091 4cc0
00000210: 40d2 7a40 be05 3ac0 5695 7740 e3de 79c0
00000220: eb02 7a40 1960 71c0 6520 4040 3e7b 40c0
00000230: 078b 7340 cace 50c0 849f 7540 5112 44c0
00000240: c98f 6040 dc8b 71c0 d463 7c40 9e1f 82c0
00000250: 7a2b 7140 1bbd 6cc0 e7eb 7b40 daff 77c0
00000260: 2977 45bf 95b7 213f f5f0 7740 e070 55c0
00000270: 53f2 4640 1d0b 61c0 194f 1cc0 4341 ed3f
00000280: e431 35c0 73d9 1040 680e 6340 965f 06bf
00000290: e486 513e d4da 863f f661 fa3e 3196 383f
000002a0: 3934 223f 7b6b 223f b07d 273f 4d8f 8e3f
000002b0: 1e22 2c40 50b5 793e a682 0441 e3f6 15c1
000002c0: 4512 49bf 1812 d23f 3fa8 2ec0 f475 0840
000002d0: 121b 0241 bf9e e9c0 81b5 993f fb04 3d3f
000002e0: 01e3 7bbf 067e f73f 0dc4 8941 d745 c1c0
000002f0: 01f4 8240 23bd 72c0 2587 9dc0 2583 0a40
00000300: 0f74 6640 273b 6ec0 27f0 7d40 80ea 45c0
00000310: 8575 5a40 9882 2ac0 00e4 3e40 28ca 1ac0
00000320: 8dd8 8340 7827 61c0 b200 3440 3992 21c0
00000330: d37d 8440 5726 6cc0 4f15 8040 7653 7dc0
00000340: 7a88 7040 5012 36c0 e310 4340 641a 7cc0
00000350: e0e6 3340 85ae 18c0 9bcb 7b40 5178 7bc0
00000360: 9fce 8040 5122 73c0 6975 8240 a23f 5fc0
00000370: a11f 5240 f957 5ec0 a32d 8340 eff1 65c0
00000380: 4f01 5d40 6c02 69c0 970c 5640 d76d 33c0
00000390: 883d 4940 8090 1dc0 d531 5540 f3cf 44c0
000003a0: e479 4a40 3faf 34c0 c425 6740 59d9 51c0
000003b0: 7869 5040 65ee 59c0 9b63 7840 88aa 33c0
000003c0: 4cb1 7040 02ba 6ec0 f0e4 5540 f90f 20c0
000003d0: 9d23 5440 c800 35c0 152e 4240 b350 5fc0
000003e0: 2ece 5740 5471 29c0 8f68 5940 a636 4ec0
000003f0: 655c 6840 8ddb 66c0 a231 4740 e974 2ac0
14.170749 -3.6284778 6.118272 -0.24514008 8.993974 -1.5589217 10.366639 -3.1027663
15.9720745 -5.1568413 11.482539 -5.0881658 13.509995 -3.3636162 16.310265 -6.256164
4.088177 -2.8352485 2.847991 -2.730862 3.000432 -3.3034666 3.3865128 -3.7354367
15.614077 -4.8751354 17.174526 -5.295645 9.1001 -7.1824026 6.826708 -0.56005037
7.025667 -0.91320753 10.47816 -6.996574 -2.6357338 2.1897492 1.7252948 -1.3131672
-2.9590926 2.3022776 -3.783701 3.4737384 -2.7676423 2.1611333 -2.1103005 1.3656632
3.6228583 -4.02603 -2.0930257 1.7080821 5.416856 -0.41727522 10.209566 -5.1249175
1.8849936 0.793542 3.25058 -3.8005292 -3.1021624 2.464162 -2.6644354 2.0025403
3.5227268 -3.5462794 -2.4917803 1.7697605 -0.9642313 0.9906432 -3.5531168 2.547374
3.7963014 -3.8772874 -2.4478905 1.7435621 -2.1905737 1.1800839 -2.7154844 2.156043
-3.195472 2.7763233 -2.7121425 1.9265885 -2.8358715 2.4004903 -3.4745166 2.5059185
0.26898253 -0.19947794 0.14206019 0.76369894 2.0301945 -1.7578567 2.034937 0.24909362
0.6758046 0.27350667 -1.3977951 1.3952311 -1.1323436 1.0039132 -2.9133599 2.0234509
-2.7578895 1.9765583 -2.7717285 2.1588163 -2.1450796 1.821332 -3.1320775 2.1483984
-2.8522565 2.2662256 0.77401936 0.9240642 -3.080559 2.391432 -2.4451272 1.7397226
4.893993 -0.93660504 3.142133 -3.4634418 4.196405 -3.8383725 3.8998494 -3.2595248
3.2159295 -2.9227507 3.1594827 -3.196392 3.9190826 -2.9066005 3.8684897 -3.904229
3.906428 -3.7714903 3.0019772 -3.007522 3.8053606 -3.2626214 3.837861 -3.063618
3.508776 -3.7741613 3.943593 -4.0663595 3.7682786 -3.699042 3.9362733 -3.874991
-0.7713495 0.6317075 3.8740819 -3.3350143 3.1085403 -3.5163033 -2.4423277 1.8535541
-2.83117 2.263272 3.5477543 -0.524896 0.20461613 1.0535531 0.48902863 0.72104174
0.63360935 0.6344525 0.6542616 1.1137482 2.6895823 0.24385571 8.281897 -9.372775
-0.785435 1.6411772 -2.729019 2.1321993 8.131609 -7.300628 1.2008516 0.73835725
-0.98393255 1.9335334 17.220728 -6.0397754 4.0922856 -3.792794 -4.922747 2.1642544
3.6008337 -3.7223604 3.9677827 -3.0924377 3.4134228 -2.6642208 2.982666 -2.4185886
4.1201844 -3.518034 2.8125424 -2.5245497 4.1403594 -3.68984 4.002601 -3.958219
3.7583299 -2.8448677 3.0479057 -3.9391108 2.8109665 -2.3856518 3.934302 -3.9292185
4.0252223 -3.7989695 4.0768323 -3.4882588 3.2831805 -3.4741194 4.099321 -3.5928915
3.4532049 -3.6407728 3.3445184 -2.803579 3.1443806 -2.4619446 3.3311665 -3.0751922
3.1636896 -2.8231962 3.61168 -3.2788908 3.2564373 -3.4051754 3.8810794 -2.8072834
3.7608213 -3.730103 3.3420982 -2.500975 3.3146737 -2.8281727 3.0340626 -3.4893005
3.3719592 -2.647542 3.3970068 -3.2220855 3.6306393 -3.6071503 3.1124043 -2.6633856

bias f4 [2379]
00000000: df0f 6040 e063 3140 6666 5d3f 0157 11c0
00000010: 7d35 1940 a235 97bf e2da 0740 66b0 aebf
00000020: f9f4 54c1 9313 4ac1 dc1e 59c1 f66e 53c1
00000030: f233 983f 66cc a33d e824 afc0 9fc5 1fbe
00000040: 7354 68bf 4df8 8dc0 2253 3440 e0e1 bac0
00000050: b90a 3440 0497 c4bf 4d63 2140 2915 8ec0
00000060: da7e 60c1 515c 06c0 73fa 1240 8f4d adc0
00000070: 6873 2c40 3240 5cc1 c0eb 2fc0 d98d 88c0
00000080: bc91 5cc1 4227 6c3f eecc 9fc0 d19a 873f
00000090: c638 5dc1 18c6 df3f 7bd0 9fc0 c5f3 1140
000000a0: ab9c 51c0 5547 2840 e5c2 4c3f 8b2f 3140
000000b0: 03e7 f33e 345d 2940 7006 e5c0 f4fa 0540
000000c0: cce0 bebf ed1e 6640 e086 bfbe 6992 5140
000000d0: 20ff 7340 c118 3c40 4c48 4640 e31e 2e3f
000000e0: 6c48 853f d547 4b40 7bfd 2640 8d7b 5cbf
000000f0: df52 f83e a8a9 5ec1 1d8f 53c1 8bdb 5ac1
00000100: 9bad 59c1 3a8a 57c1 77c4 5ec1 ccca 59c1
00000110: 26c6 58c1 25ca 4bc1 882e 53c1 6748 5fc1
00000120: 8f5f 5cc1 6339 5cc1 d40b 5cc1 5a5d 54c1
00000130: b04f f7c0 ad36 52c1 edcb 4dc1 c89b fb3f
00000140: 3b40 0f40 075c 053e 0f0d 48c0 3c50 6c3f
00000150: f933 febe 8e84 3440 ecad 1ec0 8f59 c6c0
00000160: cbe2 cbbf a08e dfbe 6b7b bac0 d1be 833f
00000170: cb84 6c3f 9c6d b4be 5714 59c1 7660 b1c0
00000180: 56bb 55c1 daea 57c1 ac51 5cc1 48d1 50c1
00000190: 11d9 5ec1 e65b 4fc1 0fc8 56c1 21cb 60c1
000001a0: a64e 59c1 f13a 55c1 61df 4dc1 2048 55c1
000001b0: 4517 55c1 03d6 53c1 a978 4ec1 b6e3 50c1
000001c0: 7e34 53c1 a5ba 57c1 929c 48c1 2656 56c1
000001d0: fe7d 53c1 b9a0 54c1 2ded 54c1 430b 56c1
000001e0: 869c 60c1 c413 5ac1 45c4 5ac1 f997 4dc1
000001f0: e9e6 4dc1 1b3c 5fc1 5372 5bc1 b72a 4fc1
00000200: 00f8 4ec1 ae3b 5bc1 4c80 59c1 4044 5dc1
00000210: bef2 52c1 1a26 43c0 2400 943f 8665 d4c0
00000220: 93c9 3fc0 207a 5dc1 86d1 5dc1 2154 80c0
00000230: 6b9a ccc0 6703 5ac1 ee1c 5bc1 a14b 60c1
00000240: 34ba 5cc1 a4bf c4c0 8321 58c1 6942 5cc1
00000250: b388 56c1 b797 5dc1 2a91 55c1 cd16 55c1
00000260: 9fee 5bc1 b4cf 57c1 f63a 56c1 12b1 4ec1
00000270: 7e41 5fc1 0065 56c1 f4d0 5bc1 e609 59c1
00000280: 3ad3 4cc1 e348 5dc1 3045 54c1 ab04 52c1
00000290: 5510 4fc1 51fb 56c1 5938 58c1 6ec3 53c1
000002a0: a221 5ac1 4945 5bc1 8bbe 4fc1 bc06 4fc1
000002b0: a895 51c1 abc7 50c1 3526 55c1 2e45 52c1
000002c0: 0019 53c1 0b17 51c1 9078 52c1 123a 61c1
000002d0: 9998 5dc1 d2f2 58c1 a3a3 52c1 b1d3 56c1
000002e0: 42b9 51c1 60b2 5dc1 d838 5cc1 1650 56c1
000002f0: 2381 5bc1 c569 c9c0 febb 58c1 e0e2 6dbf
00000300: 9d78 e63e 9fc1 05c0 a13c dbc0 7eb7 38bd
00000310: df34 c7be a228 983f fada 8bc0 4e1b 51c1
00000320: 9e28 db3f eca0 1d40 11f4 c6c0 df5b 483f
00000330: 688b bbbe 4eba 13c0 3d5d 59c1 6256 5bc1
00000340: 342f 5ac1 132d 4ec1 ca5d 5fc1 71ef 51c1
00000350: cc97 5ec1 46c5 53c1 542d 53c1 ebce 51c1
00000360: 7652 53c1 0293 5cc1 69ee 4ec1 5c39 50c1
00000370: 6bac 53c1 4f95 59c1 dcb8 4fc1 00f9 4ec1
00000380: 3366 51c1 3dd6 5ac1 ca5b 5bc1 c5a4 53c1
00000390: d079 53c1 b4a4 59c1 3890 58c1 c71a 5ec1
000003a0: 768d 52c1 ea82 52c1 e254 58c1 b999 59c1
000003b0: 542a 5bc1 0d56 57c1 d161 5bc1 ca08 58c1
000003c0: bbe5 51c1 bdf0 58c1 3152 5ac1 f4fc 4ac1
000003d0: a6a8 5ac1 ce79 7ac0 daba fbbf c0b3 52c1
000003e0: 95b5 aac0 2ecd 52c1 a651 4ec1 52a1 56c1
000003f0: 0a10 51c1 af07 05c1 d081 56c1 ec51 58c1
3.5009687 2.771721 0.8648437 -2.2709353 2.3938897 -1.1813242 2.1227345 -1.3647583
-13.309808 -12.629779 -13.570034 -13.21459 1.1890852 0.0799797 -5.473255 -0.1560273
-0.9075386 -4.43656 2.817574 -5.8400726 2.8131545 -1.5358586 2.5216858 -4.440083
-14.03097 -2.0993845 2.2965362 -5.4157176 2.6945438 -13.765673 -2.748764 -4.2673154
-13.78558 0.922474 -4.993766 1.0594121 -13.826361 1.7482328 -4.9941993 2.2805035
-3.2751873 2.6293538 0.79984885 2.7685268 0.47637185 2.6463137 -7.157036 2.093442
-1.4912353 3.5956376 -0.3740759 3.2745612 3.8124466 2.9390109 3.0981627 0.6801588
1.0412726 3.1762593 2.6092212 -0.86126024 0.48500726 -13.91642 -13.22244 -13.678599
-13.604884 -13.471247 -13.922965 -13.612011 -13.548376 -12.736852 -13.19886 -13.955176
-13.77333 -13.76401 -13.752888 -13.272791 -7.7284775 -13.138349 -12.862287 1.9656916
2.2382953 0.13023387 -3.125797 0.9230993 -0.49649027 2.8205905 -2.4793653 -6.1984324
-1.5928587 -0.43663502 -5.8275657 1.0292608 0.92390126 -0.35239875 -13.567466 -5.543025
-13.358236 -13.494837 -13.769939 -13.051094 -13.927995 -12.959936 -13.423842 -14.049592
-13.581701 -13.32689 -12.867036 -13.330109 -13.318181 -13.239749 -12.904458 -13.0555935
-13.200315 -13.4830675 -12.538225 -13.396032 -13.21826 -13.289239 -13.307904 -13.377749
-14.038214 -13.629826 -13.672917 -12.849603 -12.868875 -13.952174 -13.715411 -12.947928
-12.935547 -13.70207 -13.5938225 -13.829163 -13.184263 -3.0492005 1.1562543 -6.637393
-2.996678 -13.842316 -13.863653 -4.0102696 -6.39385 -13.625831 -13.694563 -14.018464
-13.79546 -6.1483936 -13.508182 -13.766213 -13.408374 -13.84954 -13.34794 -13.318067
-13.745757 -13.488209 -13.389395 -12.91823 -13.953489 -13.399658 -13.738514 -13.564917
-12.801569 -13.830295 -13.2668915 -13.12614 -12.941487 -13.436357 -13.513757 -13.235212
-13.633211 -13.704415 -12.984019 -12.939144 -13.099037 -13.048747 -13.321828 -13.14189
-13.1936035 -13.068126 -13.154434 -14.076677 -13.849755 -13.559282 -13.16495 -13.426682
-13.107729 -13.856049 -13.763878 -13.394552 -13.7190275 -6.2941613 -13.545897 -0.9292431
0.45013896 -2.0899427 -6.851151 -0.045096867 -0.38907525 1.18874 -4.3704805 -13.069166
1.712177 2.462947 -6.2172933 0.78265184 -0.36629796 -2.3082461 -13.585263 -13.70859
-13.636524 -12.886004 -13.960398 -13.120957 -13.91206 -13.235662 -13.198566 -13.113017
-13.207632 -13.785891 -12.933206 -13.014004 -13.229594 -13.598952 -12.982632 -12.935791
-13.087451 -13.677304 -13.709909 -13.227727 -13.217239 -13.602711 -13.53521 -13.881537
-13.159536 -13.156961 -13.520723 -13.60003 -13.697834 -13.4585085 -13.711381 -13.502146
-13.118587 -13.558774 -13.645066 -12.686756 -13.666174 -3.9136844 -1.9666398 -13.168884
-5.334666 -13.175093 -12.894934 -13.414385 -13.066416 -8.314376 -13.4066925 -13.52
