Data/model-state-dict.pth (torch, 302371 bytes, 18 tensors)

lstm.weight_ih_l0 f4 [24, 2379]
00000000: 0daa b340 4260 1141 897d a340 b79f bb40
00000010: f30b 6dc0 33a5 e1bf b19c 28bd 05cb bf40
00000020: 33b1 b4be 0e55 aebe 56ef db3d 3018 b33e
00000030: 9400 3dbf d04e c0be b0f8 dabf b242 8e3f
00000040: 3361 fc3f 3e34 e1bf eacb 97bf 508b 9a3f
00000050: 85b4 3c40 f815 4940 e68d b03f ca84 8bc0
00000060: b7aa 81be dc2c 9e3f a889 25c0 14b6 25c0
00000070: 61d6 a940 ee70 013e a99a 8abe 4430 993f
00000080: 059d 87be f53d a0c0 29f8 0ac0 c4cc abc0
00000090: 8bbf 403d c911 ffbe b1df 04be 2d68 89bf
000000a0: 1a0d 0c3f afde b0bf 0ccd 2ac0 1e3e 8cc0
000000b0: b9f5 5dbf 247b 2540 2eb0 3940 a021 6040
000000c0: e40d 4b40 42df 6a3f 91d0 d7bf a8c4 273e
000000d0: 44aa d0bf 00a0 8ec0 8e2d 00c0 8b86 3140
000000e0: 862c b63e fd72 ab40 f199 ae40 61b4 df3f
000000f0: 998b 2340 80b7 6b40 efa7 f03c 00d9 cabe
00000100: d979 7b3d 48cc 01bd e33a 59be 7396 13be
00000110: 2aa5 1a3e 69ff b63d be42 64bf dfd6 15be
00000120: b7c5 a3be ead3 7d3e 1800 85be 038d 8bbe
00000130: 93b1 60bf f224 9c3d be2c 693d 94ba 5cc0
00000140: 41ff 2740 37d2 853f 7e2d 14c0 4450 8ec0
00000150: 87bd 4d40 26e2 b040 9e8a 4340 9070 11bf
00000160: 144d f33f 7beb 6940 7d3d cc3e dcf8 0d40
00000170: a47c 5a3f c183 8340 efbd c1be dc16 263f
00000180: 42fd f9bd dfde cdbe 6069 533e fc87 ad3e
00000190: a040 c23d d155 c43e 2f51 5ebd 5558 4abe
000001a0: 5e92 b8be 2c53 67bd cadb a2be 15be 80be
000001b0: 361b 3cbe 8ddc 9dbe e316 253d ce89 26be
000001c0: 02bd a43e e0e6 993e 3744 a53e efea b73e
000001d0: 94a5 06be f904 afbe 4970 103e ba20 88be
000001e0: 42cb 483e b0f5 923d 69e5 c83d d3ef 10be
000001f0: 2a4f 9cbe a9c8 19bd c86c b4be 5ac3 a5be
00000200: 7944 b1bb a193 4ebe 36a9 d43d 011a 2c3e
00000210: b419 8a3e 3fa6 e3bf f90b 01c0 8b02 9d3e
00000220: 1734 8640 9883 173e 9681 9ebe e9cb 1cbe
00000230: 063a 93be 7586 9e3d 3225 9fbe 5e45 513e
00000240: 9dc7 bdbd 1003 56bd c7c0 a63e ee33 3d3e
00000250: a320 d1bd 71eb 183e f4d8 013e e9a6 c4bd
00000260: be3e 493e 5f46 993e 7e72 9abe fa17 ccbe
00000270: 30ad 88be 0dcb a5bd c2d0 8cbd 169c 01be
00000280: 6e2b c4be 7859 a7be 8e77 bc3e d4d4 c83d
00000290: 79f0 dfbd 8be0 193d 569f 55be a353 9c3e
000002a0: fdf0 54be c9fa 3d3e a8e0 0cbb c0cc 6dbe
000002b0: d2ff 863e e01f 7d3e f58a 17be 63fe b1be
000002c0: 0259 573e a524 1e3e 74ad f7bd 28b7 f4bd
000002d0: 2e48 783e 3c68 1a3e 5b65 063e 9ea5 dd3c
000002e0: 7dd6 2bbd d799 30be 5615 793e 997d 0ebd
000002f0: f807 983e 1931 e23e e708 cabe a1cb 813c
00000300: 428c b93d d693 04c0 93ce 88bf c549 f4bf
00000310: 0fe1 9240 b2b1 2340 f01d 8d3f 25b2 413d
00000320: 79c4 1441 ab47 a240 6169 c8bf 5e31 7241
00000330: fe48 9940 a1b7 843d e0a1 cb3e 5578 7a3e
00000340: 8e03 c63e d4eb 56bc fd0f 5f3d 8ab7 6b3d
00000350: 2ee8 563e ea46 0fbe 59e6 f93c 0a91 c3be
00000360: b75d 25bb 9124 ad3e c7f9 7dbd 8c78 643e
00000370: a02f 8bbe c8f8 b43d b518 eb3d 4b54 e83d
00000380: 2bec 5c3e e22c 49be 7ca1 9a3e d6cd bc3e
00000390: 455a 3cbe dacc 803e 356a 87be 5609 933e
000003a0: b40f 8cbe 36dc abbe 06ac 253e 4f76 cebe
000003b0: cc74 4dbe c8d9 ab3d 5461 a03c e625 733e
000003c0: 0b82 353e 83c2 14be ee09 c2be b0ad 08bd
000003d0: 1ebc 67be 091a 9cbf 0d3a 93bc 2a02 5dbd
000003e0: e587 bb3f 8e19 b13e 6a89 80be 1e20 96be
000003f0: 14bf 7dbe 4853 91bf cc3a 46be a403 793e
5.614508 9.086 5.109074 5.8632464 -3.7038543 -1.762854 -0.041165058 5.9935327
-0.35291442 -0.34049267 0.10739009 0.3497939 -0.7382901 -0.3756013 -1.7107143 1.1114104
1.9717163 -1.7594068 -1.1859105 1.2073765 2.948518 3.1419659 1.3793304 -4.3599596
-0.25325558 1.235744 -2.5865269 -2.5892382 5.3074193 0.12640736 -0.2707112 1.1967854
-0.26486984 -5.007563 -2.1713965 -5.368746 0.04705767 -0.49818256 -0.12975956 -1.0734917
0.5470749 -1.3817958 -2.668765 -4.3825827 -0.8670307 2.585641 2.9013782 3.5020523
3.1727228 0.91746914 -1.6860524 0.16383612 -1.6301961 -4.4570312 -2.0027804 2.7738369
0.35580844 5.3577867 5.4562917 1.7476922 2.5553954 3.683075 0.029376952 -0.39618683
0.0613955 -0.03168896 -0.2121387 -0.1441286 0.15102068 0.08935434 -0.8916434 -0.14632748
-0.31986782 0.2478787 -0.25976634 -0.2725602 -0.87770957 0.07624234 0.056927435 -3.4488878
2.6249545 1.0454777 -2.3152766 -4.447298 3.2146928 5.527606 3.0553355 -0.5681238
1.9007897 3.6549976 0.39890662 2.2183142 0.85346437 4.1098332 -0.3784022 0.6487863
-0.12206508 -0.402091 0.20645666 0.3389281 0.094849825 0.38346723 -0.05427664 -0.19760258
-0.3604917 -0.056475803 -0.3180831 -0.2514502 -0.18369755 -0.3083233 0.04030503 -0.16263506
0.32175452 0.30058956 0.32278606 0.35921428 -0.131491 -0.3418348 0.14105333 -0.26587468
0.19608787 0.071757674 0.098093815 -0.14153986 -0.30529147 -0.03754488 -0.35239244 -0.32375604
-0.005409774 -0.20173503 0.10383837 0.16806795 0.26972735 -1.7785109 -2.0163558 0.30666003
4.1938586 0.14796293 -0.3095824 -0.1531216 -0.28755206 0.077404894 -0.31083065 0.20436618
-0.09266589 -0.052249014 0.32568952 0.18476841 -0.10211303 0.14933564 0.12680417 -0.09602148
0.1965284 0.299365 -0.30165476 -0.39862043 -0.26694632 -0.080953695 -0.06875755 -0.12657198
-0.38314384 -0.32685447 0.36809963 0.09806219 -0.109345384 0.037567656 -0.20861563 0.3053256
-0.20795055 0.18552698 -0.002149621 -0.23222637 0.2636705 0.2471919 -0.14799102 -0.34764394
0.21030048 0.15443666 -0.120936304 -0.11948997 0.24246284 0.15078825 0.13124602 0.027056511
-0.0419526 -0.17246185 0.24324545 -0.034787748 0.2969358 0.44178084 -0.39459917 0.015844168
0.09059955 -2.0715232 -1.0688041 -1.9085013 4.589973 2.5577207 1.1024761 0.047289032
9.297967 5.0712485 -1.5657159 15.137053 4.79016 0.06480337 0.39771938 0.24459966
0.38674587 -0.013117749 0.054458607 0.057548083 0.20987007 -0.13991895 0.030505346 -0.38196594
-0.002523286 0.3381696 -0.062005784 0.2231161 -0.27184772 0.08836514 0.11479322 0.113442026
0.21574466 -0.19646028 0.30201328 0.3687579 -0.1839381 0.2515629 -0.26448217 0.2871806
-0.2735573 -0.33566445 0.16178903 -0.40324637 -0.20064086 0.08391148 0.01957766 0.23744926
0.17725389 -0.14527325 -0.378982 -0.033368766 -0.22630355 -1.2195445 -0.017972017 -0.053957142
1.4650847 0.3458981 -0.2510484 -0.29321378 -0.24779922 -1.135354 -0.19358367 0.24317795

lstm.weight_hh_l0 f4 [24, 6]
00000000: a622 fac0 1ad9 8340 0aa6 b840 324d 6f40
00000010: fb4e 2440 a374 aebe 112e 353d 78ba 933f
00000020: 927c 1b40 48be a1bd 9be8 833f 4d16 4ac0
00000030: daf1 2fc0 b873 debe d07a a63f 9767 cd3f
00000040: f76d 4140 97ee 10be b492 9ec0 25b5 ce40
00000050: eb32 6c41 510e ea40 1654 54bf 3761 37c0
00000060: c035 7640 4262 ffbf 751f a840 f9fe 9440
00000070: 4d6d 0540 1bec cdc0 8576 0e40 045b b0bf
00000080: 9fc6 2f41 fc46 2740 0a3f 5b40 c324 d3bf
00000090: 0339 4d3f 6610 ecbf 0b11 2f3f f3a4 ae40
000000a0: f901 b540 c640 7fbe 9fd9 b0be 931b cdbf
000000b0: ffd3 86bf 934b cf3f ed86 8a3e d81a 37c0
000000c0: d5a7 4ac0 4763 8d3e 8523 e53d e026 a03f
000000d0: 7290 fc3f bac1 3b3f 4d80 063f 163e 5340
000000e0: 52d3 fb3f fdc9 f0bf f183 9fc0 9cf9 23c0
000000f0: 9bb5 643f c9d0 9e3e 03ff 0cbf 41a3 90bf
00000100: 43d4 55bf 2aea 06c0 ba3f 38c0 2411 d940
00000110: fe30 17c0 0972 e3be ccab ef3b dc22 59c0
00000120: 63c8 f4be d1b4 8340 1131 c63c e892 2ec0
00000130: d405 31c0 bbc8 15c0 53a4 0abf 4dfc 9fbf
00000140: b168 d5bf c2d8 6f40 21a7 d540 b008 d73e
00000150: 0e01 cdbf 3754 e4be 84ad ea3f 4c29 0ac0
00000160: efab 2f40 ab74 f7be 2530 af3f f8cd 1740
00000170: 9415 48bc b002 203f 85f5 90be 07fd 44be
00000180: 56cf a93d f693 5a3f e49b 3e3d c7bc 023f
00000190: 9d4e 93bb 2934 3b40 4a63 3140 ecc6 91bf
000001a0: 0365 88c0 1c7d 99c0 6fdc 2dbf 929e 8abf
000001b0: d81d 61c0 8ab4 bcbf 414c ebbe b754 1140
000001c0: 9ffa eabf c980 53bf 536a 6f3f 66bc e53f
000001d0: 4f51 3540 c67b be3e a99e 50c0 dcb8 97c0
000001e0: 4ce1 e0bf a16f a3bf 0f8d cabe 1c25 9040
000001f0: 9c2c 2640 2bed 09bf 1b8e d5c0 65cd 0c41
00000200: bcee b3be db7b 08bf c672 5840 4746 24c0
00000210: 66b0 843f a421 2abf 6101 3240 c4c8 19bf
00000220: 5d3c 2840 13b3 98bf c41d 8bbf dce7 d4c0
00000230: 04b5 aabf 1ffa 3540 27c7 89c0 a0d0 2dc0
-7.8167295 4.1202517 5.7702684 3.7390866 2.5673206 -0.34073362 0.044233385 1.1541281
2.4294782 -0.078976214 1.030536 -3.1576111 -2.7491364 -0.4344766 1.3006229 1.6047238
3.0223367 -0.14153515 -4.955408 6.4596124 14.762431 7.3142476 -0.82940805 -2.8653085
3.8470306 -1.9951861 5.25384 4.6561246 2.0847962 -6.4350715 2.2259839 -1.3777776
10.9859915 2.6137075 3.4257226 -1.6495594 0.8016512 -1.8442504 0.6838538 5.4576354
5.656491 -0.24927053 -0.34541032 -1.602404 -1.0533446 1.6194938 0.27056065 -2.8610134
-3.1664937 0.27614805 0.111884154 1.2511864 1.9731581 0.7334248 0.5253952 3.3006644
1.9673865 -1.8811642 -4.984856 -2.56211 0.8933961 0.31018665 -0.55076617 -1.1299821
-0.8352701 -2.1080422 -2.8788896 6.7833424 -2.3623652 -0.4442294 0.007314181 -3.3927526
-0.47809133 4.1158223 0.024193319 -2.7277164 -2.7659807 -2.3403766 -0.5415699 -1.2498871
-1.6672574 3.7476048 6.6766515 0.41998816 -1.6015947 -0.445955 1.8334203 -2.1587706
2.744869 -0.48331198 1.3686568 2.3719463 -0.012212176 0.625041 -0.28312317 -0.19237147
0.08291499 0.8538202 0.046535388 0.510693 -0.0044954554 2.9250586 2.7716851 -1.1388831
-4.2623305 -4.796522 -0.6791448 -1.0829642 -3.5174465 -1.4742596 -0.45956615 2.2707956
-1.8357733 -0.82618386 0.9352161 1.794812 2.8330877 0.37203807 -3.2596838 -4.741316
-1.7568755 -1.2768441 -0.39560744 4.50453 2.5964727 -0.53877515 -6.673597 8.800145
-0.35143077 -0.5331399 3.3820052 -2.5667894 1.0366333 -0.6645758 2.7813342 -0.6007197
2.6286843 -1.1929649 -1.0868459 -6.653303 -1.3336492 2.8433912 -4.3055606 -2.7158585

lstm.bias_ih_l0 f4 [24]
00000000: 4d76 553f 61f4 593f 916f 83bf df58 27c0
00000010: 92ca 47be bed4 cf3f fcb7 16bf 9ca4 de3d
00000020: 8a99 ccbf ff18 0fc0 cf95 13bf 291b c2bf
00000030: 2bc6 fabe 02f4 89bf 4cce 8b3f b46d 48bf
00000040: 03f6 33bf 32a7 89bf a903 9fbf ebe1 8bbf
00000050: e684 28c0 c07a 0240 1483 483f 972c 3abf
0.8338364 0.8513852 -1.0268422 -2.6147993 -0.19510868 1.6236799 -0.5887449 0.108712405
-1.5984356 -2.2359006 -0.57650465 -1.5164539 -0.48979315 -1.077759 1.0922332 -0.78292394
-0.7029726 -1.0754149 -1.2422992 -1.092832 -2.6331115 2.038742 0.7832501 -0.7272429

lstm.bias_hh_l0 f4 [24]
00000000: 2235 803f 756b a93f 2417 b8be 28b5 29c0
00000010: ab6e fa3e 13b0 743f 9e89 71bf bf5e a9be
00000020: ce6b a9bf 0299 01c0 513e 10bf 8e5d a8bf
00000030: 15c0 fb3c fc70 25bf 67cf 8c3f 8ce5 19bf
00000040: 03d0 4abf be59 e6be 5897 3dbf aa6f 41bf
00000050: 75bb 3fc0 8930 b83f 5e9d 403f f3ef 98bf
1.0016215 1.3235918 -0.35955155 -2.651682 0.48912558 0.9558117 -0.9435061 -0.33080098
-1.3236024 -2.0249639 -0.5634509 -1.3153551 0.03073124 -0.64625525 1.1000794 -0.60115886
-0.7922365 -0.44990343 -0.7405906 -0.7556101 -2.9958165 1.4389812 0.75240123 -1.1948227

lstm.weight_ih_l1 f4 [24, 6]
00000000: 91ce 993e 9b67 13bf 6ead 1940 7bb8 9d3f
00000010: b7eb a93f cb62 df3e 8427 8940 b31a b0c0
00000020: 3545 b8c0 6a69 aec0 008c d0c0 9a44 7fbf
00000030: d3ed fbbf f9c0 9c3e e3d0 8bbf e5f5 4dc0
00000040: 3410 ce40 bd1e 24c1 b926 6cbf dcdc afbf
00000050: e2e6 8f3f a13c 913f c99a c53e 8648 81be
00000060: 603f 8240 085c 0d40 1cb8 b541 5269 96c0
00000070: e1ac 9c3f ebd7 1dbf eaef d63f 39cb 823e
00000080: 724c 883f 8b6f bebf c107 e13f 6da9 e5bf
00000090: f153 13c0 00f4 623f 546c 5240 213a e93f
000000a0: 2657 6d3d 4355 aa3f ad56 5940 eaf1 8bbf
000000b0: 1e3d bcbe f8b3 9ec0 7ad9 003f c3d7 683f
000000c0: e431 10c1 fbc7 0ebf 18ca 23c0 1f4f f440
000000d0: 2c2f e33f 1890 5840 f0ec 92bf be34 193f
000000e0: d86d 613f e7be 773f 6735 a63f 3538 01bf
000000f0: 8d44 8c40 41ed aa3f 8b86 ed40 8e45 1ec0
00000100: f76a ff40 a7f6 dcbf 3627 153e 88d4 d1bf
00000110: c65e 8c3f e69e 183d 4f4a 30bf 992b 803f
00000120: 9aa4 2bbe 25f6 f8bf 8c97 4940 f77b 303f
00000130: 9d39 4940 5c38 d23f 2327 e2bd 00a8 04bf
00000140: bba9 fdbf 15ce 883f 5cff bdbf b425 27bf
00000150: ec19 abc0 4b25 8340 f1f1 8b40 c82d b540
00000160: 7493 9040 25bc e13f 11a0 223f 5a84 153f
00000170: e26a 90be c0ec efbe 2ae3 67bf fb9e 0c3f
00000180: 1825 a0bf fa1c 70be cad6 91c1 c4b3 1a40
00000190: f582 11bf 496a 5d3f a3db 5abe f81f 9d3f
000001a0: 5634 abbe 8e21 623f fdbd 0c3d c668 db3e
000001b0: cf03 29c1 58f7 1641 fea7 1041 172e 1941
000001c0: adac ef40 fa37 9140 cf1d 8640 019f c0c0
000001d0: f775 83c0 b5f9 e4c0 2314 34c0 b77f 7b3e
000001e0: 8888 dbbf 7cb4 d83f f194 443f ecb8 a2bd
000001f0: 01b8 d23f 049d 7bc0 0f54 f6c0 1854 f440
00000200: 0dd8 0841 afa3 0541 e29f 0a41 4874 5040
00000210: 3e95 0441 8935 4840 bd7b 8841 f4cc 4ec1
00000220: 00e8 773f 8ca0 67c1 e1c3 a1c0 ffef 9cbd
00000230: f0ec c040 7790 b440 bb37 84bd 266a 2e41
0.3004041 -0.57579964 2.4012103 1.2321924 1.327506 0.4363006 4.2860737 -5.503259
-5.758448 -5.450368 -6.51709 -0.9971405 -1.9681953 0.30615976 -1.0923122 -3.2181332
6.439478 -10.257504 -0.92246586 -1.3739276 1.1242335 1.1346627 0.38594654 -0.25250643
4.070236 2.2087421 22.714897 -4.7003565 1.2240258 -0.6165759 1.6791966 0.25545672
1.0648329 -1.487779 1.7580491 -1.794233 -2.3019984 0.88653564 3.2878618 1.8220865
0.05794444 1.330727 3.3959153 -1.0933201 -0.3676538 -4.959469 0.5033184 0.90954226
-9.01218 -0.55773896 -2.5592098 7.6346583 1.7748771 3.3837948 -1.1478558 0.59846103
0.88058233 0.9677567 1.2985047 -0.5047639 4.383368 1.3353654 7.4226737 -2.4729953
7.981807 -1.7262772 0.14565739 -1.6392984 1.0966423 0.037260912 -0.68863386 1.0013305
-0.1676201 -1.9450117 3.1498747 0.68939155 3.1441414 1.642345 -0.11042621 -0.5181885
-1.9817423 1.0687891 -1.4843554 -0.65291905 -5.3469143 4.0983024 4.373284 5.6618385
4.5179996 1.7635542 0.6352549 0.5840508 -0.28206545 -0.46860313 -0.90581 0.54930085
-1.251132 -0.23448554 -18.229877 2.417222 -0.5684045 0.86490303 -0.21372847 1.2275381
-0.33438367 0.8833245 0.034360874 0.42853373 -10.56343 9.435387 9.041014 9.573752
7.4898286 4.538083 4.1911387 -6.0194097 -4.10815 -7.155482 -2.813729 0.24560438
-1.7151041 1.693008 0.76789767 -0.07945427 1.6462404 -3.9314585 -7.697761 7.6352654
8.552747 8.352462 8.664034 3.2570972 8.286436 3.1282675 17.06042 -12.925037
0.9683838 -14.476696 -5.055161 -0.07662963 6.028923 5.642635 -0.06455942 10.900915

lstm.weight_hh_l1 f4 [24, 6]
00000000: c9d5 cb3f c43d 203f 5d2d cf3f bb01 adbf
00000010: 9219 d63f a4c3 a13e fb7c 053f 0fae 3cc0
00000020: e8a1 833e 3842 4bbe cf76 d3be 3856 23bf
00000030: b7e3 3040 9ba0 5abf 0c7b 92bf 60a1 e1bf
00000040: aed8 013f 6019 7cc0 6ea4 3c3f 6b54 173f
00000050: 306a 0d40 deb9 53bf 9c2c 5d3f a2a6 e23e
00000060: b2dd 54c0 9c53 f33f ffa9 afbf 1004 2d40
00000070: 1a5f 62bf ca01 1d3f 48b5 803f 71ec ba3e
00000080: da5b c43e 6fa6 06be 5cc0 dfbf e375 a7bf
00000090: f8fd 2540 22e2 1b40 f827 1e40 6120 94bf
000000a0: 7ce8 ea3f 837f 38be deff bf3e 91de ddbf
000000b0: ad3a c9bf 27c7 05be 9d21 d3bf d805 c53f
000000c0: 1d84 99be 4609 1bc0 96c2 87bb 9fcd b83e
000000d0: 2efc 5540 360a adbe fb0d ef3e dd96 ecbe
000000e0: af94 0540 2bce 12bf 8d7f 94bf 62c6 4c3f
000000f0: 8dd2 73c0 5277 db3f 1302 8dc0 1ea9 5a40
00000100: 4f9c 643f a390 1140 6c5b 9e3f ab64 3ec0
00000110: b6cc 5d3e 9d80 62bf 549c f5bf 8e1e fdbf
00000120: 8624 383e cdac 953f 4667 3640 9a23 07c0
00000130: a1ec 6f40 dfdc 89bf 1e20 12c0 7ca1 ca3f
00000140: 2d54 aa3f 13b6 1c40 aaa7 5a40 2e41 a93f
00000150: 4340 38be e0de 8a40 e184 933e 881d 043d
00000160: 308d 0a40 6582 3bbe 58ba fdbe a8c0 1b3f
00000170: 0440 c2bf 4375 943f 8aa8 4d3e 39f5 843e
00000180: 8656 93bf 3a48 8ebf ede1 87be f078 013f
00000190: dc9b 62bf 5cba 9f3f 0647 91bf 7a67 a53f
000001a0: ed5c ae3e ac44 543f a357 cf3f 1192 693e
000001b0: 31b5 edbe dbbb 1641 4f4c a63f e521 ce3d
000001c0: d1cf 7940 b1e7 1f40 8166 a7bd 1a04 26c0
000001d0: 079f 443f b70b 2f3e 590c 65c0 0090 b83e
000001e0: 0f4e 1e3f adfd a8bf 19a7 fcbf a7db 023f
000001f0: 0b3a 6040 c193 cbbf a717 7dbf 54ff 3541
00000200: a189 e33f 2c11 d53e 9afa c640 a376 2c40
00000210: 01d7 07c1 b80a 693e 10cd e8c0 9112 0141
00000220: 414d 2640 3d59 fb40 7b46 f23e 75aa b440
00000230: 9079 a6bd c174 4ebf 7141 9e3e 33e6 cc3d
1.5924617 0.62594247 1.6185719 -1.3516153 1.6726553 0.31594574 0.5214383 -2.9481237
0.25709462 -0.19849479 -0.4130158 -0.63803434 2.7638986 -0.85401314 -1.1443801 -1.7627373
0.5072125 -3.9390488 0.736884 0.59113187 2.2096062 -0.82705486 0.86396194 0.44267756
-3.3260312 1.900989 -1.3723754 2.703373 -0.88426363 0.61330855 1.0055323 0.36508515
0.38351327 -0.13149427 -1.7480578 -1.3082851 2.593626 2.435677 2.4711895 -1.1572381
1.8352199 -0.18017392 0.374999 -1.7333547 -1.5721031 -0.13064252 -1.6494633 1.5392408
-0.29983607 -2.422441 -0.0041430695 0.36094376 3.3435168 -0.33796853 0.46690354 -0.4620885
2.0872 -0.5734584 -1.1601425 0.7999021 -3.809726 1.7145789 -4.406503 3.416572
0.8930101 2.274453 1.237165 -2.9748943 0.21660122 -0.884775 -1.9188333 -1.977495
0.17982683 1.169336 2.8500533 -2.111548 3.7488177 -1.077053 -2.2832103 1.5830531
1.3306938 2.448613 3.4164834 1.3223016 -0.17993264 4.3397064 0.28812316 0.032254726
2.1648674 -0.1831146 -0.49556231 0.60840845 -1.5175786 1.1598285 0.20083824 0.2596834
-1.151078 -1.1115792 -0.26539555 0.5057516 -0.8851907 1.2478747 -1.13498 1.2922204
0.34055272 0.82917285 1.619862 0.22809626 -0.464273 9.420863 1.2992038 0.100650586
3.903309 2.4985163 -0.08173848 -2.5940003 0.76805156 0.17094313 -3.5788786 0.36047363
0.6183786 -1.3202416 -1.9738494 0.5111641 3.5035427 -1.5904466 -0.98864216 11.374836
1.7776376 0.41614664 6.218091 2.694741 -8.489991 0.22757995 -7.275032 8.067033
2.5984652 7.8546433 0.47319397 5.6458077 -0.08128655 -0.806469 0.30909303 0.100048445

lstm.bias_ih_l1 f4 [24]
00000000: c797 b33f 4ff0 673f 99e2 d23f a495 e73f
00000010: 70a9 043f 5ba4 03bf bf1d 69be 0b25 2140
00000020: 2604 b7bf 8e2c 8a3f 93fd 11c0 a5cb c93f
00000030: 4fb6 9b3d 3d1f fabf cf86 c4bf 6662 c8bf
00000040: 1749 86bf 1666 b0bf bfa5 43c0 9af4 f93f
00000050: f20d 31bf 4a83 4ec0 7b5e f2bf ce9a 56c0
1.4030694 0.90601057 1.6475402 1.8092542 0.5182104 -0.5142266 -0.22765253 2.517886
-1.4298141 1.0794847 -2.281102 1.5765272 0.07603132 -1.9540783 -1.535364 -1.5655029
-1.0491055 -1.3781154 -3.0569913 1.9527771 -0.69161904 -3.2267632 -1.8935083 -3.3531985

lstm.bias_hh_l1 f4 [24]
00000000: e554 d03f 2973 413f bee1 ec3f 0fff ac3f
00000010: 75d0 30be 18bc 2dbf bacb 9abd b006 1140
00000020: 235c a8bf 73c2 953f 34f8 00c0 671f 8e3f
00000030: a5f2 013f 32e1 f4bf 05b7 02c0 a418 9ebf
00000040: 45e2 57bf c17a a6bf 5f11 70c0 3e38 ea3f
00000050: a702 84bf 0ffc 33c0 6501 e5bf 0904 5dc0
1.6275908 0.75566345 1.8506391 1.3515338 -0.1726702 -0.67865133 -0.07558389 2.2660332
-1.3153118 1.1699966 -2.015149 1.1103333 0.5076087 -1.9131224 -2.0424206 -1.235127
-0.84329635 -1.3006212 -3.7510602 1.8298414 -1.031331 -2.8122594 -1.789105 -3.4533713

lstm.weight_ih_l2 f4 [24, 6]
00000000: 3a6d 1541 9ae5 753f 5c99 643f 6c08 80c0
00000010: 567b ce40 3cf0 04c1 d8f4 4fc0 e78b 5bc1
00000020: d573 81c0 dc89 a440 239b 47c0 7374 a740
00000030: 4364 31c0 2c65 9740 38a1 c1c0 9831 6640
00000040: 560d 7d40 32da bd40 3678 1f41 f1e6 0740
00000050: 3f27 fa40 cfbb 1bc0 5ec0 8b3f 753e 2bc1
00000060: 0141 3741 963c ac40 5324 d540 a645 00c1
00000070: bb0b 2240 ba1d 07c1 44b5 a8bf ffe6 96c1
00000080: 2163 503f 68d8 18c0 3fa0 98c1 a4e1 91be
00000090: 85ad db40 7a2d 2741 c20d 6b3f cb9e 25c0
000000a0: 156f d43f a840 5fc0 f9c7 ae3e 12f9 f2bd
000000b0: cdf5 53bd e42c e13f 2509 0c41 f068 953f
000000c0: 610a dbbe 94cd 1b41 d312 93bf f4e8 a440
000000d0: 289d d3c0 45da df40 8d4a c43f 3c06 7640
000000e0: 315b c53e 87e8 7ebd f236 fb3f 2477 1f3f
000000f0: 2a56 df40 c5ab 5c40 5cb9 5f40 97e1 72c0
00000100: 0d0c 56bf 435f c2c0 c07b 9740 a91c 0541
00000110: 9f74 9a40 2c56 0dc0 92ae df40 e221 d9be
00000120: c334 5741 2675 8241 cd48 0641 0621 f4c0
00000130: aef8 1f40 3d4b 02c1 090a f2be 1ebf 7040
00000140: b163 0ebe c3f6 15bc 9867 e9bf dec0 81be
00000150: 37d7 c03f ecee 80be 9ef7 2f3f 4114 8cbf
00000160: 0ef3 5f41 b157 21bf f704 0bc1 c549 c8c0
00000170: dbba a8c0 48a0 a940 6882 2ac0 3163 7d40
00000180: d471 eb41 b3b2 e741 be8d 0841 14c1 fdc1
00000190: 713c ec41 0c17 f7c1 7740 3cc1 eccb 05c1
000001a0: 38b5 03c1 e5a1 0641 d4f8 07c0 e39b fa40
000001b0: 1f4d 06bf 92db 9fbf c7e6 9cbf 94b5 e4bf
000001c0: 74e0 a7bd 60a2 90c0 ce43 5c41 a444 2740
000001d0: 6eaf ce3f e6b4 1440 c687 4f41 0190 06c0
000001e0: 5836 2640 e93a 18bb ceb8 8bc0 75a1 bb40
000001f0: 58f1 5e40 dec8 9740 5ca2 d541 13b2 bf3e
00000200: 6e87 fc3f f1eb 14c1 21ff 1641 952d 16c2
00000210: eb58 8c40 474c 3640 863f 9240 530b 02c1
00000220: a1a0 dec0 e9ee fcc0 698d 2042 cea1 d53e
00000230: f200 1040 321f 3fc2 6eee cc40 d000 3cc1
9.339167 0.9605347 0.8929651 -4.001028 6.4525557 -8.308651 -3.249319 -13.721656
-4.0453897 5.1418285 -3.1188438 5.232965 -2.7717445 4.7311 -6.05093 3.596777
3.953939 5.932885 9.966848 2.1234705 7.817291 -2.433338 1.0918081 -10.702748
11.45337 5.3823957 6.660684 -8.017004 2.531966 -8.444757 -1.3180318 -18.862791
0.8140126 -2.3882084 -19.078245 -0.28492463 6.8649316 10.448603 0.9181787 -2.587817
1.65964 -3.4883213 0.34136942 -0.11863913 -0.051748086 1.7591825 8.752233 1.1672649
-0.42781356 9.73769 -1.149012 5.1534367 -6.612934 6.995394 1.5335251 3.8441305
0.38546136 -0.062233474 1.9626143 0.6229117 6.979268 3.447984 3.4956884 -3.795019
-0.8361214 -6.0741286 4.733856 8.319497 4.826736 -2.2083845 6.99006 -0.42408663
13.450381 16.307201 8.392774 -7.629031 2.4995532 -8.143369 -0.4727328 3.7616649
-0.13905217 -0.009153071 -1.8234739 -0.25342458 1.5065678 -0.25182283 0.6873721 -1.0943681
13.99684 -0.6302443 -8.688712 -6.259005 -5.2728095 5.3008156 -2.6642094 3.9591792
29.43058 28.962255 8.534605 -31.719276 29.529512 -30.886253 -11.7657385 -8.362286
-8.231743 8.414525 -2.1245623 7.831529 -0.5246143 -1.2488883 -1.2257928 -1.7867913
-0.08197108 -4.519821 13.766554 2.6135645 1.6147287 2.3235412 12.970648 -2.1025393
2.5970669 -0.0023228473 -4.366309 5.863459 3.4834805 4.74327 26.704277 0.37440547
1.972883 -9.307603 9.437287 -37.544514 4.3858542 2.8484056 4.5702543 -8.127765
-6.957108 -7.904164 40.138096 0.4172501 2.2500577 -47.780464 6.404105 -11.750198

lstm.weight_hh_l2 f4 [24, 6]
00000000: f2ff c43f ff8e 3ebe 726d 813e c259 6bbf
00000010: 3f8e 37c0 941e b2bf 937b 3a3d 9924 85bf
00000020: ea77 1141 5eb6 e23e b238 d0be 43a9 773d
00000030: 810f 0fbe 34bc 873f 489b 95bb 2ffa 01bf
00000040: 9a09 8ec0 86f4 b43f 17df 56c0 0d06 6dc0
00000050: 90ee 33be 26b2 2bc0 bf88 953f 5c8e 58c0
00000060: ef87 4240 8217 b6bf d52b f43e f30e 9cbf
00000070: f8d0 ac3f 42fd 39c0 c86d 423f 76ee ffbf
00000080: f71c 07c0 3660 153e bd07 30c0 7e12 e5bf
00000090: a55c 8040 5c97 1341 df0c d63f 5cb3 3c3f
000000a0: d59c 3240 adcd bf3e a28b 0440 3ee9 b33e
000000b0: 0dd6 aa40 d07b fabe f7c4 f6bf 10e5 19bf
000000c0: 76a3 94c0 e161 e6c0 511c 9c3f e84b 2dc0
000000d0: 155c 523f 43b2 adbf 346c f53e ace8 0a40
000000e0: d6e9 f83f 52d5 883f 9f31 2340 a9ea 2140
000000f0: 9044 6940 e871 7fbf 6f15 4340 61ac a840
00000100: a6dd 3bc0 f41f 5b40 94be 5940 96c8 bc40
00000110: 75d3 0c40 46e3 0bbf e4f3 ee3f 34e3 b03f
00000120: ef73 a23f ef3a a13f 80ea 4840 fdb1 d63f
00000130: f906 703f 478d 55bf d6a7 5f3f c1de bb3f
00000140: a8c1 403f fdda 553f 8bbc fabe 720e 943f
00000150: a946 e43f 705d 4440 26b6 a13f f63d 51be
00000160: 0994 633f 4920 45bd d878 fbbf 0669 7ebf
00000170: 2c3c c5bf f08b 4dbf 925d 27be eac5 413e
00000180: 01fb e5bd a35f 6d3f e5f5 843e b2c2 973e
00000190: dbab ef3e 5bcd 48bd aee5 61c0 3c93 4bc0
000001a0: 8255 57bf 1843 d03d 3f07 b9be 6412 f0be
000001b0: 7334 83bd b31a 16c0 e149 5cbf 67b6 9dbf
000001c0: ed9a 2040 6527 9a3f 869e bd3f 9948 b2bf
000001d0: 2c69 a2bf fe34 10c0 fd10 d43e 316a 09bf
000001e0: 467a d33f b723 d8bf 1d29 9a3f d530 9bbe
000001f0: a28a 433f c53b 6e3f 51de 79bf b7b9 1e3f
00000200: df2b 3340 318d 90bf 5d68 3b40 7e48 a7bf
00000210: f918 b040 76ba aac0 5c6c a0bf 6b8b fdbf
00000220: 6ff0 9840 37d3 a0bf a363 0ebf be03 093d
00000230: d2fb 1b40 ed0f 3cbf c54d 4a40 456b eebf
1.5390608 -0.18609236 0.25278813 -0.91933835 -2.868057 -1.3915582 0.045528006 -1.0401794
9.091776 0.4427976 -0.40668255 0.060464155 -0.13970758 1.060431 -0.00456563 -0.50772375
-4.438672 1.4137123 -3.3573663 -3.7034943 -0.17571473 -2.6827483 1.1682357 -3.383689
3.0395467 -1.4225924 0.4768969 -1.2192062 1.3501272 -2.9060826 0.7594876 -1.9994648
-2.1111429 0.14587483 -2.7504723 -1.7896268 4.011309 9.224453 1.6722678 0.7371118
2.7908223 0.37461606 2.0710225 0.35138887 5.3386292 -0.48922586 -1.9278859 -0.60115147
-4.6449537 -7.199448 1.2196141 -2.707758 0.82171756 -1.3570026 0.47934115 2.1704512
1.9446361 1.06901 2.5499036 2.5299475 3.6448097 -0.9978318 3.0481832 5.2710423
-2.9354033 3.4238253 3.402257 5.8994856 2.2004063 -0.54643667 1.866818 1.3819337
1.269163 1.259611 3.1393127 1.6773068 0.9376064 -0.834187 0.8736547 1.4677354
0.75295496 0.83537275 -0.48971972 1.1566908 1.7834064 3.068203 1.2633712 -0.20433792
0.8889776 -0.048126493 -1.9646254 -0.99379003 -1.5408988 -0.8029165 -0.16344288 0.18923154
-0.11229516 0.92724055 0.25968853 0.29640728 0.46810803 -0.049023967 -3.5296435 -3.1808615
-0.8411485 0.10169047 -0.3613834 -0.4688903 -0.06406488 -2.3453796 -0.8605023 -1.232129
2.509456 1.2043272 1.4814003 -1.3928405 -1.2688346 -2.2532344 0.4141921 -0.5367766
1.652169 -1.6885899 1.2043797 -0.30310693 0.7638341 0.9305995 -0.9760485 0.6200213
2.7995527 -1.1293088 2.9282448 -1.3068998 5.5030484 -5.3352613 -1.2533069 -1.9808172
4.77935 -1.2564458 -0.55620784 0.033450834 2.437245 -0.734618 3.1609967 -1.8626486

lstm.bias_ih_l2 f4 [24]
00000000: a720 e63f c696 303f c2f0 3140 cddb 1c40
00000010: 531a f6be 0961 0740 b498 d1c0 529d 213f
00000020: 3ac2 a13f c306 46c0 9573 43c0 e5e7 84c0
00000030: 8665 18c0 1632 febf a9d0 d7bf 6a06 be3f
00000040: 4081 8ebd 3da5 3040 8406 3c40 53c0 7c40
00000050: 053d 13c0 7103 733d 9b73 09c0 a65f e7be
1.7978715 0.6898006 2.7803197 2.4509156 -0.4806696 2.1152976 -6.5498905 0.63130677
1.2637398 -3.0941627 -3.0539296 -4.1533074 -2.3811965 -1.9859035 -1.6860553 1.4845707
-0.06958246 2.7600853 2.9378977 3.9492385 -2.3005993 0.059329454 -2.147681 -0.4519016

lstm.bias_hh_l2 f4 [24]
00000000: 74b9 0740 c396 943f 44a0 3940 9b6a 0740
00000010: 777e f6be 9b8a 0d40 3b90 c1c0 57b0 c23e
00000020: 1431 b63f 1f2d 47c0 6b07 23c0 347d 91c0
00000030: 5422 42c0 8450 ffbf a12a d6bf 200d a43f
00000040: 6e66 15bf 8374 2840 9b0d 4040 9b1b 8440
00000050: 14eb e7bf e81b dabe 16ca 09c0 07c1 43bf
2.1206942 1.1608509 2.9004068 2.1158817 -0.4814336 2.2115848 -6.0488563 0.38025162
1.4233727 -3.112129 -2.5473278 -4.5465336 -3.0333452 -1.9946446 -1.6731759 1.2816505
-0.5835942 2.6321113 3.0008304 4.12837 -1.8118615 -0.42599416 -2.1529593 -0.7646641

lstm.weight_ih_l3 f4 [24, 6]
00000000: f421 ee3e 6ea5 0f3f 1b50 3bc0 a289 a6c0
00000010: e8a7 1a40 83e8 cdc0 2add 6bbe 3b22 dcbd
00000020: 6cb2 84bf 2db0 ca3f f0eb 8240 e47b 0940
00000030: f59e 0240 68b5 7ebe 14a3 bfbf e0d2 b2bf
00000040: a3a9 c540 2304 29c0 9941 0b3e 4808 9e3d
00000050: a838 a240 2301 033e c21f cb40 895f 4e3f
00000060: 9c0f 0ec0 da80 f3bf a5db 9fbf 0289 0640
00000070: 1ca2 13c0 5491 0d40 7197 f93e ce9c ce3e
00000080: b9b1 cb3e 469e 6abc 68d3 d2be bffd 4fc0
00000090: 9950 5b3d 809f 383f ac08 87c0 baae 8ec0
000000a0: dc7f 4c40 9666 a0c0 1a50 b03e e586 2a3e
000000b0: 4bf4 bcbe 45dd 4bc0 712f 9440 b738 58c0
000000c0: bb80 d43f 806d 0a3f 301a 5a3f 7fb4 ccbf
000000d0: 29b0 4b40 f57e ebbf fc7c d7bd 016d b9bd
000000e0: 1e88 4bc0 bc21 d0be 9707 bf3f 4b52 163d
000000f0: 947c 88bd 919f 883d 90b2 f53b ef3f 6640
00000100: 291c a2bf b650 4c40 6805 87be 0fa2 39bf
00000110: a49b 43bd 3bcd 3bbf 0578 11be e6cc e7bf
00000120: 770a 9940 c9e6 953f c002 2440 5203 68c0
00000130: ed06 9540 6117 82c0 2210 f7bc e217 5cbd
00000140: e095 18bf 199c 1fbd f068 e0be 7a17 33be
00000150: b963 e140 6aff 6b40 f2e6 503f 4958 aac0
00000160: 2500 1041 33c0 b4c0 50f7 a13f a8e5 7f3f
00000170: 8816 e53f e670 cec0 07d9 12c0 5257 17c1
00000180: 6883 a63a e308 0f3d 2e48 963f 21dc ac3e
00000190: 1e02 0a40 f3c8 03bf bea0 5d3e b2d9 c7be
000001a0: 1215 b7bc 4655 bcbe 5be0 27bc 67b3 b2bf
000001b0: f4b3 ea3f 9fe4 9dbf 0c6f 9cbf a7e3 59c0
000001c0: 8127 6240 ed0d 4dc0 af06 db3f 31dc 8b3f
000001d0: d252 043f 0f66 00c0 0287 9140 29a1 e0bf
000001e0: 451d 4c3e b6d9 a83f e464 c7c0 9688 47be
000001f0: 3cf6 2b3e 56d8 47be 1e68 693e 0612 543e
00000200: 7421 153f 13b9 b13f 84f3 fa3d 3e13 cd3f
00000210: f3e1 a3be e62f 26be 62e9 fc3f fcdf a13f
00000220: 3e41 e4bf ddc9 243f a228 bb40 2d36 9140
00000230: 87d7 7340 f63a 04c1 8519 1440 e75a b4c1
0.4651028 0.561118 -2.9267642 -5.204301 2.4164982 -6.434633 -0.23033586 -0.107487164
-1.036695 1.5835015 4.091301 2.1481867 2.040952 -0.24873888 -1.4971642 -1.3970604
6.1769576 -2.6408775 0.13599242 0.07716423 5.069416 0.12793402 6.3476267 0.80614525
-2.2197027 -1.9023697 -1.2488905 2.1021123 -2.3067694 2.2119951 0.48748353 0.40354007
0.3978403 -0.014319962 -0.41176915 -3.2498624 0.05354366 0.7211838 -4.2198086 -4.458829
3.195304 -5.0125227 0.34436113 0.1665302 -0.3690513 -3.1853802 4.630791 -3.3784616
1.6601785 0.54073334 0.8519621 -1.5992583 3.182627 -1.8398119 -0.10521886 -0.09053994
-3.180183 -0.40650737 1.4924191 0.036699574 -0.066643864 0.0667106 0.007498093 3.5976522
-1.2664844 3.1924262 -0.26371312 -0.72512907 -0.047755852 -0.7336003 -0.1420594 -1.8109405
4.7825274 1.1711055 2.5626678 -3.6252027 4.6570954 -4.065354 -0.03015906 -0.053733714
-0.5960369 -0.038967226 -0.4383006 -0.17489424 7.043423 3.6874642 0.81602395 -5.323277
9.000035 -5.648462 1.2653599 0.999598 1.7897501 -6.4512815 -2.2944963 -9.458818
0.0012703957 0.034920584 1.1740777 0.33761695 2.1563792 -0.514785 0.2164335 -0.39033276
-0.022348914 -0.36783808 -0.010246362 -1.3960999 1.8336167 -1.2335395 -1.2221389 -3.4045198
3.5336611 -3.203975 1.7111415 1.0926572 0.51688874 -2.0062292 4.5477304 -1.7549182
0.1993304 1.319144 -6.2310658 -0.19485697 0.1679315 -0.1951612 0.22793624 0.2071
0.5825417 1.3884605 0.12253478 1.6021497 -0.32008323 -0.1622921 1.9758723 1.264648
-1.783241 0.6437052 5.84871 4.5378633 3.8100297 -8.264395 2.3140576 -22.544386

lstm.weight_hh_l3 f4 [24, 6]
00000000: a348 5dbb 9d3f ecc0 5189 623f aec0 5e40
00000010: 83ab 0c40 63ac 2140 69fd 08bf 444e 52be
00000020: 5ff9 fa3e 95e5 c2bf 5e2e 25c0 c2c2 e140
00000030: 4f00 00c1 036f 8c40 3a27 d4c0 ea7b 2b40
00000040: fe3a 1a40 513e db3f 0d6a 0fbf 8933 c13c
00000050: 57b8 03c0 8021 c33e 067e 5a40 9141 01c0
00000060: 2756 e5bf 5b92 a5bf 6c46 97bf 55f8 92bf
00000070: 910f 84bf 23fd a83f c87e bfbe 3106 3bbf
00000080: 17f3 943e 646c 30bd 5830 a23f 7c27 f03d
00000090: e449 e53f b0d6 5240 4df2 75c0 eb05 53c0
000000a0: 505a 2f41 f417 9fbf 9a8d d93e df92 7240
000000b0: d719 21be ac5e 953e 3172 9a3f c4e3 a7c0
000000c0: 0fc7 18c0 554d db3f db55 aebf 89c6 3dbe
000000d0: df58 08bf ff80 2ec0 194d 0740 4b50 f5be
000000e0: c0ee 5b40 4f3e 49bf 4bc3 28c0 d775 1740
000000f0: 3e9b bcbf a06a 2abe 9fbf a63f f5ea 1cc0
00000100: e0df a83f 63e4 053f 12f0 00be b9c3 44bf
00000110: 0255 9c3e 461c 883e aa93 9a3e 909f 1740
00000120: 98ba 3c3f c246 28bf 0f5d 653f 0495 113f
00000130: 65dd f7be 56c5 703f 9e71 c33e 2914 2dbf
00000140: 51d6 963f ff31 043f 8993 a9bf 788d ac3d
00000150: 5b41 9cbd dde5 eebf 0f73 37c0 a17c 983e
00000160: 6c0e 32bf 74dc 3540 9948 b73d 3f1a d53e
00000170: aa58 c43e d4bb 1dc0 c2ff 51c0 e34c b33f
00000180: 2508 d8c0 8d50 9740 33d4 87c0 89a0 8ebf
00000190: e5bc 00bf bdd5 27c0 01ba d5be c543 b0be
000001a0: 18c2 753e cd86 f43d f9eb 163f 15a0 c13f
000001b0: eb3f 91bf f3e0 14c0 a0a8 02c0 187a 1740
000001c0: ce08 9c3e ecd7 6bbe 0c51 0ec0 da7a 3cc0
000001d0: 8fc8 79c0 1366 813f bc9a 953f a4f0 103f
000001e0: 246e 5fc0 c559 8a3f a0ea d7bf 5a96 10c0
000001f0: 6057 8940 813c 8f3f 161b eb3d f232 c6bf
00000200: 1eae b13f ebd7 d7bf 4905 0740 910b 0441
00000210: b5d3 89bd 12ee 7bc0 a117 3d40 622d 613f
00000220: 6bf8 5b40 deeb 4840 dc14 3dbf ccd1 5140
00000230: 79aa cdbf 0fe6 42c0 787a 86bf 248a 2240
-0.0033765219 -7.3827653 0.8849078 3.4805102 2.1979682 2.5261467 -0.53511673 -0.20537668
0.4901838 -1.5226313 -2.580955 7.055024 -8.000075 4.388551 -6.6297884 2.679438
2.4098506 1.7128392 -0.56021196 0.023584144 -2.0581262 0.38111496 3.4139419 -2.0196269
-1.7916917 -1.2935289 -1.1818366 -1.1482035 -1.031725 1.3202251 -0.37401414 -0.7305632
0.29091713 -0.04307212 1.2671003 0.11726281 1.7913175 3.2943535 -3.8429139 -3.2972362
10.959549 -1.2429185 0.42490846 3.7902143 -0.15732513 0.2917379 1.2066098 -5.2465534
-2.3871496 1.7132975 -1.3619951 -0.18532766 -0.53260607 -2.7266233 2.1140807 -0.4791282
3.4364471 -0.786107 -2.6369197 2.3665674 -1.4734876 -0.16642237 1.3027228 -2.4518406
1.3193321 0.52301615 -0.1259158 -0.7686115 0.30533606 0.2658407 0.30190784 2.369114
0.7372222 -0.6573297 0.8959512 0.56868005 -0.48411098 0.9405111 0.3817262 -0.67608887
1.1784154 0.5163879 -1.3248149 0.084254205 -0.07629653 -1.8663899 -2.8663976 0.29782584
-0.69553256 2.8415804 0.08949394 0.41621587 0.38348895 -2.464589 -3.2812352 1.4007839
-6.750994 4.728583 -4.244653 -1.1142741 -0.5028823 -2.6224205 -0.41743472 -0.34426704
0.23999822 0.11939774 0.58953816 1.5126978 -1.1347631 -2.3262298 -2.041542 2.366827
0.30475467 -0.23031586 -2.2236967 -2.9449983 -3.9028661 1.0109276 1.1687846 0.5661719
-3.4910975 1.0808645 -1.6868477 -2.2591767 4.291916 1.1190339 0.114797756 -1.5484297
1.3881261 -1.6862768 2.1096976 8.252824 -0.06729833 -3.9364057 2.9545672 0.87959874
3.4370372 3.1393962 -0.73859954 3.27843 -1.6067649 -3.0452917 -1.0506124 2.5396814

lstm.bias_ih_l3 f4 [24]
00000000: e8f4 dc3e 4843 81be 6654 e73e 6f3c d6bf
00000010: 2750 de3f a748 f1be 5be3 2ebf 7236 28bf
00000020: c9eb 8a3f 6011 d8be 8234 4e3f 6e58 463f
00000030: 05c7 37bf 3c06 2e3e 9795 a5bf c7a4 593e
00000040: 657d 9fbf 3455 1e3f f943 2d3f af03 1c40
00000050: 1732 0d40 647e 113f bda0 7abe 6a91 adbf
0.431556 -0.25246644 0.45181578 -1.6737193 1.736821 -0.47125742 -0.68315667 -0.65708077
1.0853206 -0.42200756 0.8054887 0.77478683 -0.71788055 0.16994566 -1.2936276 0.21254264
-1.2460142 0.6184876 0.67681843 2.4377248 2.2061822 0.5683348 -0.2447538 -1.3560002

lstm.bias_hh_l3 f4 [24]
00000000: bc77 d93e 61c1 67bf e237 2d3f a7b0 b4bf
00000010: cb7f 0f40 e38b cbbe 4d3a 64bf ee70 57bf
00000020: 1d08 6e3f 8370 09bf dabd 6e3f b1cd b43f
00000030: c809 27bf d3dc 193f 9057 86bf 39b0 4c3f
00000040: 62ea c4bf b1ac 763f ca02 343f 6140 1940
00000050: 94c9 dd3f ad71 203f 3d75 c5bd de99 abbf
0.42474163 -0.9052945 0.67663395 -1.411641 2.2421749 -0.39755163 -0.8915146 -0.8415669
0.9298113 -0.53687304 0.9325844 1.4125272 -0.652493 0.60102576 -1.0495472 0.79956394
-1.5384028 0.96357256 0.70316756 2.3945544 1.7327142 0.62673455 -0.09641502 -1.3406332

fc.weight f4 [2379, 6]
00000000: 9399 c93f ffd8 27c0 4e60 363f 4ead 9a3f
00000010: 4ece b9bf ca6d f3bf 4dd3 8c3f 497d 3dc0
00000020: 304a 1ebf a1e8 943f 06b5 adbf 17ed 15c0
00000030: ab02 813f 1e4d c3bf cb92 c3be 289a 8f3f
00000040: 9f93 c1bf 0cc4 32bf c7c0 dc3e 99bf b1bf
00000050: c5bf 38bd 59e4 8e3f c310 cabf b276 453e
00000060: db67 c33f 15c7 29c0 6267 aa3f 1c37 a33f
00000070: f04a b2bf 174e a1bf 2fc5 353e c7e0 b3bf
00000080: 442a 2a3f 3b36 943f fae2 b7bf a215 633e
00000090: fd83 a23f 1663 19c0 c463 063f 46f5 953f
000000a0: 7c92 b3bf 33f1 90bf 56fe 7c3f 88d3 e9bf
000000b0: e3c6 c13f 8fa4 903f 77a3 bbbf e570 d93d
000000c0: c567 ca3f 683b 30ba db94 ca3f 4389 f2bf
000000d0: 47c2 7a3f 363a 1dc0 2171 cb3f a0ec 6fbd
000000e0: 7264 ca3f efbe f3bf 4da3 763f 2221 0ec0
000000f0: 5490 cb3f beff c93d 094d cf3f 5087 fcbf
00000100: 8161 8a3f 38bc 1bc0 3fa3 c93f 7b28 79bc
00000110: 2362 cf3f db8e f9bf dc5d 893f 79b6 1fc0
00000120: 6e33 bf3f 6567 1bc0 2297 613f 488d 9c3f
00000130: dc62 b3bf 5e75 3abf fdd2 c63f 72d7 0ec0
00000140: cef9 ca3f d26b 993f ec69 b3bf 70b8 51be
00000150: efc3 423f e034 40bf 33d4 c53f 9cda b13f
00000160: 4398 79bf c55b 72bf 86bf 043f 2b0c abbf
00000170: 0de5 29bf d609 a33f 4012 acbf 7d0f 36bf
00000180: 58aa 4d3e 2cb2 06c0 cd3a 8fbe a7cb b13f
00000190: 0581 a6bf 90e5 c5bd a8d4 453f 692e 90bf
000001a0: 1994 b83f 3955 423f 7005 adbf 6589 a9be
000001b0: b8b6 d7bf 051f dc3e a77b adbf 6503 a2bf
000001c0: 14a1 983f c298 a4bf ab1c 96bf 705f db3f
000001d0: 897a 2f3f 6c2e 5fbf ecba ce3e 7f01 90bf
000001e0: e347 bfbf 792a 00c0 bee2 c4bf 8a5e 783f
000001f0: a50e 89bf 9028 6840 0630 f2bf 8c43 30c0
00000200: e1de d4bf 7b74 91be dcd5 b73f f8f9 8740
00000210: d700 a8bf 6941 87bf 8486 b9bf 41b9 4e3f
00000220: f100 33bf 44be 0940 ef5a 2abf 484b 993f
00000230: 76cb b1bf 54aa cc3e e7c0 973f 0d94 9b3e
00000240: c5a8 cb3f 50ba 9b3e 5a4f c43f 8be2 b5bf
00000250: 90df 6d3f 4c90 04c0 5a8a d1bf e7ca ff3f
00000260: 464e 9abf a3aa 433e be9e 8c3f ce21 18bf
00000270: 292d fb3e 8788 84bf 0b9a 24bf a258 a13f
00000280: 4ab6 b4bf 74a8 8d3f e22a 403f e66f 3dbf
00000290: 0619 a93f 04dc 7b3f 86b2 a1bf 4600 32bf
000002a0: c72b 98bf d740 e6bc cd44 44bf 2e49 883f
000002b0: ed6a a5bf 3dd8 603f 7817 c23f cd0f df3e
000002c0: 6ae0 bf3f c042 96bf 1dd7 4e3f fefc dbbf
000002d0: 71ee 9abf f745 e6bf 07d7 dfbf fd8d 12bf
000002e0: e63e a43f c842 5640 b828 72bf d2cc d1bf
000002f0: a8ce 83bf 24b8 113f 8426 49bf 76de fabe
00000300: 608c ca3f 3306 22bd 6ed9 d03f 7d06 04c0
00000310: 6a5f a53f 205a 2ac0 36ce a5bf f5ce d13e
00000320: 66b4 bbbf f210 f1be 8cf9 3a3f 2186 a4bf
00000330: ca62 5abf 2772 c2be 5312 a2bf 6294 873e
00000340: 85d9 cebd d41c 3fbf d547 00c0 a691 16bf
00000350: b882 9abf c77a 0d3d 6ac0 663e 4f8c 4d40
00000360: 7063 cc3f 1866 8b3e 14c4 c53f acab bbbf
00000370: 2c5d 4e3f d7c5 02c0 68a6 e4bf b874 6d3f
00000380: e95d 86bf 0b34 71bf a3a4 1a3f ccda 82bf
00000390: f64b 14bf 14bf 833d 8bae bfbf c5dd 04bf
000003a0: d7b6 823f d5c5 81bf 7ce2 1ebf 820d dbbf
000003b0: 4f0f cbbf 9617 f23e f375 08bf 0eda aa3f
000003c0: f904 99bf 5e72 ef3d f4e5 f0bf 6f4e ecbe
000003d0: 2c9a fc3f 3341 52bf db78 d3bf c8e1 9fbd
000003e0: 334a b1bf c92e b33e fac6 0bbf c6bc 02c0
000003f0: 1cef 04c0 1218 46c0 9d09 b7bf 3041 923f
1.5749992 -2.6226194 0.712407 1.2084138 -1.4516084 -1.901788 1.1001984 -2.9607718
-0.6183195 1.1633493 -1.3570869 -2.3425958 1.0078939 -1.5257909 -0.38197932 1.121892
-1.5123175 -0.69830394 0.43115827 -1.3886596 -0.04510476 1.1163436 -1.5786365 0.1928356
1.5266069 -2.652776 1.33128 1.2751193 -1.3929119 -1.2601956 0.17751001 -1.4052972
0.6647074 1.157905 -1.4366143 0.22176221 1.269653 -2.3966727 0.5249598 1.1715477
-1.4029078 -1.1323608 0.98825586 -1.8267679 1.513882 1.1300219 -1.465926 0.10617236
1.5812918 -0.00067227194 1.5826677 -1.8948139 0.97952694 -2.456678 1.5893899 -0.058575273
1.5811903 -1.9042643 0.9634293 -2.2207723 1.590342 0.09863232 1.6195384 -1.9728794
1.0811006 -2.433363 1.5752944 -0.015207405 1.6201824 -1.9496721 1.0731769 -2.4955122
1.493757 -2.4281857 0.88121235 1.2230616 -1.4014544 -0.7283534 1.5533139 -2.2318997
1.5857484 1.1986029 -1.40167 -0.20480514 0.7608022 -0.7508068 1.5455383 1.3894839
-0.9749796 -0.9467128 0.5185474 -1.3363088 -0.6636513 1.2737377 -1.344307 -0.71117383
0.20084512 -2.1046247 -0.2797455 1.3890275 -1.3008124 -0.09662926 0.7727761 -1.1264163
1.4420196 0.7591129 -1.3517284 -0.33112636 -1.6852636 0.42992416 -1.3553361 -1.2657286
1.1924157 -1.2859118 -1.1727499 1.71385 0.6854635 -0.8718021 0.40376985 -1.1250457
-1.4943813 -2.0025923 -1.5381696 0.97019255 -1.0707594 3.6274757 -1.8920906 -2.7541227
-1.6630517 -0.2840918 1.436214 4.249264 -1.3125256 -1.0566837 -1.4494176 0.80751425
-0.6992331 2.152238 -0.66545004 1.1976099 -1.3890216 0.399737 1.1855744 0.3038639
1.5910879 0.30415583 1.5336716 -1.420976 0.92919254 -2.0713072 -1.6370347 1.9983796
-1.2055137 0.19108061 1.0985944 -0.5942658 0.49057892 -1.0354165 -0.6429755 1.2605174
-1.411813 1.1067033 0.75065434 -0.7399887 1.3210762 0.9838259 -1.2632606 -0.6953167
-1.188836 -0.02810709 -0.7666748 1.0647333 -1.2923256 0.87829953 1.5163412 0.43566743
1.4990361 -1.173912 0.80796987 -1.7186582 -1.2104017 -1.7990102 -1.7487496 -0.57247907
1.2831695 3.347826 -0.9459338 -1.6390631 -1.0297441 0.569216 -0.78574395 -0.4899785
1.5824089 -0.039556693 1.6316354 -2.062896 1.2919743 -2.6617508 -1.2953556 0.40978208
-1.4664428 -0.4708324 0.7303703 -1.2853433 -0.8530699 -0.37977716 -1.2661842 0.26480395
-0.10100082 -0.74653363 -2.0043843 -0.5881599 -1.2071142 0.034540918 0.22534338 3.2116888
1.5967846 0.2722633 1.5450463 -1.4661765 0.8061092 -2.0433252 -1.7863283 0.92756224
-1.0497409 -0.94220036 0.60407466 -1.0223022 -0.5792841 0.0643293 -1.4975141 -0.51900893
1.0212048 -1.0138499 -0.6206434 -1.7113497 -1.5864047 0.4728362 -0.53304976 1.3347795
-1.1954643 0.11691736 -1.8820176 -0.4615359 1.973455 -0.82130736 -1.6521257 -0.07806736
-1.3850769 0.34996632 -0.5460049 -2.0427718 -2.077094 -3.0952191 -1.4299809 1.1426144

fc.bias f4 [2379]
00000000: bb49 1a40 e811 eb3f 38a9 69be fbeb 58c0
00000010: 5c71 a23f 731c 10c0 0d30 7f3f 9105 2ec0
00000020: 0172 dec0 dab4 e6c0 a756 ddc0 ea3b ebc0
00000030: 5458 933b 5eac 52bf 4656 b9c0 3455 b3bf
00000040: 08c0 e7bf e86b b7c0 e5a4 3640 29dd b8c0
00000050: 0ea0 2240 8453 bdbf bf8f 1640 592e a4c0
00000060: 46e9 eec0 32c7 2bc0 776f a23f c3a3 bdc0
00000070: e485 eb3f 0ad6 d7c0 4f3a 0fc0 c927 8cc0
00000080: 6887 dec0 cb0e 593f 8e6c a4c0 3b9b 8d3f
00000090: 5f7b e5c0 2970 ca3f af16 a4c0 fe19 1940
000000a0: dfce 47c0 15c0 1e40 4679 c73e 0de4 2f40
000000b0: c28a 25be 0f06 0340 c81c d3c0 3472 aa3f
000000c0: 0934 01c0 ebf9 3840 5640 24bf 0ab0 3b40
000000d0: 6a78 5b40 67c2 3b40 d5c5 3e40 0f6e da3e
000000e0: 0bd2 303f a482 1940 e9e6 0640 3152 5bbf
000000f0: 7bb8 2ebf 4309 b6c0 f0e7 d1c0 3b13 e5c0
00000100: 8252 e6c0 d1ee d3c0 816c d0c0 834b d0c0
00000110: 1aa0 e3c0 ef44 dec0 4f62 cec0 a323 f0c0
00000120: 77b4 e2c0 cc0d e0c0 8c6d e5c0 4430 d7c0
00000130: f122 d3c0 bd1f e2c0 c16e e0c0 3e82 e53f
00000140: c686 1640 9fc6 43bf 49ee 5dc0 7264 1f3e
00000150: 5873 81bf 4acf 0740 4706 47c0 01b4 c6c0
00000160: 65d1 e8bf 6202 59bf c111 c0c0 a331 a33e
00000170: b149 0b3f 6377 ccbf d3b9 e9c0 e170 94c0
00000180: 0fbb dbc0 49b4 e8c0 3126 dcc0 09ef dec0
00000190: dcaf d6c0 c4cf e3c0 26ce ddc0 a678 eac0
000001a0: f766 ebc0 8e4b e4c0 09ff dac0 604e eac0
000001b0: 05e2 e9c0 452d ddc0 d169 e1c0 a867 eec0
000001c0: f9a9 cfc0 6a4a ecc0 bf86 d9c0 48c4 ebc0
000001d0: eec6 e8c0 582c d9c0 3324 e4c0 1cc8 ddc0
000001e0: 0408 f2c0 375e e7c0 0a33 edc0 d6cc dac0
000001f0: 8a56 ebc0 b652 efc0 3e71 ecc0 6eb0 e2c0
00000200: 0717 dec0 6650 dcc0 5f2b eac0 ae43 e8c0
00000210: c4eb e3c0 6df5 4ac0 bcd9 483e a5cf d2c0
00000220: 01f9 26c0 3d0f ecc0 41d2 dec0 67da 81c0
00000230: 73a7 c4c0 ae54 dbc0 41b7 e2c0 8791 dec0
00000240: 4027 f0c0 6f37 bcc0 0b90 e4c0 3592 e0c0
00000250: 8078 dec0 13cf d5c0 31d3 e9c0 81dd efc0
00000260: 31b3 dec0 11d8 e8c0 6501 f4c0 5fe8 d8c0
00000270: 8679 d5c0 9980 e3c0 fd5c edc0 71e7 f1c0
00000280: 1d87 e4c0 e39e e4c0 5f6b f3c0 ceb5 efc0
00000290: e2e0 d9c0 527b e6c0 5890 dbc0 8322 e7c0
000002a0: 6b29 e8c0 b3ba eec0 89cf ebc0 dc91 f3c0
000002b0: 0f86 edc0 fa9a cbc0 a49a d9c0 597d e7c0
000002c0: 9f7b dec0 61d4 e4c0 bdff eec0 5ad7 ddc0
000002d0: 7e41 f1c0 ced1 eec0 a985 efc0 7950 e6c0
000002e0: df77 dec0 643e dac0 cbb2 dfc0 4e76 d6c0
000002f0: 29fc e2c0 c8eb b3c0 09d4 e0c0 1f66 d6bf
00000300: 26e0 92be cfc3 4ec0 15ee c3c0 555e 4abe
00000310: 2cbe a6bf c5be 133f 7ff5 97c0 de14 eac0
00000320: 102d 923f 0d2d 3940 266f cbc0 1c2f 423f
00000330: d579 c8bf 1366 4dc0 cd46 dcc0 3abf e1c0
00000340: be29 dac0 e487 ecc0 8a3c d1c0 21ac f3c0
00000350: de3a d7c0 fe7b d7c0 2175 d1c0 72bb e0c0
00000360: ed7b e9c0 488f e5c0 8579 e8c0 f443 eac0
00000370: e148 dac0 5a04 d3c0 e9c2 c9c0 498b e4c0
00000380: dfb2 e1c0 a8f1 e7c0 fd3e dbc0 3ff0 d6c0
00000390: 4552 e0c0 ebc6 d5c0 d08b e6c0 858d e5c0
000003a0: 9bf9 e3c0 76ba e0c0 dc68 ecc0 3128 ecc0
000003b0: 4e57 dbc0 442a d9c0 ca68 eac0 6c96 e1c0
000003c0: efeb e2c0 54a1 d9c0 ab09 edc0 4500 d6c0
000003d0: 2e57 e2c0 a05a 98c0 4835 4ec0 97a0 e6c0
000003e0: 7346 a2c0 52ee e1c0 03ec ccc0 a8cb e2c0
000003f0: 4fbe e5c0 e0e1 cac0 5272 e3c0 c6e2 e3c0
2.4107502 1.836484 -0.22818458 -3.389403 1.2690845 -2.2517364 0.99682695 -2.7190897
-6.9514165 -7.2095766 -6.9168277 -7.3510637 0.0044966135 -0.8229426 -5.7917814 -1.4010377
-1.8105478 -5.731922 2.8538144 -5.776997 2.541019 -1.4791112 2.3525236 -5.1306577
-7.4659758 -2.684033 1.2690266 -5.9262404 1.8400235 -6.744878 -2.2379339 -4.3798566
-6.954029 0.847882 -5.1382513 1.1062998 -7.17131 1.5815479 -5.127769 2.3922114
-3.1220014 2.4804738 0.38959712 2.748294 -0.16166213 2.0472448 -6.5972633 1.3316102
-2.018801 2.8902538 -0.6416067 2.9326196 3.4292245 2.9337404 2.9808247 0.42662093
0.690705 2.3985987 2.1078436 -0.8567229 -0.68250245 -5.6886306 -6.5595627 -7.1585975
-7.1975718 -6.6229024 -6.513245 -6.5092177 -7.1132936 -6.9459147 -6.4495006 -7.50435
-7.0845294 -7.001684 -7.1696224 -6.724642 -6.5980153 -7.0663743 -7.01352 1.7930372
2.351976 -0.76474947 -3.4676688 0.1556566 -1.0113325 2.122027 -3.1097581 -6.209473
-1.8188902 -0.8476926 -6.002167 0.31873807 0.5440932 -1.5973934 -7.3039336 -4.638779
-6.8665843 -7.2720075 -6.879662 -6.966679 -6.708967 -7.119112 -6.9314146 -7.3272276
-7.356319 -7.134223 -6.843632 -7.3220673 -7.3088403 -6.911776 -7.044167 -7.4501534
-6.4894986 -7.3840837 -6.7976985 -7.36771 -7.2742834 -6.786663 -7.129419 -6.9306774
-7.5634785 -7.230251 -7.4124804 -6.8375044 -7.354314 -7.4788465 -7.3888235 -7.084037
-6.940311 -6.8848143 -7.3177943 -7.2582617 -7.12253 -3.1712296 0.19614309 -6.587847
-2.608948 -7.37686 -6.9631658 -4.0579104 -6.1454406 -6.854087 -7.08487 -6.9552646
-7.5047913 -5.881767 -7.1425834 -7.0178475 -6.9522095 -6.6815276 -7.30703 -7.495789
-6.959374 -7.2763753 -7.62517 -6.7783656 -6.6710844 -7.109448 -7.417601 -7.559502
-7.1414933 -7.1443954 -7.606857 -7.490943 -6.8087015 -7.2025537 -6.86137 -7.222963
-7.255056 -7.4602904 -7.369084 -7.611555 -7.4226146 -6.362668 -6.800127 -7.234051
-6.9525905 -7.150925 -7.468718 -6.932538 -7.5392447 -7.463111 -7.485066 -7.1973233
-6.9521327 -6.820116 -6.9905753 -6.7019415 -7.0932813 -5.622532 -7.025883 -1.6749915
-0.28686637 -3.2307012 -6.1228127 -0.19762547 -1.3026786 0.57712966 -4.748718 -7.3150473
1.1420002 2.8933747 -6.357318 0.75853133 -1.566218 -3.209355 -6.8836427 -7.054593
-6.8175955 -7.391588 -6.53864 -7.614762 -6.725936 -6.733886 -6.545548 -7.0228815
-7.2963777 -7.1737404 -7.264834 -7.320795 -6.8213964 -6.594281 -6.3050427 -7.1420026
-7.053085 -7.248249 -6.851439 -6.716827 -7.0100427 -6.680532 -7.204567 -7.1735253
-7.1242194 -7.0227613 -7.3878 -7.379906 -6.8544073 -6.7864094 -7.3252916 -7.049612
-7.0913005 -6.8009434 -7.40743 -6.687533 -7.073142 -4.7610626 -3.222002 -7.2071033
-5.0710998 -7.060342 -6.40381 -7.0873604 -7.179481 -6.3400726 -7.107705 -7.1214323
