Data/model.pth (torch, 100515 bytes, 18 tensors)

weight_ih_l0 f4 [24, 584]
000000 99 84 2c 40 d3 b1 42 c0 b2 2d 85 bf 10 74 94 40
       2.695593 -3.0421035 -1.040457 4.639168
000010 9b 67 3a c0 46 ba 4e c0 c2 2f b0 bf 7c e8 5c bc
       -2.9125736 -3.2301192 -1.3764575 -0.013483163
000020 34 95 71 3e 19 5f 82 3e 7b 38 79 be ea 0f d6 3f
       0.23592073 0.2546318 -0.24337952 1.6723607
000030 cd e7 13 c0 db 8f ab 40 a2 74 af bf 76 e8 88 3f
       -2.311023 5.3613105 -1.3707469 1.0695941
000040 4a a4 e9 3f 01 1d f7 bf 05 e9 61 bf b7 a7 7d 3f
       1.8253262 -1.9305726 -0.88246185 0.9908404
000050 bf 49 a1 40 62 0d 4e 40 3f 6d 95 40 60 ed e1 3f
       5.040252 3.2195668 4.6695857 1.7650566
000060 90 48 2a bf ce e5 bf 3f a4 01 2a c0 44 d5 10 40
       -0.6651697 1.4992006 -2.6563501 2.2630167
000070 6a 4e a7 bf a1 81 e5 be f4 57 5a c0 4d b7 15 3e
       -1.3070805 -0.44825462 -3.4116182 0.14620705
000080 fe 51 80 3f 8f 7c db 3d ed 96 ad 3e fc 99 b5 3f
       1.0025022 0.10717117 0.3390421 1.4187617
000090 51 82 c6 be 0a 5c 1c c0 be 23 a0 bf 29 b8 bb be
       -0.387713 -2.4431176 -1.2510908 -0.3666394
0000a0 63 b7 b8 3f 3a 1a 52 bf 18 1a 00 be 57 c0 bb bf
       1.4430965 -0.8207127 -0.12509954 -1.4668072
0000b0 9d cf 0e bf db 5f 92 bf 3f a3 3f 40 f3 d8 98 bf
       -0.5578554 -1.1435503 2.9943388 -1.1941208
0000c0 a5 6d 3f 40 fa 74 ec be 10 84 5e c0 ac 8d 62 bf
       2.9910672 -0.46182996 -3.4768105 -0.88497424
0000d0 ae 75 c0 3f 8f e1 ef bf f1 26 f2 bf d6 d4 f1 3a
       1.5035913 -1.874071 -1.8918134 0.0018450271
0000e0 7a 08 51 bf f1 6e 96 bf 77 5c e1 bf de ff 21 40
       -0.8165356 -1.1752607 -1.7606343 2.531242
0000f0 8e 64 0d bf ff f3 50 bf 94 ed d9 bf d1 43 8e bf
       -0.5523156 -0.8162231 -1.7025628 -1.1114446
000100 7a bf 27 3f a6 5f a5 bf b1 33 97 3f 0f 96 76 3d
       0.65526545 -1.2919815 1.181265 0.0602017
000110 a8 c2 50 bf 56 3d 03 3f a5 c1 69 3f 73 93 b8 3e
       -0.8154702 0.51265466 0.91311103 0.36049995
000120 59 eb bf bf 14 35 74 3e 89 d0 8c 40 9d b7 16 bf
       -1.4993697 0.23848373 4.400456 -0.5887392
000130 c9 ce 44 c0 69 2f 7f 3e dc 47 22 3e b6 77 94 bf
       -3.0751212 0.2492043 0.15847725 -1.1599033
000140 2f f7 e0 be d7 9e e6 bf 0c c2 d6 40 9d 1f 62 3f
       -0.43938586 -1.8017224 6.7111874 0.8832949
000150 da 39 61 3f 9c e3 1b c0 1d 74 ac 40 17 82 b6 3f
       0.879789 -2.4357672 5.389174 1.425845
000160 d2 15 83 3f a7 4f 89 3d ca 29 36 bf 91 ba 41 bf
       1.0241034 0.067046456 -0.71157515 -0.756753
000170 2b a4 41 c0 1b 42 db be ca bf 28 3f c0 b6 00 40
       -3.025645 -0.42823872 0.65917647 2.0111542
000180 c3 63 86 40 c4 30 52 40 f0 4d 29 c0 b0 a9 8e 3f
       4.199678 3.2842264 -2.645382 1.1145535
000190 98 a0 1d c0 55 fa 3a 40 8d 4f a7 bd 8e d4 be 3e
       -2.4629269 2.921529 -0.0816947 0.3727154
0001a0 12 6e b3 bf 83 40 3b be bc 57 9f 40 b9 47 4c bf
       -1.4017966 -0.18286328 4.97946 -0.7979694
0001b0 92 ee 25 3f f2 4c 0f c0 44 7f 0d c0 9d 6f 8c 3f
       0.64817154 -2.2390714 -2.2108927 1.0971562
0001c0 02 f3 49 40 71 67 25 3f 4d bc 06 bf 93 6d 9c 3f
       3.155457 0.64610964 -0.52631074 1.2220939
0001d0 42 8d ef 3f 3c 06 6e c0 6a 1e 9a bf 61 36 16 40
       1.8714983 -3.7191305 -1.2040532 2.347069
0001e0 e2 10 b0 3f fd 3e ea be 21 12 65 bd df 61 df bf
       1.3755152 -0.4575118 -0.055925492 -1.7451743
0001f0 0f cf cd 40 ac 88 e1 bf 81 a6 85 3f 72 78 56 40
       6.4315257 -1.7619834 1.0441438 3.3511014
000200 0d 10 41 be da 24 5d 3f d1 05 a3 3f c0 fa c6 3f
       -0.18853779 0.86384356 1.273615 1.5545273
000210 3c 7d 62 bf f7 78 3f bf 3c f9 52 c0 4f 5b c6 be
       -0.8847234 -0.7479395 -3.296462 -0.38741538
000220 b6 99 51 be b5 d9 22 be f7 05 f6 3e da 02 de bf
       -0.20468792 -0.15903361 0.48051426 -1.734462
000230 85 25 c8 3f 05 41 d0 3e 28 85 80 3f 0b 7b d0 be
       1.563645 0.40674606 1.0040636 -0.40718874
000240 d3 03 e6 be cd b2 92 bf ba 33 07 3e 67 a5 09 c0
       -0.44924793 -1.1460816 0.13203326 -2.1507204
000250 42 c7 c4 3f 11 4f 37 bd fd 8c 87 bf fa a0 37 be
       1.5373309 -0.044753138 -1.0589901 -0.17932501
000260 9c d8 eb bf 6f 0d 62 bf ed bd 07 3f d5 aa 6d c0
       -1.8425479 -0.8830175 0.5302418 -3.7135518
000270 66 c0 a2 be 85 56 09 bf 13 e1 8c 40 d0 4e 43 be
       -0.31787413 -0.53647643 4.402475 -0.19073033
000280 c5 2e b5 bf 3d 22 84 bf 3a 2e 8f 3d fe e1 af bc
       -1.4154898 -1.0322949 0.06991239 -0.021470066
000290 53 fb 41 be b0 ee 64 3f 63 0b b3 bd 06 64 47 3f
       -0.18943529 0.8942671 -0.08742406 0.77887
0002a0 a7 5c e9 bf ec ba fc bc ad db e1 bf 44 65 c0 40
       -1.82314 -0.03085085 -1.7645165 6.0123615
0002b0 b9 46 18 bf 8e ca 72 3e 0e 04 18 40 9a 2f 0d c0
       -0.59482914 0.23710081 2.3752475 -2.2060304
0002c0 5d ac 50 bf 4f 77 1d bf 18 b5 92 3f 18 6e ef 3e
       -0.81513005 -0.61510175 1.1461515 0.46763682
0002d0 04 1b b0 3f 99 4b b5 be f2 c4 59 3f c8 2b 83 c0
       1.3758245 -0.3540924 0.8506614 -4.0990944
0002e0 f1 3c 65 c0 02 d7 95 bf 96 f7 1f 3f a4 f5 02 c0
       -3.5818446 -1.170624 0.6248716 -2.0462427
0002f0 c3 e4 4f be f3 d7 80 40 c7 62 2d bf 09 45 10 40
       -0.2030211 4.026361 -0.6772885 2.2542136
000300 a9 49 08 3e be 57 f5 3e 6a 3c ad be 4e e5 0a 40
       0.13309349 0.47918504 -0.33835155 2.1702456
000310 e4 28 cb 3f 5a f0 03 40 3c 16 c2 be e3 19 06 c0
       1.5871854 2.061545 -0.37907588 -2.09533
000320 27 32 3a bf 43 7c ed 3f f2 47 ad 40 a4 2c 3d 3f
       -0.72732776 1.8553547 5.4150324 0.7389624
000330 59 bf ec bf c2 79 22 40 a7 14 91 3b 4e a0 b1 40
       -1.8495895 2.5386815 0.004427511 5.5508184
000340 bf 59 a7 40 ee 1f 36 c0 8c d8 26 c0 57 c1 18 be
       5.2297053 -2.8456988 -2.606967 -0.14917503
000350 c5 17 a0 3f d1 39 43 40 01 02 bf 3e a9 ec 0a be
       1.2507254 3.0504038 0.37306216 -0.13566841
000360 53 e2 5b 3f a2 88 03 40 55 29 9e be ed c9 be 3e
       0.8589222 2.0552144 -0.3089091 0.37263432
000370 34 1b c9 bf 72 47 45 c0 c3 cf b5 3e 14 d7 a4 bf
       -1.5711427 -3.0824857 0.35510072 -1.2878137
000380 d8 ca 5e 3f c5 61 84 bf 15 6c 42 bf 37 c2 51 3f
       0.87028265 -1.0342337 -0.7594617 0.81936973
000390 e8 48 ea bf 21 98 1b bf db de 94 bd f1 2b b5 be
       -1.8303499 -0.60779005 -0.07269069 -0.35385087
0003a0 a9 a5 f8 3f fa cd ff 3f 8f 6a be 3f d5 0c 25 3f
       1.9425555 1.9984734 1.4876269 0.64472705
0003b0 57 4e 27 3c 3c 9f 87 bf ac b1 d9 3d b3 ff 36 3f
       0.010211549 -1.059547 0.10629591 0.71483916
0003c0 89 1b c0 bf d0 7d 9f 3d 89 ae 84 bf 9d 7c 02 bf
       -1.5008403 0.07787669 -1.0365764 -0.50971395
0003d0 0c 8a c5 be 27 2c c5 bf 94 ee 9f be a7 49 40 3f
       -0.38581884 -1.5404099 -0.31236708 0.75112385
0003e0 2f fc 93 3d 0b 88 83 3f ac 5f 14 c0 33 9e 30 c0
       0.072258346 1.0275892 -2.3183393 -2.7596557
0003f0 ea dd 77 bf b0 00 59 be cb 01 53 be ee cc 45 c0
       -0.9682299 -0.21191669 -0.20606153 -3.090633

weight_hh_l0 f4 [24, 6]
000000 24 09 71 bf 25 a9 83 bf a8 81 27 40 38 b9 81 40
       -0.9415457 -1.0285994 2.6172886 4.0538597
000010 bc 30 1d c0 a5 54 30 40 2b 2f a3 3f b6 d0 74 3f
       -2.4560995 2.7551663 1.274877 0.9563097
000020 27 da 78 40 fa 17 72 3f 74 ab ca 3f 1d e3 9e bf
       3.888315 0.94567835 1.5833573 -1.241306
000030 8a 20 e7 3f fe 7f 36 c0 39 c3 1a c0 78 9c ad 40
       1.8056805 -2.851562 -2.4181654 5.42535
000040 ce 88 df 3d ea 3d 28 c0 9b fb 10 40 c7 4f 8d bf
       0.10914765 -2.628779 2.2653568 -1.1039971
000050 39 00 51 c0 ff 76 04 40 66 ce 87 bf b1 a3 1a 3e
       -3.2656386 2.069763 -1.0609863 0.15101506
000060 27 f1 41 40 95 1d d3 3f f3 c9 96 3f 8d f0 be 40
       3.0303438 1.6493403 1.178038 5.966864
000070 7c 6a 77 c0 ae b8 25 3f a5 6e 29 3f 1e e4 21 40
       -3.8658743 0.64734924 0.66184455 2.5295482
000080 ab a4 54 40 58 e3 c0 3f b1 98 9d c0 56 ee 9c 40
       3.3225505 1.506938 -4.924889 4.9040937
000090 e4 94 c1 3e 89 9a 87 3f 18 9c 83 40 c7 22 3b be
       0.37808907 1.0594035 4.1128044 -0.18274985
0000a0 cf 81 ba bf 43 40 88 be 4e 72 e3 3f 09 ee 87 bf
       -1.4570864 -0.26611528 1.7769258 -1.0619518
0000b0 46 50 1c 40 70 90 86 be ec 8e b1 3e 68 3a bd bf
       2.4423995 -0.26282072 0.34679353 -1.4783449
0000c0 b0 72 4b c0 b6 af 83 3f c0 ba 0b 3e 91 15 84 3f
       -3.178875 1.0287998 0.13645458 1.0319082
0000d0 23 15 1f c0 dc d2 45 3e 2a e0 85 3f dc 7f 9c bf
       -2.485665 0.19318718 1.0459034 -1.222652
0000e0 fc 13 bf be 61 2f e0 be 30 eb 79 3d 0c d9 61 3f
       -0.37319934 -0.43786147 0.061015308 0.8822181
0000f0 3e b5 18 40 af ca 73 40 00 f8 1d 40 6c 9d 8a be
       2.3860621 3.8092458 2.4682617 -0.27073228
000100 33 7c ce be c4 6e 80 3e 62 61 44 3e 56 1e 6c 40
       -0.4032913 0.25084507 0.19177774 3.6893516
000110 99 55 29 40 9b 43 21 c0 77 1b 0b 3d 5d b3 a5 bf
       2.6458495 -2.5197513 0.03396174 -1.2945362
000120 37 a6 28 c0 75 86 cf 3f 48 32 54 40 90 9b b5 3e
       -2.635145 1.6212908 3.315569 0.35470247
000130 e0 60 1d bf 29 63 1c c0 0d 60 8b bf c9 1d 36 be
       -0.61475945 -2.4435523 -1.0888687 -0.177848
000140 a8 76 32 c0 92 85 98 be 85 36 b2 bf 5c 95 c0 3f
       -2.7884922 -0.29789406 -1.3922888 1.5045581
000150 ff d0 b6 3a ef 52 09 bf 9c 8b d5 bf 2a 12 3f c0
       0.0013947784 -0.5364217 -1.668323 -2.9854836
000160 0a d7 c9 3f 31 e9 c2 3e d3 c6 4b 3e 8c a3 f0 3f
       1.576875 0.38068536 0.19900064 1.879991
000170 bd a7 47 3f 4c 01 0c bf d7 a3 36 bf 93 dc 93 bf
       0.77990323 -0.5468948 -0.7134375 -1.1551689
000180 54 a2 16 3f d6 dc 90 be 82 e9 b7 3f 7a 8c 59 3e
       0.58841443 -0.28293484 1.4368136 0.21244994
000190 c8 8a 0c bf 8a 59 01 c0 bf 3a 12 3e ca c5 51 3e
       -0.54899263 -2.02109 0.14280222 0.20485607
0001a0 1b 94 bf bf c4 c2 98 3f 69 d3 81 bf 15 41 46 bd
       -1.4967073 1.1934438 -1.0142642 -0.04840191
0001b0 71 23 83 3d 15 b6 57 40 59 13 8e 40 df 3f 2f 40
       0.06403244 3.3704884 4.439862 2.7382734
0001c0 7c 5a 03 c0 ab a6 b6 3f f1 c3 2f 3f 3e a4 9c 3f
       -2.0523977 1.4269613 0.6865836 1.2237623
0001d0 1f b3 1e 3f 6d 93 07 c0 dc 34 45 40 53 e2 a5 c0
       0.6199207 -2.1183732 3.0813513 -5.1838775
0001e0 8d 0f c3 be 83 12 d1 40 e8 94 dd 40 82 15 4b 40
       -0.38097802 6.5335097 6.924427 3.1731877
0001f0 9a 7e 70 c0 81 3d 9e c0 16 c6 36 3f 4f 8d 4a 40
       -3.7577271 -4.945008 0.71396005 3.1648748
000200 b4 df 8a c0 8f 7e 60 40 70 00 ed bf 84 a2 fa 3e
       -4.3398075 3.5077245 -1.8515759 0.48952115
000210 7e 5f b3 3f f8 ac 84 40 27 41 33 40 07 f5 14 40
       1.4013517 4.1461143 2.8008516 2.3274553
000220 be ff a1 c0 dd 33 61 c0 87 f4 f0 3f e8 a0 42 c0
       -5.0624685 -3.5187905 1.8824624 -3.041071
000230 b8 94 b4 3e 53 fa 1e 40 dc c4 14 c0 d7 a1 b2 3e
       0.35269713 2.4840286 -2.3245153 0.348891

bias_ih_l0 f4 [24]
000000 25 a4 68 3f e2 8a bd bd b3 ac b3 3f 4e bb 49 40
       0.90875465 -0.092550054 1.4037079 3.1520572
000010 07 36 1e bf 00 fa d0 be 65 dd b2 bf d8 71 89 be
       -0.6180119 -0.40815735 -1.3973814 -0.26844668
000020 61 69 29 bf 30 f4 ed be 2d d0 b3 be 2a ef 44 bf
       -0.6617642 -0.46475363 -0.35119763 -0.76927435
000030 77 a0 20 3f 65 6e 9c be 61 4b b0 3f c2 1e b8 be
       0.6274485 -0.30552974 1.3773004 -0.35960966
000040 33 00 05 3f ed d1 a0 bf 48 56 90 3d 83 51 32 3f
       0.5195343 -1.2564064 0.07047707 0.69655627
000050 db ad 87 3e 13 2b a4 be fd a4 a6 3e 9e 0a 13 40
       0.2649983 -0.32064113 0.3254775 2.297523

bias_hh_l0 f4 [24]
000000 f6 dd 90 3f 63 7d 0b 3e 54 f5 d1 3f 40 a1 34 40
       1.1317737 0.1362205 1.6402993 2.822342
000010 d9 f5 85 be 3e 8f 61 bf 5f 41 b2 bf a5 9d a7 3e
       -0.2616413 -0.88109195 -1.39262 0.3273746
000020 18 32 b0 bf 07 d9 a3 be e0 8a 97 3e 94 5f 50 bf
       -1.3765287 -0.32001516 0.2959814 -0.8139584
000030 34 e9 54 3f bc 91 6f be 44 b1 51 3f 1f 77 ef be
       0.8316834 -0.23395437 0.8191111 -0.4677057
000040 91 b4 4a 3f 84 4d a9 bf a3 b0 94 be f3 86 0e 3f
       0.7918177 -1.3226781 -0.29041013 0.55674666
000050 e7 b2 af bc 4c b6 b8 bd cf 2f 22 3f 56 43 20 40
       -0.021447612 -0.09019145 0.633542 2.5041099

weight_ih_l1 f4 [24, 6]
000000 9c 04 09 41 d0 c8 db 3f db bb ad 40 41 e1 7a 3f
       8.563625 1.7170658 5.4291816 0.9799996
000010 ba 6c 26 41 46 c9 0e c1 8e 4b 14 c0 d7 2d 08 bf
       10.401545 -8.924139 -2.3171115 -0.53194946
000020 48 33 e8 bd 45 f5 a9 3f c4 d7 94 bf 3e 25 71 bf
       -0.11337906 1.3277975 -1.1628346 -0.9419745
000030 e4 25 81 41 19 45 ae c1 6f 12 74 3f 67 13 ea c0
       16.143501 -21.78374 0.9534063 -7.3148685
000040 8b a4 8c 41 2c 1f b9 c0 44 64 29 41 bd fe 0e bf
       17.580343 -5.785055 10.586979 -0.5585745
000050 54 e0 48 40 b0 81 ee c0 92 41 03 41 48 18 f1 c0
       3.138692 -7.453331 8.203508 -7.534214
000060 5c b1 1a 3f 33 62 8b bf 1d 44 70 bf 88 b8 9d 3f
       0.6042688 -1.0889343 -0.9385393 1.232194
000070 ea 14 81 bf 71 53 35 3f 9b 25 f3 bf 35 63 02 40
       -1.0084507 0.70830446 -1.8995851 2.037305
000080 63 2a a0 bd e7 04 67 3f 73 6f e9 be ec 63 99 be
       -0.078205846 0.90241855 -0.45592842 -0.29959047
000090 b4 b0 2b 40 79 bf 20 40 37 68 ad 40 31 31 1f 41
       2.68266 2.5116866 5.4189715 9.94951
0000a0 93 26 cd 40 6e 2c ae c0 6e 8a 09 c0 1f a2 52 bf
       6.410959 -5.4429235 -2.149074 -0.8227863
0000b0 3b 39 25 bf 9b ee d0 3f 68 b4 00 c0 ae 95 76 3f
       -0.6454045 1.6322817 -2.0110111 0.96322143
0000c0 b0 ae b6 3f 64 60 7a bf e8 94 a8 3e a3 1e 76 bf
       1.427206 -0.9780333 0.32926106 -0.961405
0000d0 6b 45 07 40 dd 32 73 bf e0 e4 89 40 37 ad 43 3f
       2.113612 -0.94999486 4.309189 0.7643618
0000e0 92 96 81 3f b7 e4 9a c0 69 6a d3 3e e1 bf ff bf
       1.0124075 -4.8404193 0.41292122 -1.9980432
0000f0 17 a1 32 3f 74 e6 da bf 3d 1a 9c bf f0 9a 63 3f
       0.69777054 -1.7101579 -1.2195507 0.8890829
000100 3f 57 8d bf 13 57 05 3f 3d 8a 2f c0 99 79 dd 3f
       -1.104225 0.5208599 -2.7428124 1.7302734
000110 89 12 f3 3e 33 ad d9 3f ca 85 92 bf 1c 7c 16 bc
       0.4747508 1.7005981 -1.1447079 -0.009184863
000120 28 4d 4c 3f d2 61 b5 be 31 14 25 be f7 72 09 bd
       0.7980523 -0.35426193 -0.16120984 -0.033556905
000130 ce c9 06 40 55 71 cc bf 99 97 4f 3f e1 4c 4a 3f
       2.1060672 -1.5972086 0.81090695 0.7902356
000140 fb 49 6c 3f 73 aa 55 bf 44 8f 88 3f 80 49 a5 be
       0.92300385 -0.8346321 1.0668721 -0.3228264
000150 78 3e 3d 3f e3 70 81 3f 83 3b d8 bd 5b 43 45 3f
       0.73923445 1.0112575 -0.10558226 0.770559
000160 d8 0f d3 bf b0 b5 37 3f e8 26 82 c0 c0 28 48 40
       -1.648921 0.7176161 -4.0672493 3.1274872
000170 55 c6 01 40 c0 38 56 40 c0 60 82 c0 c8 f3 5c 40
       2.0277302 3.3472137 -4.0743103 3.4523792
000180 41 61 bc be 2d 5c b4 bf 30 a2 5a bf 6e 0e b3 3f
       -0.3679295 -1.409063 -0.8540373 1.3988779
000190 94 1b a4 bf 7d 3d c2 3e cf 57 bc 3f 3f 8e af 3f
       -1.2820916 0.37937537 1.4714297 1.3715285
0001a0 45 6d 24 3f 16 0d 8d bf fd 3a 74 3f 00 e7 bb be
       0.6422923 -1.1019619 0.9540251 -0.36699677
0001b0 af 41 91 41 c9 a5 80 bf 56 60 9f 40 8d e1 c2 be
       18.157072 -1.0050594 4.9805098 -0.38062707
0001c0 1a 91 0c 41 84 df 04 c1 9c 58 de c0 e8 dd 0f 41
       8.785425 -8.304569 -6.9483166 8.991676
0001d0 05 c0 67 c0 75 25 ed 40 8e 3a 18 c1 9d 7f 80 40
       -3.621095 7.4108224 -9.514296 4.015578
0001e0 74 36 99 40 b8 ae 34 c0 22 d5 c7 3d 44 81 86 c0
       4.787897 -2.823164 0.09757449 -4.2032795
0001f0 0f 02 93 40 4f 73 5c c0 fc 79 9f 40 32 64 e5 bf
       4.5940013 -3.4445379 4.9836407 -1.7921202
000200 6e 26 b4 3f 0a 5a 92 c0 1a 7c 89 40 90 00 3f c0
       1.4074228 -4.573491 4.296399 -2.9844093
000210 4f 3c cd c0 5a 86 8f 40 db f0 3e c0 ad e3 da 40
       -6.413612 4.4851503 -2.9834507 6.8402925
000220 33 7f 19 c1 49 f5 76 40 20 ce f4 c0 b4 ef d9 40
       -9.5935545 3.858721 -7.6501617 6.8105106
000230 6c 23 72 bf 8d 9f b1 40 27 c7 00 c1 77 81 ad 40
       -0.945853 5.5507264 -8.048621 5.422054

weight_hh_l1 f4 [24, 6]
000000 70 93 f4 be 4f e9 39 c0 61 78 21 3f 01 2a 39 3f
       -0.47768736 -2.904865 0.6307431 0.7232972
000010 8c f8 05 40 ab 9e 06 c0 9d eb 3f 3f f5 b3 7a 3f
       2.093295 -2.1034343 0.7496889 0.9793084
000020 9f 75 ae bd a2 e0 01 3f 91 1a c9 3f 69 5b ac 3e
       -0.08518528 0.5073339 1.5711232 0.3366349
000030 9e c2 fe 3f 7c eb 85 3f 01 d9 27 c0 76 59 87 bf
       1.9903142 1.0462489 -2.6226199 -1.0574176
000040 60 01 e1 be 76 c5 9b 3e 5b 58 e4 3e 60 db 17 3f
       -0.43946362 0.30424088 0.4459866 0.59319115
000050 34 b4 b5 3f 64 46 c1 3d 4b 03 cd bf b4 27 9c 3c
       1.4195619 0.09437254 -1.601663 0.0190619
000060 8b 2c b1 3f 00 3c 60 3e be d0 a2 bf f8 d2 30 bf
       1.3841718 0.21897888 -1.2719953 -0.6907191
000070 ac 8b 95 3f 3b ec bf 3e 0c de a9 bf c7 1c 49 c0
       1.168325 0.37484917 -1.3270888 -3.1423814
000080 07 f5 f2 3f d5 b9 88 3f d3 ec 28 be ee cf b1 bf
       1.8981026 1.0681711 -0.16496591 -1.389158
000090 32 ab 24 3f 50 9b ef 40 a4 90 7f bf e3 45 88 bf
       0.64323723 7.487709 -0.9983008 -1.0646328
0000a0 6d 3e d8 c0 5c 5f b9 40 ed 9d 92 3e db 44 79 bf
       -6.7576203 5.7928905 0.28636113 -0.9737069
0000b0 f8 df 3a bf 5c 33 d7 3e 24 88 a8 3f 01 9a 4b 3e
       -0.72998 0.42031372 1.3166547 0.19882967
0000c0 18 e9 9a 3f 17 24 d9 3e 38 bb 15 c0 2d e3 bf be
       1.2102385 0.42410347 -2.339552 -0.3747801
0000d0 ab db 19 bf 0f 81 42 bf bd 44 db be 9e 85 f5 3e
       -0.6010081 -0.7597818 -0.4282588 0.47953504
0000e0 a5 d6 03 3f b3 8c 76 3d 2d dd a8 bf 21 f1 7a be
       0.51499397 0.060192775 -1.3192497 -0.24506046
0000f0 ac 59 97 3f 1f 6f a5 bf 79 86 c0 bf 0d 68 a9 be
       1.1824241 -1.2924536 -1.5041038 -0.33087197
000100 cc 24 a6 3f ae 5e 60 3e 83 48 55 bf 6e 72 30 c0
       1.297998 0.21911117 -0.8331377 -2.7569842
000110 c1 75 b1 3f 15 bf 4d 3f 92 d0 74 bf 2b 57 30 bf
       1.3864061 0.80369693 -0.95630753 -0.6888301
000120 dc a4 37 3c 94 28 25 bd 06 99 0f bf 00 bf 26 be
       0.011208739 -0.0403219 -0.5609287 -0.16283798
000130 e6 4d 0b 3f cf d8 6f bf 75 1f 9f bf ce e0 5f 3f
       0.5441574 -0.936902 -1.2431475 0.874524
000140 58 68 82 3f 6c 52 11 3f 93 64 85 bf b7 bc ee be
       1.0188093 0.5676639 -1.0421318 -0.46628353
000150 5d b2 81 be 23 a6 cc 3f 86 0a 36 3f 25 f4 5e be
       -0.25331393 1.5988201 0.7110981 -0.21772821
000160 61 91 5d bf 03 16 7d 3f 81 ce 82 bf d1 a3 e8 3f
       -0.86549956 0.9886171 -1.021927 1.8174993
000170 aa 76 d4 3f 82 56 00 3f fc 4f 14 c0 16 bf e9 3f
       1.6598713 0.50132 -2.3173819 1.826144
000180 f8 23 9b 3f 18 2f ab 3e e4 eb 94 bf f8 4a 53 bf
       1.2120352 0.33434367 -1.1634488 -0.8253627
000190 b5 00 b3 3f 1c ac 5e 3f ae 74 86 be 8a dc c6 3f
       1.3984591 0.8698137 -0.26260895 1.5536053
0001a0 8b 26 90 3e fe b2 93 be f7 c2 d6 bf 88 68 8e be
       0.28154406 -0.28847498 -1.6778249 -0.27814126
0001b0 a1 db 0b 3e 8e 4c 24 3f 3e 06 0a 40 3d 7d 00 bf
       0.13658 0.64179313 2.156631 -0.501911
0001c0 e2 fc 1f bf ca 25 cf 3d cf 25 25 c0 4c 1b 5b bf
       -0.62495244 0.101146296 -2.5804327 -0.85588527
0001d0 97 02 93 40 db d8 29 40 e9 40 ee 3e e3 e2 18 bf
       4.594066 2.6538608 0.46533898 -0.597212
0001e0 8c 3e 58 3f 61 44 a0 3f 82 20 36 c0 3f 76 a9 bf
       0.8447044 1.2520868 -2.8457341 -1.3239211
0001f0 bf 78 87 bf 54 40 4a 3e 62 0a 6d 3f d4 ee 1f 3e
       -1.0583724 0.19751102 0.9259397 0.1561845
000200 b0 6f b8 bf 57 5c 15 bf fd 7f b4 bf e4 61 03 bf
       -1.4409084 -0.58344024 -1.4101559 -0.51321244
000210 c8 c5 33 c0 f3 ed 64 3e d6 12 bd 40 4b 70 03 40
       -2.8089466 0.22356395 5.9085493 2.0537288
000220 f3 21 b5 3e 94 86 17 3f e9 65 f7 bf ea d3 05 bf
       0.35377464 0.59189725 -1.9327976 -0.5227648
000230 7c 56 ee 3f 63 b5 05 3f cc 7c c9 bf 4d c0 dc be
       1.8620143 0.522299 -1.574121 -0.43115464

bias_ih_l1 f4 [24]
000000 71 ba 81 3f 48 27 5f 3f 14 42 84 bf dc e1 20 bf
       1.0135022 0.87169313 -1.0332665 -0.62844634
000010 51 94 a3 3f 17 ac 88 bf 85 50 d4 bf 34 6e 76 3f
       1.2779638 -1.0677518 -1.6587073 0.96261907
000020 35 1b 35 3f 8b 54 22 bf 3e 51 74 3f 2a df 81 bf
       0.7074464 -0.6341025 0.95436466 -1.0146229
000030 7c 2d 8b 3f 35 d4 aa bf 9b 42 a8 bf aa 90 de bf
       1.0873256 -1.334601 -1.3145326 -1.7387898
000040 79 95 d3 3f ac 2f 6b bf 07 cb b2 bf b7 6b 5d c0
       1.652999 -0.91869617 -1.3968209 -3.4596994
000050 2f 7e a3 3f 53 72 69 3e 27 f3 a8 bf 68 14 c9 bf
       1.2772883 0.22797517 -1.3199204 -1.5709352

bias_hh_l1 f4 [24]
000000 aa 88 af 3f 52 a7 29 3f a1 67 87 bf 0b 0c b8 be
       1.3713582 0.66270936 -1.05785 -0.35946688
000010 62 18 c9 3f 68 c6 87 bf d1 d2 d7 bf 1f 8a 91 3e
       1.5710566 -1.0607424 -1.6861211 0.2842569
000020 f5 46 a1 3e a4 a6 eb be 06 10 a5 3f 3c bb 6e bf
       0.31499448 -0.46025574 1.2895515 -0.93254447
000030 90 b5 83 3f 7a 97 98 bf b9 f3 49 bf 51 ea e9 bf
       1.0289783 -1.1921227 -0.78887516 -1.8274633
000040 89 c1 97 3f 19 c1 87 bf 8f 75 a6 bf 03 12 3b c0
       1.1855937 -1.0605804 -1.3004626 -2.9229743
000050 53 dc c4 3f 4f de 17 be 82 78 b7 bf 89 2f d6 bf
       1.5379738 -0.14830898 -1.4333651 -1.6733257

weight_ih_l2 f4 [24, 6]
000000 7b e5 02 40 83 4c c6 40 c7 96 b5 bf e9 66 43 3e
       2.0452564 6.19684 -1.4186639 0.19082226
000010 1e eb 10 bf e2 99 bd 40 eb 34 7b 3e 41 56 b0 be
       -0.5660876 5.9250345 0.24531905 -0.34440807
000020 23 68 d2 bc 0f d6 90 3e c7 ed 34 3f 9e 21 88 be
       -0.025684422 0.28288314 0.7067532 -0.26588148
000030 81 09 34 c0 1c 3b 98 bf 13 04 05 3f c3 70 33 c1
       -2.81308 -1.1893039 0.5195934 -11.21503
000040 bc c1 d8 40 54 be 7a 40 0f c4 90 3e 11 57 2d bf
       6.773649 3.9178667 0.2827458 -0.6771098
000050 ac 6f 99 be 47 14 7a 3e fb 08 29 3f 7b d8 d3 3e
       -0.2996801 0.24421798 0.6602933 0.413761
000060 29 53 83 3f d4 ed 7d bf 37 8c 83 40 f5 a3 c3 c0
       1.0259753 -0.9919102 4.110866 -6.1137643
000070 dd 67 86 c0 fd df e7 3e 96 6f 10 c0 ab c6 88 c0
       -4.2001786 0.45288077 -2.2568107 -4.2742515
000080 61 57 23 40 6d 5c b9 3f 29 c4 76 40 3b 40 73 3f
       2.5522082 1.4481331 3.8557227 0.9501988
000090 15 3a 8e 3f 21 66 53 40 9d de f9 be fd fe 3e be
       1.1111475 3.3031085 -0.48802653 -0.18651958
0000a0 fe f1 d8 bf 9a 29 13 40 05 1b 09 3f 89 49 e3 be
       -1.694885 2.2994142 0.53556854 -0.4439204
0000b0 71 8b 89 be ec 45 39 bd a2 26 67 3f 94 7b c5 be
       -0.26864198 -0.0452327 0.90293324 -0.38570845
0000c0 2e 81 4e 40 a5 c4 3d 40 a9 7d 51 40 1b 8f 0d 41
       3.2266345 2.9651272 3.2732947 8.847438
0000d0 f8 5e b8 3f 0f 0a 15 3f ab 71 14 3e 43 75 88 be
       1.4403982 0.58218473 0.14496486 -0.26651964
0000e0 e7 a7 a7 be a5 0e 0d 3f 03 ab 6b 3f 0d 43 85 3d
       -0.32745287 0.5510047 0.9205782 0.065069295
0000f0 94 f0 55 41 cf d6 03 be e8 c5 53 c1 5d d6 86 c0
       13.371235 -0.12874912 -13.235817 -4.2136674
000100 c6 4d 0f 41 09 2c 86 bf 8e 20 b2 bf 1c b0 de 3f
       8.956488 -1.0482188 -1.3916185 1.7397494
000110 89 02 e5 3f a0 df 98 3d 85 91 58 40 fe f0 08 40
       1.7891399 0.07464528 3.3838818 2.139709
000120 42 cb 81 3f bf 2d 06 ba 0f f6 78 bf d1 74 b8 3e
       1.0140154 -0.0005118511 -0.97250456 0.36026624
000130 b5 70 d5 3e 38 73 2a be 8a e9 03 3e ef 17 12 bf
       0.4168755 -0.16645515 0.12882057 -0.5706777
000140 64 1a 2f 3d 96 76 6c 3e af fc 50 3f 78 f3 93 be
       0.042749777 0.23092112 0.81635565 -0.2889669
000150 38 47 cf c0 82 2f 06 c1 a3 64 e1 40 e5 e9 4a 40
       -6.4774437 -8.386599 7.0435348 3.1705258
000160 d2 32 50 41 de ac 23 c1 d3 0e 9f 3b 80 2b 0e 3f
       13.012407 -10.229704 0.004854062 0.55535126
000170 d1 9b eb 3e 84 5f 7f be ad aa 99 be 9c e0 ad 3d
       0.46017316 -0.2493878 -0.30013028 0.084901065
000180 12 d2 95 c0 cb ba 44 c0 04 1e 3d 40 81 4b c4 3f
       -4.6818933 -3.073901 2.954957 1.5335542
000190 58 b6 fd 3f 35 ee 43 c0 ed 01 54 be b4 f6 5f 40
       1.9821272 -3.061414 -0.2070386 3.4994326
0001a0 c7 28 29 3f 8b 3c 41 3f 04 8f c9 3e 30 2b 9e 3d
       0.66077846 0.75483006 0.39366925 0.07723081
0001b0 1d 09 a6 41 64 21 4f 41 22 32 6e c1 ab a9 da c0
       20.75445 12.945652 -14.887239 -6.8332114
0001c0 3f ef 7f c1 0a ef 71 41 e0 97 f8 c0 3f 31 40 c1
       -15.99591 15.120859 -7.7685394 -12.012023
0001d0 18 ba 93 40 15 5c 15 41 31 1d 1c 41 aa 05 24 c1
       4.6164665 9.334981 9.757127 -10.251383
0001e0 6b 3a 87 41 9f 31 a7 40 98 9b d3 c1 9b 6a ea c0
       16.903524 5.2248073 -26.450974 -7.3255134
0001f0 9f 27 19 c1 25 b4 d5 40 fd af 09 c1 b2 2a 06 c1
       -9.572173 6.6782403 -8.605466 -8.385424
000200 73 5c ba 40 f3 27 18 41 a3 bc fb 40 9f c4 10 c1
       5.8237853 9.509753 7.866777 -9.048003
000210 4e 29 a0 41 9e 8a c5 40 3b df b8 c1 07 b1 0a c1
       20.020168 6.173171 -23.109 -8.66822
000220 dd 92 a0 c1 c6 36 02 41 2a 0b 26 41 ff 85 d3 40
       -20.07171 8.138372 10.377726 6.610107
000230 14 93 80 c0 7d db 88 c0 f8 37 d4 c0 70 81 6c 41
       -4.017954 -4.276793 -6.631832 14.781601

weight_hh_l2 f4 [24, 6]
000000 8a f0 24 3f c6 76 64 3e 37 70 6e bf 54 df f8 be
       0.64429533 0.22310933 -0.93139976 -0.48607886
000010 a6 cb 8d bf 13 44 3a 3e 3a 38 01 3f 5b 72 26 3e
       -1.1077774 0.18190031 0.5047642 0.1625456
000020 95 04 c4 be 33 3d 08 bf a5 03 4b 3d 19 6f fa 3b
       -0.38284746 -0.5321838 0.049564023 0.0076426384
000030 65 32 b3 3d a7 d3 de 40 96 18 fd 3f 93 9b 92 c0
       0.08749846 6.9633365 1.9773128 -4.581491
000040 0e b9 fd 3f 71 e4 52 3f 34 2d df 3d b8 91 e8 3e
       1.9822099 0.82379824 0.10897294 0.45423675
000050 e8 78 c3 bd 24 1c 21 bf 79 f7 43 bf cf b1 cc 3e
       -0.095445454 -0.62933564 -0.7654949 0.39979407
000060 f4 62 34 bf 89 11 2f 40 a2 39 81 3f 47 46 13 c0
       -0.7046349 2.7354453 1.0095713 -2.3011644
000070 47 15 ca 3f 53 c3 20 3f 2c 2e c5 bf 62 92 fa bf
       1.5787743 0.6279804 -1.5404716 -1.9575922
000080 a8 12 14 40 ad f8 23 40 0c 19 02 40 6e 40 55 3f
       2.3136387 2.562053 2.0327787 0.83301437
000090 51 96 dd 3e 36 82 00 bd 6e cf 5c bf ed 40 f4 3c
       0.43278745 -0.03137418 -0.8625401 0.029816115
0000a0 4e 71 04 bf 1f 9a f3 3e be e7 c1 3e 48 3b 7b 3e
       -0.5173539 0.47578523 0.37872118 0.24534333
0000b0 bc 67 76 be ed 4c c4 be 49 ec 2c be 2a 98 49 3f
       -0.24063009 -0.3833994 -0.1688701 0.7874781
0000c0 c5 61 98 3f ad 72 93 c0 5f 5c 06 bf 5a 73 28 40
       1.1904837 -4.6077485 -0.524847 2.6320405
0000d0 13 9c c6 3e ec e4 27 bf 33 b5 e5 3e 1f 6e 08 3f
       0.3879095 -0.6558368 0.44864807 0.5329303
0000e0 00 77 2c bf 6c 90 4d bf 22 7b 49 bf b0 f2 1a 3f
       -0.6736908 -0.80298495 -0.7870351 0.6052656
0000f0 4b 96 96 40 b6 2a 16 c1 12 35 23 c1 ca 79 14 41
       4.7058463 -9.385427 -10.200457 9.279734
000100 3a 2c 87 c0 58 31 68 3f 9c 07 d8 bf aa c7 12 c0
       -4.2241488 0.9070029 -1.6877322 -2.2934365
000110 05 53 c7 3f e7 98 12 40 86 7a da 3f f6 30 e0 3f
       1.557221 2.2905824 1.7068641 1.7514942
000120 4f e2 45 3f 25 23 96 3e 66 d4 6a bf e2 08 10 bf
       0.77298445 0.29323688 -0.91730344 -0.56263554
000130 f9 b0 a6 bf 41 5e c5 3d 92 1e 09 3f 19 b6 03 3f
       -1.3022758 0.09637118 0.5356227 0.51449734
000140 0f d7 ab be af f9 04 bf 81 57 97 bd 8f 58 8c 3e
       -0.33562514 -0.51943487 -0.07389737 0.27411315
000150 ad 42 88 be 23 5f 79 bf ec 9e ae 3e 8d 48 a2 3f
       -0.2661337 -0.9741079 0.34105623 1.2678391
000160 5c 82 ac 3d cb 3a 14 bf 6c 67 c0 be 0b 86 ad be
       0.084233016 -0.5790221 -0.37578905 -0.3389133
000170 d0 57 1e 3f 9d c2 3e 3f d9 7c 21 3f a1 93 6a 3d
       0.6185274 0.74515706 0.6308113 0.057269696
000180 f0 20 ba 3e d4 b4 5a bf 33 1f 19 40 aa 57 94 3f
       0.36353254 -0.8543217 2.3925292 1.1589253
000190 01 bd c9 bf 6b e0 05 bf ef 05 e6 3e 71 97 bf bf
       -1.5760804 -0.5229556 0.44926402 -1.4968091
0001a0 15 f4 05 bf 66 2e 72 3f 95 c9 2f bf 39 7b 07 3f
       -0.52325565 0.9460205 -0.68666965 0.529224
0001b0 9c ec 84 bf fe ce b2 be 21 89 a1 bd ef 13 d1 be
       -1.0384707 -0.34923548 -0.078874834 -0.4083552
0001c0 88 d5 b5 3f e6 6b 86 3e 48 59 87 bf ae 88 46 bf
       1.420579 0.26254195 -1.0574121 -0.77552307
0001d0 da 76 3e 40 18 88 24 40 95 62 21 40 ca bd 4e bf
       2.9760041 2.5708065 2.521642 -0.80758345
0001e0 8a 09 d6 be 0b 18 43 be fa 4f 2f 40 85 78 cf 3d
       -0.41804153 -0.1905214 2.7392564 0.10130409
0001f0 a1 1e f6 3f 36 33 72 bf 35 b1 01 c0 f9 04 55 bf
       1.9228097 -0.9460939 -2.0264409 -0.8321071
000200 7e f3 9c 3f 4d b2 f1 3f a2 63 08 40 a5 06 91 bf
       1.2261808 1.8882538 2.131081 -1.1330153
000210 cf 05 a3 3f 8e 87 b5 be b4 af 73 c0 2d 8c 31 bd
       1.2736148 -0.35454983 -3.807599 -0.043346573
000220 6e e7 f8 bf 60 37 2e 3e 7a f1 6c bf 50 90 11 bf
       -1.9445627 0.17013311 -0.92555964 -0.5686083
000230 de c6 c9 bf f0 cd 04 3e f3 23 20 bf e4 ab 40 3d
       -1.5763814 0.12969184 -0.62554854 0.047038928

bias_ih_l2 f4 [24]
000000 be 0a 87 3f f4 31 b6 3e 97 a9 13 c0 8a 62 3c 3f
       1.0550153 0.35584986 -2.307226 0.7358786
000010 06 fb 92 3e aa d2 0e c0 49 67 ad 3e c6 ea de 3e
       0.2870714 -2.231608 0.33867863 0.43538493
000020 6f 96 dd 3e bf 50 67 3e c0 12 eb c0 1a 63 d8 bf
       0.43278834 0.22589396 -7.346039 -1.6905243
000030 82 d7 91 3f b2 dc 95 3e 06 b9 bf be f5 2e 42 bf
       1.1393893 0.2926994 -0.3744585 -0.758529
000040 6f 66 e3 be 17 07 12 bf ee 00 9a bf 7b 4a 20 c0
       -0.44414088 -0.5704207 -1.2031534 -2.504546
000050 e7 7e bd bf bc 66 30 c0 ac 82 91 bf 1c 1f 3d bf
       -1.4804353 -2.7562704 -1.1368003 -0.73875594

bias_hh_l2 f4 [24]
000000 91 42 0e 3f b5 d4 cc 3e 34 d3 29 c0 57 e3 cb 3e
       0.5557032 0.40006033 -2.6535158 0.39821884
000010 17 e8 1b 3f bf 88 25 c0 97 89 05 3f d0 3b 40 3e
       0.60901016 -2.5864713 0.5216307 0.18772817
000020 03 c7 52 3f 26 cf 04 3f 27 b3 f4 c0 b3 d5 d0 bf
       0.8233492 0.51878583 -7.646869 -1.6315216
000030 11 bb a9 3f 39 08 e5 3e bf d8 83 be 11 9d 3b be
       1.3260213 0.44732836 -0.25751302 -0.18321635
000040 31 13 7c be 40 88 d8 be d7 26 b0 bf 42 a0 2f c0
       -0.24616696 -0.4229145 -1.3761853 -2.7441564
000050 f7 5f b8 bf cb 43 22 c0 9d 54 69 bf 4d d6 c4 be
       -1.4404286 -2.5353878 -0.91144735 -0.3844475

weight_ih_l3 f4 [24, 6]
000000 ce 44 3a 3f ec ad f1 3e 8c f1 5a bf e2 57 af be
       0.7276124 0.47203004 -0.8552482 -0.34246737
000010 8b e4 d1 be 42 ec d8 3e f9 c7 21 3f d7 04 a5 3e
       -0.40994677 0.4236775 0.6319576 0.32230255
000020 bc 3a a0 be c6 f2 42 bf 6b 5a 07 bf 59 17 fe 3e
       -0.3129481 -0.7615169 -0.5287234 0.49627188
000030 c8 3c 44 3f 11 27 99 3e 07 ac 82 bf 39 db 61 be
       0.76655245 0.29912618 -1.0208749 -0.22056283
000040 40 84 85 bf 88 b3 d3 3e 15 2c 2f 3f f2 f7 3a 3f
       -1.0430984 0.4134791 0.6842664 0.73034585
000050 14 c5 ee bd e3 be 47 be 4f 4d 8b be 20 5e a1 3e
       -0.116586834 -0.19506411 -0.2720742 0.31517124
000060 27 2e 8a 3f 5c 8a dc 3e 68 1e 0a be a1 05 9c be
       1.0795335 0.4307431 -0.13488162 -0.30473045
000070 89 e0 59 bf eb c7 f9 3e 28 1c 22 3e 72 1e 94 3e
       -0.8510824 0.48785338 0.15831053 0.28929478
000080 76 96 fa bb 98 7a 9c be e6 22 47 be 5b 28 27 3f
       -0.007647331 -0.30562282 -0.19446906 0.6529595
000090 47 da a0 3f 2d 86 47 3f 12 19 7b bf a6 e0 b4 be
       1.2566613 0.7793911 -0.9808513 -0.35327643
0000a0 9c 1f c9 bf a4 52 e9 3e 54 11 ab 3f f7 e4 44 3f
       -1.5712771 0.45570862 1.3364663 0.7691187
0000b0 be b1 39 bf 8f 2e 04 bf 65 e9 8b bf 05 05 24 3d
       -0.7253684 -0.5163354 -1.0930601 0.04004385
0000c0 ce ea 29 3e 55 5d eb 3e b1 ba 0d bf ab 6f b3 be
       0.16593477 0.45969644 -0.55362993 -0.35046133
0000d0 ea 94 72 3c b4 75 85 3e 69 76 fa 3d 07 59 56 3f
       0.014806012 0.26066363 0.12229616 0.83729595
0000e0 f2 7a 9f be 84 eb 54 bf e8 34 b0 be a6 a5 90 3e
       -0.31148487 -0.8317187 -0.34415364 0.2825138
0000f0 2a c0 b0 3f 18 81 2a 3f 91 bf c3 bf 2b cb 15 bf
       1.3808644 0.6660323 -1.5292836 -0.58513135
000100 b2 b1 a6 bf 01 22 55 3d b9 59 df 3e 8b 1e 0c 3f
       -1.3022978 0.05203438 0.4362314 0.54734105
000110 e6 55 40 bf 95 bc 2d bf 19 8a 08 bf 40 ae 32 3f
       -0.7513107 -0.6786588 -0.5333572 0.69797134
000120 90 f7 94 bf 69 6e 3c be 24 fd 0c 3f 89 49 3c 3f
       -1.163805 -0.18401493 0.5507376 0.73549706
000130 35 7c b4 3f b5 64 e5 be ad b3 04 bf 16 87 10 bf
       1.4100405 -0.44803396 -0.51836663 -0.56456125
000140 cf a5 72 3f 3a d9 50 3f 00 85 5c 3f e2 f5 22 be
       0.94784254 0.8158146 0.8614044 -0.1591411
000150 1e 4b 9d 3f eb 1f 35 3f ef 33 bf bf a5 74 91 be
       1.2288549 0.7075183 -1.4937724 -0.28409305
000160 9f 3a 88 bf a3 41 23 3f 56 7f 2f bf da 28 e5 be
       -1.064289 0.6377203 -0.68553674 -0.4475773
000170 a8 82 7d 3e 26 b7 ba 3e ea 05 48 3e 15 69 71 bd
       0.24756873 0.36467856 0.19533506 -0.058938105
000180 9f 3c 98 3f 00 bf 54 3f 27 85 13 bf 18 38 16 bd
       1.18935 0.8310394 -0.5762505 -0.03667459
000190 43 b9 46 bf 5b 17 34 3f bc 02 7c be ba 6a 6a be
       -0.77626437 0.7034814 -0.24610418 -0.22892275
0001a0 47 d8 c0 3e 7d 87 2b 3e 43 48 cc 3e 5e 97 d9 be
       0.37665007 0.16750903 0.3989888 -0.42498296
0001b0 90 21 cb bd 59 2e 94 c0 06 b2 89 40 31 9a 29 40
       -0.09918511 -4.6306577 4.3029814 2.650036
0001c0 46 8c 83 3e 81 ad 25 bc 56 5e b7 bd ac 22 8e c0
       0.25692958 -0.010112167 -0.0895354 -4.4417324
0001d0 3c 9f 43 3f ba 0b 1e 40 e6 c1 c8 3d 12 c9 51 3c
       0.7641485 2.4694657 0.09802608 0.012804287
0001e0 91 b8 ea bc 56 fc 87 40 3c 82 66 bd de 0f 78 c0
       -0.028652461 4.2495527 -0.056276545 -3.8759685
0001f0 82 a3 b5 3c 30 dd 4d bd 87 f9 40 c0 e0 5c 90 40
       0.022172693 -0.05025977 -3.01523 4.5113373
000200 d5 c6 7c 40 a3 29 86 c0 0b 50 66 40 43 ce 0b c0
       3.9496357 -4.1925826 3.5986354 -2.1844642
000210 e5 bc 98 40 ee ee 85 c0 bf 50 b1 c0 4b 60 60 40
       4.7730584 -4.185416 -5.5411067 3.5058773
000220 88 36 ae c0 f6 d4 18 40 72 01 57 c0 1f a8 c4 3f
       -5.4441566 2.387998 -3.3594632 1.5363806
000230 9f b2 96 40 e2 e2 c4 bf d4 0d 6e 40 bd 6b 05 c0
       4.7093043 -1.5381739 3.719594 -2.0847008

weight_hh_l3 f4 [24, 6]
000000 7c 89 22 bf b3 ff 82 bf 9b 8a 9c 3f 20 6f a5 be
       -0.63491035 -1.0234283 1.2229799 -0.32311344
000010 46 04 9d 3f 8f 92 ed be e6 c1 6a be 66 b1 05 bf
       1.2266929 -0.46400878 -0.22925529 -0.52223814
000020 22 26 9d 3f e0 f6 80 bf fa 57 59 3f 84 b8 c8 bd
       1.2277262 -1.007534 0.84899867 -0.098008186
000030 a8 fe 44 bf f0 99 d1 be 19 98 6c 3e e3 71 eb bc
       -0.76951075 -0.40937757 0.23104896 -0.028740829
000040 94 92 a1 bc d6 21 ac 3c ad 92 ed be 64 8b f3 3c
       -0.019723214 0.021012228 -0.46400967 0.029729553
000050 b3 44 50 3f 48 c7 23 be f9 60 59 3e 48 43 26 be
       0.81354827 -0.15993989 0.21228398 -0.16236603
000060 32 bf 00 bf c3 52 61 bf 22 ab b3 3f 3c 56 91 bf
       -0.5029174 -0.8801691 1.40366 -1.1354442
000070 7e 89 55 3f 8c b2 16 bf b3 47 0a bf cc 74 1d bf
       0.8341292 -0.5886619 -0.54015654 -0.6150634
000080 9a 7d d9 3c fa d1 24 bf bd 51 5f bc 8f 78 df be
       0.02654915 -0.643829 -0.013630328 -0.43646666
000090 58 9f 71 bf 84 fa 43 bf 69 9a d5 3f 00 79 c6 be
       -0.94383764 -0.7655413 1.6687747 -0.3876419
0000a0 23 cc 91 3f 16 d8 54 be 9c 38 51 bf 49 2e 66 bf
       1.1390423 -0.20785555 -0.81727004 -0.89914376
0000b0 6b 44 aa 3f e9 f6 05 bf 44 1f 25 3f 87 26 26 be
       1.330213 -0.5232988 0.6450083 -0.16225635
0000c0 47 f7 41 bf 1d 16 0e bf 9d 3c ed 3e dc d1 ba be
       -0.7576794 -0.5550249 0.46335307 -0.36488235
0000d0 4d c5 d2 3e 1a 60 97 be 2c 1c 68 be 77 fd f8 be
       0.41166154 -0.29565507 -0.22666997 -0.48630878
0000e0 54 d1 42 3f 98 56 5d be 58 f2 14 3f ed 22 34 be
       0.7610066 -0.21615064 0.5818229 -0.17591448
0000f0 d2 bb 35 be 09 d8 48 bf f7 4b b8 3f 73 6a 1c bf
       -0.17747429 -0.78454643 1.4398183 -0.6109993
000100 8e 5d 27 3f e1 8b ad be bc 71 22 bf 3e e7 95 be
       0.6537713 -0.33895782 -0.63454795 -0.29277986
000110 c7 e1 c1 3e 2f a7 a8 be 8b d3 82 3e 75 d2 08 bf
       0.37867567 -0.3294005 0.2555202 -0.5344613
000120 4a f8 42 3f c3 f3 0c 3f d9 41 4d bf 9b 3d d5 3e
       0.7616011 0.5505945 -0.801786 0.41648564
000130 a1 c5 81 bf 7e 6d 48 3f 4b 04 fd 3e 37 c2 e6 3e
       -1.0138437 0.7829207 0.49417338 0.4507005
000140 eb 0d 8a bf a6 3b 31 3f 19 bc 5e bf 3f 8a 0c 3e
       -1.0785497 0.6923164 -0.87005764 0.13724612
000150 72 c0 11 bf 96 ae 4c bf b4 4d a1 3e c0 46 fe be
       -0.56934273 -0.79953897 0.31504595 -0.49663353
000160 0a 95 65 3d 37 d8 26 bf 21 9e 0e 3f e0 4e 3e 3f
       0.056050338 -0.6517367 0.55710036 0.74339104
000170 13 45 bc be ba 1a 1e 3e ad ee c9 be 48 90 e7 3b
       -0.3677145 0.15439883 -0.39439908 0.00706676
000180 03 8c 5b be 29 7a 83 bf 5a 1d c7 3f a5 f9 51 be
       -0.21440129 -1.0271655 1.5555832 -0.20505388
000190 47 4f 82 3f 27 f2 81 be 18 37 d4 3e 5c f2 88 3c
       1.0180444 -0.2538006 0.41448283 0.016717128
0001a0 8c 9b e0 be a0 64 11 3f 49 fc 50 be bc 11 00 3f
       -0.43868673 0.56794167 -0.20408739 0.5002706
0001b0 60 9c 55 bf 03 1a 9c c0 5b 37 e8 c0 76 33 39 40
       -0.83441734 -4.8781753 -7.2567573 2.893766
0001c0 b6 a3 bc 3e 92 23 60 3f a8 21 6e 3f 18 6d a3 c0
       0.36843652 0.87554276 0.93020105 -5.107067
0001d0 e1 85 06 c1 67 1a 30 40 7f 21 0b 3f 14 a0 b7 3e
       -8.407685 2.7516115 0.54347986 0.35864317
0001e0 f9 90 38 40 97 42 77 40 8b 9c 9b 3e b7 a2 53 bf
       2.8838484 3.8634393 0.3039287 -0.8267016
0001f0 71 d7 a7 c0 fa 2e 89 3c fe dc 0c 40 1e 62 39 40
       -5.245049 0.016746033 2.2009883 2.8966136
000200 ff e5 97 3d 4b 7a c6 3d da 23 9f c0 70 17 0b 3e
       0.07416915 0.09691294 -4.9731264 0.1358316
000210 d9 f2 9c bf 64 c7 7f bf 5b c2 a0 bf 57 68 dc bb
       -1.2261611 -0.9991362 -1.2559313 -0.0067263055
000220 3b eb 9d 40 68 1c 6f be 1e 05 e4 3f 9a c4 bc 3f
       4.9349647 -0.2335068 1.7814062 1.4747498
000230 b9 e1 4e 3c 9d f9 bb 3d 61 f3 84 c0 52 37 68 3e
       0.012627059 0.09178469 -4.1547093 0.22677353

bias_ih_l3 f4 [24]
000000 e1 c9 77 3f cf 34 61 3f fc 9b 9a 3f dc 54 17 3f
       0.9679242 0.87971205 1.2078853 0.5911386
000010 16 fd ea 3e f7 38 94 3e a0 16 85 3f ce df 3e 3f
       0.45896214 0.2894971 1.039753 0.7456025
000020 ef 26 2d 3f b6 d6 f6 3c 8d a1 97 3f 64 13 7f 3d
       0.6763753 0.030131679 1.1846176 0.06227435
000030 bc 33 6c bf ec 49 75 bf 82 ce 3f 3f 51 77 01 bf
       -0.9226644 -0.9581592 0.7492448 -0.5057269
000040 60 a2 8e 3f b6 83 06 bf 2c 18 81 bf f9 9d 25 bf
       1.1143303 -0.52544725 -1.0085502 -0.6469417
000050 9b 3a 60 bf fe 8d 1b bf c7 93 b8 bf 3b ee 46 be
       -0.87589425 -0.6076354 -1.4420098 -0.19426815

bias_hh_l3 f4 [24]
000000 40 f2 29 3f 43 74 98 3f b5 8f 40 3f 76 70 22 3f
       0.6638527 1.191048 0.7521928 0.6345285
000010 85 b6 b8 3e ed 23 a5 3d 8a a9 60 3f f6 ec 60 3f
       0.3607675 0.08063493 0.87758696 0.87861574
000020 7f f1 29 3f b2 93 a8 3e 1c ad 72 3f 0d db 11 3f
       0.6638412 0.32925183 0.94795394 0.5697487
000030 78 06 85 bf ac 4a 85 bf 2a a1 70 3f 69 94 18 bf
       -1.0392599 -1.0413413 0.93995917 -0.59601456
000040 18 76 be 3f 20 bb 18 bf e2 40 70 bf aa 32 6c bf
       1.4879789 -0.5966053 -0.93849003 -0.9226481
000050 28 5a 17 bf 88 76 be be 54 36 81 bf f1 ba 1c bf
       -0.5912194 -0.37199807 -1.0094705 -0.6122275

weight f4 [584, 6]
000000 f0 3f 18 bd af 85 98 be 08 c3 8e 3f 7c d6 52 be
       -0.03717035 -0.29789492 1.1153269 -0.20589632
000010 46 f3 f8 3e c7 96 90 bd 66 f0 63 3f 79 d7 7e 3f
       0.48623103 -0.070600085 0.89038694 0.99547535
000020 43 84 41 bf 33 a4 fa 3f a0 bc d1 3e 4c 0d c7 3e
       -0.7559244 1.958136 0.40964222 0.38877332
000030 32 c0 f7 3f f1 2f fa 3f 5f ce 38 c0 d7 d6 3d 40
       1.9355528 1.954588 -2.887596 2.9662378
000040 c5 10 a5 bf 62 bf af 3f c1 e4 ed 3e 35 47 b9 3d
       -1.2895743 1.373028 0.46463588 0.09046785
000050 9e bb 0b 40 f4 d3 1d bf 26 db f9 3e f1 9e 00 bf
       2.1833262 -0.6165154 0.4880001 -0.50242525
000060 a0 b3 ca bf f7 b0 bd bf 81 bc a2 3e ba e0 7b 3e
       -1.5836067 -1.481963 0.31784442 0.24597445
000070 03 6f 00 3f 84 73 03 bd 6a 7e 4f 3f 0e af 0b be
       0.5016939 -0.032092586 0.8105227 -0.13640997
000080 bc 0f 82 3f d6 49 cf be a5 95 c4 3e 1f 00 7b be
       1.0161052 -0.4048602 0.3839542 -0.24511765
000090 ad ad a1 3f 00 73 a1 3f ee 2b 17 40 5b 7d c6 3f
       1.2631127 1.261322 2.3620563 1.5507005
0000a0 5c 46 3a be 65 f0 e9 3e ad 6a 25 3d 6e c5 e7 be
       -0.18190902 0.4569122 0.040384937 -0.45267814
0000b0 66 be 16 40 7b 6e 08 3f 72 23 8c 3e 14 25 cf be
       2.355371 0.5329358 0.27370793 -0.40457976
0000c0 1b c0 ca 3f 6e 15 02 40 05 0e 96 bf 54 1c 20 40
       1.5839876 2.032558 -1.1723028 2.501729
0000d0 94 00 8c bf 51 53 d3 3f 5f 65 a4 3f 25 c5 6f 3f
       -1.0937676 1.6509801 1.2843436 0.93660194
0000e0 9b 61 1d c0 36 b9 1a 40 a7 43 a3 bf 68 5a 9c 3f
       -2.4590824 2.4175544 -1.2755021 1.221509
0000f0 c4 55 45 3f 9a da c2 3f f6 22 53 40 c3 50 6f be
       0.7708399 1.5222962 3.2990088 -0.23370652
000100 bc 28 0b 3f 41 70 be be 69 94 5e be 35 d0 e1 be
       0.5435903 -0.37195018 -0.21736301 -0.44104162
000110 65 a8 b6 bf 07 e7 0b 3f d4 96 90 3e 28 db 9c 3d
       -1.427014 0.54649395 0.28240073 0.07658988
000120 b3 02 c1 3f db c2 e6 3f ce 66 65 3f 13 44 fc be
       1.5078949 1.8028215 0.8960999 -0.49270687
000130 e5 f9 f2 3e cf 71 b2 be 00 b7 cb 3f 29 58 22 40
       0.4745628 -0.34852454 1.5915222 2.5366309
000140 1f f2 5c 40 2b 23 8c bf 6d 48 0a 3f 30 67 32 bf
       3.452278 -1.0948232 0.5401676 -0.696887
000150 f6 1e b5 3e 89 88 18 3f 6b f4 81 3e d5 d0 23 3f
       0.35375184 0.59583336 0.2538179 0.6399053
000160 b0 17 ed 3e a4 23 24 be 88 1c f4 3f 7b fc 07 40
       0.46307135 -0.16029221 1.9071207 2.1247852
000170 95 55 c5 bf d4 b9 2a 40 23 eb cb bf 02 e9 d1 3f
       -1.5416743 2.667592 -1.5931133 1.6399233
000180 b6 d1 02 c0 67 9e e0 bf 35 dd c6 be b5 f3 92 3e
       -2.0440497 -1.754834 -0.38840643 0.2870156
000190 67 f2 19 3f c7 3d 82 bc 7d c9 aa 3f 74 84 98 3f
       0.601355 -0.015898598 1.3342739 1.1915421
0001a0 53 3d f0 bf 4c ca f8 3f a2 44 f1 be cd 9d 40 3f
       -1.8768715 1.9436736 -0.47122675 0.75240785
0001b0 ad af 5f 3f d5 1f 64 3f 45 31 cd bf 02 a3 f6 3f
       0.87377435 0.8911107 -1.6030661 1.9268496
0001c0 f8 9b 9c 3e 85 94 09 3f c1 06 47 be 7c bd 1a bf
       0.30587745 0.5374225 -0.1943617 -0.6044538
0001d0 a6 69 57 bf 48 d3 45 3f e8 58 fe 3e fc aa 76 3e
       -0.8414558 0.77275515 0.49677205 0.24088663
0001e0 5c 1c bb 3f 9c 7e f1 3f 87 97 2f 40 cc e0 86 bf
       1.461803 1.8866763 2.7436235 -1.0537353
0001f0 48 96 8a 3e 3f 4d 1b bf 68 a7 25 c0 9c b8 ce bf
       0.2706778 -0.60664743 -2.5883427 -1.6150088
000200 e1 38 79 3f 1a 95 8c be 4c e1 df 3e 90 6f ce be
       0.97352415 -0.27457505 0.43726575 -0.4031949
000210 59 dc c6 be 2e e2 61 be 48 45 31 40 c9 2d 4b bf
       -0.38839987 -0.22058937 2.7698536 -0.7936674
000220 b3 b0 d4 3e 14 12 1f bf 7a 03 03 3f 17 b0 ff 3e
       0.4154106 -0.6213696 0.5117718 0.49939033
000230 3a f4 35 40 6d 86 4a bf e2 58 f5 3e 19 aa 42 bf
       2.8430314 -0.7911137 0.47919375 -0.760408
000240 81 eb 61 3f ce 93 b2 3f 47 26 42 40 a5 d5 3b bf
       0.88249975 1.3951356 3.0335863 -0.7337287
000250 58 c1 bd 3e 75 11 37 bf 54 32 42 be 74 72 d4 3d
       0.37061572 -0.7151101 -0.18964511 0.10373393
000260 61 e8 b2 3f 1d 8e 19 be 29 6a 4f 3e 12 03 c6 be
       1.3977166 -0.14995618 0.2025534 -0.38674217
000270 bf 49 41 3e 44 d2 43 bf b5 61 25 bf 2b 48 ae 3d
       0.18875788 -0.76492715 -0.64602214 0.08509859
000280 c3 94 04 3f f6 7a 7e be e5 f4 00 c0 8b c1 e6 bf
       0.5178949 -0.24851593 -2.0149472 -1.8027815
000290 64 c4 13 3f 7a 7d b0 3e 39 58 f1 3e 22 0b 5f 3d
       0.57721543 0.3447073 0.4713762 0.054453976
0002a0 1f 23 43 3f f9 ab 94 3f ab 8e 13 40 31 69 99 be
       0.76225466 1.1614982 2.3055828 -0.29963067
0002b0 cf 29 a4 3e 7e 38 ee be 84 13 95 3f bf 13 c8 3f
       0.32063147 -0.46527475 1.1646581 1.5631026
0002c0 ab a8 5b c0 cc df 42 40 f3 a0 bf bf 70 32 e0 3f
       -3.4321697 3.0449095 -1.4970993 1.7515392
0002d0 28 bf 4a 3f c8 be d3 3d e4 78 20 c0 7a 59 77 3e
       0.7919793 0.10339123 -2.5073786 0.24155226
0002e0 76 10 fe 3e 50 9b 65 bd c8 75 bc 3f 16 9c d3 3f
       0.49621934 -0.05605632 1.4723444 1.6532009
0002f0 0c 61 aa bf 27 c5 33 40 eb f9 eb be f6 1d 90 3f
       -1.3310866 2.8089082 -0.4608911 1.1259143
000300 ca 6b 74 3f b1 1c b7 3f 58 bc fa 3f 11 d4 ed 3f
       0.95476973 1.4305631 1.9588728 1.8580343
000310 b3 94 db be 0a d1 39 3f 6a ce be 3f 95 e6 e1 3f
       -0.42886886 0.72584593 1.4906743 1.7648493
000320 21 fc 9d 3f 44 a6 13 40 0c 29 df be 47 95 6a 3f
       1.2342569 2.307023 -0.43586004 0.9163403
000330 37 60 c8 3f fb ee cb 3f ab 0c e2 bf 22 d2 2c 40
       1.5654362 1.5932306 -1.7660116 2.7003255
000340 0e 0d 6e bf 6f 7b 97 3f c0 2e 7b 40 a7 fe 9a 40
       -0.9298867 1.1834544 3.9247284 4.8435855
000350 6b 0b f5 bf b8 4a fe 3e f0 f1 07 3f ad f9 aa 3d
       -1.914411 0.4966638 0.5310354 0.08348403
000360 93 ee 3e 3f 67 8e a9 3e b5 09 0d c0 a8 99 2b 40
       0.74582785 0.33116457 -2.2037175 2.6812534
000370 fb fc 0a be d8 aa 1d 3f d6 41 9e 3f 57 e6 8c 3f
       -0.13573067 0.6158881 1.2363842 1.1007794
000380 72 68 36 c0 be 73 b3 3e 9f af ea 3e 3b 51 79 3d
       -2.8501248 0.35049242 0.45837113 0.060868483
000390 9c 54 c8 3e 4c 15 c3 be d4 d1 da bf 5c cb f5 3f
       0.39127052 -0.38102186 -1.7095284 1.9202685
0003a0 38 54 01 3e b0 14 ed 3e 4e 77 c1 3f 3c c6 d9 3f
       0.12629783 0.46304846 1.5114534 1.7013621
0003b0 45 39 4d 3f 9d 36 08 40 2e 90 db be 7e d5 54 3f
       0.8016551 2.1283333 -0.42883438 0.83138263
0003c0 45 a5 90 3f f3 17 b6 3f 52 93 af bf fc ed 56 3f
       1.1300436 1.4226059 -1.3716834 0.83956885
0003d0 4c 35 21 3e f9 ed a4 bd f4 ba da be 88 58 a6 be
       0.15742987 -0.08053202 -0.4272076 -0.3248942
0003e0 1a 82 00 c0 88 59 df 3d 13 5e 09 3f 5f de 95 bd
       -2.0079408 0.109057486 0.5365917 -0.073178045
0003f0 41 0e 43 3f 3f 6e 59 3f bb ac 0a c0 6d 2f 0f 40
       0.76193625 0.8493385 -2.1667926 2.2372696
