Data/neural-model-base-char.pth (torch, 29155 bytes, 18 tensors)

weight_ih_l0 f4 [24, 132]
000000 14 ee 89 be 27 cb 87 3e 36 76 b6 40 b0 48 07 bf
       -0.26939452 0.2652218 5.70193 -0.5284529
000010 7c bf f1 bc 76 8d 27 c0 a1 f2 85 c0 12 26 3a 3f
       -0.029510252 -2.618009 -4.185868 0.7271434
000020 98 63 13 bf 7d 44 7d 40 67 41 22 c0 f5 0a 0b 40
       -0.57573843 3.9573052 -2.5352418 2.1725438
000030 51 b9 8c bf 8b ed 2f 3e ca 79 83 3e 7b 0e a0 be
       -1.0994054 0.17180459 0.25678855 -0.31261048
000040 4a 0f 83 3e 8d fa 6a be 80 f5 85 c0 65 66 c0 be
       0.25597602 -0.2294714 -4.1862183 -0.3757812
000050 8a c1 b3 40 c1 ee cd 40 50 61 36 bf de 31 b7 be
       5.6173754 6.435395 -0.7124224 -0.35780233
000060 84 a2 1d be 53 be a8 3e 26 cf 0b c0 ae f0 f7 be
       -0.15394026 0.32957706 -2.1845183 -0.48425812
000070 15 83 76 3f 8b ae ea bf 8c fd 0b be 20 79 0f c0
       0.96293765 -1.8334516 -0.13670939 -2.241768
000080 03 3b b9 40 45 55 d8 3e fa 42 a0 40 12 93 b2 3e
       5.7884536 0.42252555 5.008176 0.3487783
000090 0a 46 d6 40 22 89 f5 bf 0b 89 c9 be ac bd 45 3f
       6.6960497 -1.9182475 -0.39362368 0.7724254
0000a0 35 29 18 3f a1 d6 cd bf 43 14 ec 3b 1b 17 89 40
       0.59437877 -1.6081125 0.007204564 4.2840705
0000b0 66 b8 5f 3f 9d f6 6a 3f 59 9e b7 bf 4d bf b3 40
       0.87390745 0.9178255 -1.4345199 5.617102
0000c0 d7 48 83 c0 35 a1 0c c0 22 bd 44 3d 4a ca 21 40
       -4.1026416 -2.1973393 0.048031934 2.5279717
0000d0 30 eb ed bf 3f 39 21 be 3f 3a 19 bf 7e 7d 38 40
       -1.8587399 -0.15744494 -0.598545 2.8826594
0000e0 c5 3d f8 bf 58 5c 1a c0 61 1b ae bf f1 92 bb bf
       -1.939385 -2.4118862 -1.3602105 -1.4654218
0000f0 4c 85 8a 3e d0 56 54 3f 19 bf d6 3d 2b ba d8 3b
       0.27054822 0.82944965 0.10485668 0.00661399
000100 60 dc a9 c0 64 01 9c bc a2 82 4d 3f cb 81 c7 40
       -5.3081512 -0.019043632 0.80277455 6.234594
000110 39 94 7b c0 cc 0a b8 bf de cb 1e 40 a1 48 92 be
       -3.9309218 -1.4378295 2.481193 -0.28571036
000120 fe ea 80 3e 83 e0 12 3e b3 aa 86 bf c6 b3 97 be
       0.25179285 0.14343457 -1.0520843 -0.29629344
000130 df 1c cb be 63 dc 21 3b 39 6d 8a 3e 1a 21 63 bf
       -0.39670464 0.002469801 0.27036455 -0.88722384
000140 f0 ec 00 c0 fd db 05 be a4 f4 8b 40 d3 b3 c0 3f
       -2.0144615 -0.130722 4.3736134 1.5054878
000150 5c 6e 13 c0 d3 f1 ca 3e 89 36 06 40 ed 0d a0 be
       -2.3036108 0.39637622 2.0970786 -0.31260625
000160 26 c2 04 40 a3 c9 bd 40 b9 7e 7f be a3 21 5b 3e
       2.0743499 5.930864 -0.24950685 0.2139955
000170 42 05 db 3d 7b 0d 4f bd 12 93 3c 3e bc c9 06 40
       0.10694362 -0.050549965 0.18415478 2.106063
000180 62 a0 39 3e 05 24 8a be dc 6b a7 3e 72 2b cb be
       0.18127587 -0.26980606 0.32699478 -0.39681584
000190 78 bd 08 be 8e 47 8d be 95 f7 d9 3c 7b b2 82 be
       -0.13353527 -0.27593654 0.026607314 -0.25526795
0001a0 1b fe ae bc 01 e6 e2 3d 98 f6 bd be 7b 67 df 3d
       -0.021361401 0.11079026 -0.371022 0.10908409
0001b0 95 84 83 be 62 8e d0 3d f9 e2 94 be 93 49 3b 3e
       -0.2568709 0.10183407 -0.29079416 0.18289785
0001c0 f9 27 43 3e 35 8f 92 3e 53 30 84 3f 9e ea 23 be
       0.19058217 0.28624883 1.0327247 -0.16007468
0001d0 d5 75 2d 3e 63 8d 67 be f6 07 69 3e 6e 3b 8c 3e
       0.1693948 -0.22612529 0.22756943 0.2738909
0001e0 75 37 bb 3e a4 84 73 be 89 76 16 3e c6 02 50 be
       0.36565748 -0.23781067 0.14693655 -0.20313558
0001f0 da a7 b9 3e bd 5e 60 3e 98 40 fa bd ca 35 88 be
       0.36260873 0.2191114 -0.122193515 -0.26603538
000200 b4 11 53 40 21 62 76 40 7a 5b bf 40 30 ae 8d 40
       3.2979555 3.8497393 5.9799166 4.427513
000210 a0 52 70 3e de 36 cd 3e 5f 89 96 bf 4d 08 c7 be
       0.23469019 0.40080923 -1.1760672 -0.3887352
000220 db 29 73 3e c0 73 a0 bf d3 23 e6 3e b0 ea 05 3f
       0.23746435 -1.2535324 0.44949207 0.5231123
000230 af 25 16 3f 38 4d 6e bf 95 ec de 3c a5 b6 a6 bf
       0.5865125 -0.93086576 0.02721242 -1.3024489
000240 1f eb 1f bf 8a e2 5b 3e 25 b9 7a be 59 d9 8b 3e
       -0.6246814 0.21473137 -0.2448469 0.2731426
000250 21 19 1d 3e 2c 04 bd bf 41 c3 2d 3f 72 5a 42 3e
       0.15341617 -1.4766898 0.6787606 0.18979815
000260 14 c1 d2 be 0c 37 0b bf 85 11 26 3e 0f 40 cc bd
       -0.41162932 -0.5438087 0.1621762 -0.09973156
000270 16 1a 7c bd f6 04 e9 bd 76 e3 83 3f 48 20 60 be
       -0.061548315 -0.11377899 1.030379 -0.21887314
000280 e8 e0 70 bf d0 d3 8a bb bc a3 a1 be cb 8b 44 3e
       -0.9409318 -0.004236676 -0.31570232 0.19193952
000290 5d a4 df 3e d4 05 a6 3e 65 91 70 bf 28 0e 6f be
       0.43680087 0.32426322 -0.93971854 -0.23345244
0002a0 9f f3 4d be cf 6d 93 3e 6b 67 d0 3e 43 fb 9a 3f
       -0.20112465 0.28794715 0.40703902 1.2107929
0002b0 35 97 81 3e 5b ef 1c bf 36 e7 af 3e 6a 47 5e 3f
       0.25310674 -0.6130273 0.34356087 0.8682772
0002c0 fd 62 d5 be 98 3a 67 3f a4 68 9d 3d 1c 42 a5 3f
       -0.41677085 0.9032378 0.07685974 1.29108
0002d0 ef c8 9e 3f 48 6f 73 3f c4 99 66 3e 23 ae 09 bf
       1.240507 0.95091677 0.22519594 -0.53781337
0002e0 d5 6f a0 bd ff 21 4f 3e 3b 65 12 3f 49 45 96 be
       -0.0783383 0.20227812 0.57185715 -0.29349735
0002f0 81 ee 56 3f 6d c7 4e 3f 8f 86 63 3f 53 7a 00 3f
       0.8395768 0.8077305 0.88877195 0.5018665
000300 1a 1f 97 3e 7b 8a e9 be 97 d3 af be a9 41 3c be
       0.29515916 -0.45613465 -0.34341118 -0.18384422
000310 d9 49 33 3f 8c 0e 92 3f f7 ec 57 bf f4 c9 a7 3f
       0.7003456 1.1410689 -0.84345955 1.3108506
000320 33 7b 8e bf e3 98 d5 be 0d b7 a1 3f 47 bf b2 3e
       -1.1131347 -0.41718206 1.2633988 0.34911558
000330 89 11 c4 3e 07 9a c5 be 10 4b 83 bf 97 d9 9d be
       0.38294628 -0.38594076 -1.0257282 -0.3083007
000340 b2 cb 8e be 74 30 b5 be 6b 07 7d be 73 c2 60 bf
       -0.27889782 -0.3538853 -0.24709861 -0.87796706
000350 2d 64 5a 3f e7 06 70 bf f1 d6 7b 3f 4e 83 a9 3f
       0.85309106 -0.9376053 0.9837485 1.3243196
000360 a2 cf b2 3d 55 ce a9 be 55 6c f0 be bb a5 c1 3e
       0.08731009 -0.3316523 -0.4695765 0.37821755
000370 e0 ef 32 3e 3e bb 4f 3f a6 e5 cd be b5 bb 26 be
       0.17474318 0.81145084 -0.4021427 -0.16282542
000380 c0 27 2a be 5b b7 16 3e a0 20 1e be b3 de ba be
       -0.16616726 0.14718382 -0.15442133 -0.3649803
000390 11 50 89 3d 24 19 92 3e b0 76 44 be 53 bb 75 be
       0.067047246 0.28534806 -0.191859 -0.2399724
0003a0 1d 29 41 be 60 a4 da 3d 7d e6 c6 3d e2 2a b7 be
       -0.1886334 0.10675883 0.09711931 -0.35774904
0003b0 2b 32 1e 3e a4 90 a9 3e 1e 1c be 3e ba 49 57 3d
       0.15448825 0.33118165 0.37130827 0.052560546
0003c0 4d 49 8f be 9c 71 2d 3e 08 4d 9f 3e 18 31 55 be
       -0.27985612 0.1693787 0.31113458 -0.20819509
0003d0 d9 b3 bf be 03 b8 22 3e 0b c7 99 be 86 bd 41 bd
       -0.374419 0.15890507 -0.3003467 -0.047299884
0003e0 a0 60 9a be 0b b0 be 3e 62 93 99 3d b1 27 7f 3e
       -0.30151844 0.37243685 0.07498814 0.24917485
0003f0 73 2a c7 be 42 e5 bb be 6c 72 83 be 57 0c a7 be
       -0.38899574 -0.36698347 -0.25673234 -0.32626602

weight_hh_l0 f4 [24, 6]
000000 6f 22 a7 40 2d fb 2b c0 f3 96 39 40 05 6c 74 bf
       5.2229533 -2.6872056 2.8998382 -0.95477325
000010 73 b7 83 3f bf ab dc 3f e1 1c a4 bf a2 d4 37 bf
       1.0290359 1.7239913 -1.2821313 -0.71808827
000020 1a c5 a8 bf 7c 1a d1 3f c8 37 b8 bf 9e da 88 bf
       -1.3185151 1.6336207 -1.4392023 -1.0691717
000030 83 ab d2 be e3 40 87 be 4b a2 74 bf 0e 46 f0 3e
       -0.41146478 -0.26416692 -0.9556014 0.46928447
000040 8f da 9f bf 6d 18 80 bf 52 33 a4 bf f4 b4 73 bf
       -1.2488574 -1.0007454 -1.2828162 -0.9519799
000050 c4 7c bd bf 12 d4 49 3f 10 c2 cd bf 23 fe a0 bf
       -1.48037 0.7883922 -1.6074848 -1.2577556
000060 a1 09 1e 40 f3 4b c7 bf 6e d5 ca 40 11 c0 98 3e
       2.4693377 -1.5570053 6.3385534 0.29834035
000070 68 37 16 c0 44 f2 2f c0 2b 40 71 3f 59 b6 6b 3f
       -2.3471317 -2.7491617 0.9423854 0.92075115
000080 98 6d f0 be 9f be 6a c0 bf 2e 4f c0 42 43 d5 3f
       -0.46958613 -3.6678846 -3.2372282 1.666115
000090 3f b5 f6 bf 82 0c 0d bf de 88 c7 bf b3 8f 61 be
       -1.9274062 -0.5509721 -1.5588644 -0.22027473
0000a0 f5 b5 e9 3e 8b c8 16 c0 9e 86 cd bf 8f 08 b8 be
       0.45646635 -2.3559902 -1.6056707 -0.3594403
0000b0 0d 8b 09 3e 41 a9 54 3f 51 fe 25 3e 82 f2 36 3f
       0.1343195 0.8307076 0.16210295 0.7146379
0000c0 da 33 b5 bf e3 b6 e6 be 91 84 81 bf 7e 98 02 3f
       -1.4156449 -0.45061406 -1.0118581 0.51013935
0000d0 c7 d3 b4 bf f2 68 63 bf 0a 6a b7 bf 7d c5 4a bf
       -1.4127129 -0.8883201 -1.4329236 -0.79207593
0000e0 e3 85 93 bf 88 4a 6b 3f c3 4e 53 bf 97 0a b6 be
       -1.1525234 0.919106 -0.82542056 -0.35554954
0000f0 fa d8 bc 3f 4c e0 02 c0 38 63 11 c0 55 6e e4 bf
       1.4753716 -2.04494 -2.2716808 -1.7846171
000100 be 54 e9 3f ee 4c 46 bf a2 46 8b 3f 02 c7 52 3f
       1.8228986 -0.77461135 1.088093 0.8233491
000110 4b 49 ee be 7a cf d1 3e c3 81 b6 3f b6 04 25 bf
       -0.46540293 0.40978605 1.425835 -0.64460313
000120 ea 7a f2 3f 9c 02 65 3f 7f 53 86 3e 9d 4d 3c c0
       1.894376 0.89457107 0.26235577 -2.9422371
000130 97 e1 8e 40 64 77 04 c0 cd 34 49 3f f5 e1 1f be
       4.465038 -2.069787 0.7859619 -0.1561354
000140 bb f1 a6 3f a2 df 92 bf 38 ca bf 3f a6 91 83 3f
       1.304252 -1.1474497 1.4983587 1.0278823
000150 b0 69 a9 3e 75 78 f6 3e 3b e3 df 3e 00 70 4f bf
       0.33088446 0.48138776 0.4372805 -0.81030273
000160 e3 74 40 3f de d6 55 3f e2 d2 55 bf 8d bf 65 bf
       0.75178355 0.83530986 -0.83524907 -0.8974541
000170 24 d9 9c bf e2 cc 7d 3f e4 fa 53 bf 7f 52 03 bf
       -1.2253766 0.9914075 -0.82804704 -0.51297754
000180 4f 78 92 3f 6f d1 cd 3f ba 45 e2 3f fe b2 17 3e
       1.1442965 1.6079539 1.7677529 0.14814374
000190 09 7b fd 3e ef ff 87 3e ac ff 8a 3e 86 96 20 40
       0.4950793 0.2656245 0.27148187 2.5091872
0001a0 e8 66 71 3f 54 58 eb 3f 2c 8e 74 c0 cf d9 91 bf
       0.9429765 1.8386331 -3.8211775 -1.1394595
0001b0 3e 6e 5c 40 be 72 0c c0 b9 95 ae 40 c7 f8 a8 bf
       3.4442286 -2.1945033 5.4557767 -1.3200921
0001c0 47 d7 a6 bf e8 38 7a 3f 0c 0b 96 3f 93 73 00 3f
       -1.3034447 0.9774308 1.1722121 0.5017635
0001d0 74 0d c6 40 11 bb 50 bf a2 5a 02 c0 fc e5 25 40
       6.189142 -0.8153544 -2.0367818 2.5921621
0001e0 fc 92 92 40 6e c3 dd bf 84 43 7d bf ae ad d4 3f
       4.5804424 -1.7325265 -0.98931146 1.6615503
0001f0 90 26 61 40 fb 23 c9 bf a7 48 80 bf b5 c4 65 c0
       3.5179787 -1.5714105 -1.0022172 -3.590131
000200 af 0a 10 41 d6 0c 73 c0 f5 a3 29 c0 ea da ac 3f
       9.002608 -3.7976584 -2.6506321 1.3504307
000210 db 76 8e bc 4b 81 ad 40 56 e8 38 c0 34 c3 62 40
       -0.01739066 5.422033 -2.8891807 3.5431643
000220 51 4e d4 40 f7 cf 4f c0 1e 11 ce bf 41 dc 40 c1
       6.63456 -3.2470682 -1.6098974 -12.053773
000230 71 d2 8d 3f f0 f7 27 41 6e 2d 6b 40 ff 60 58 40
       1.1079847 10.498032 3.6746478 3.3809202

bias_ih_l0 f4 [24]
000000 85 cf 91 3e 46 42 c0 3f 7b b9 de 3f 70 01 6c 3f
       0.28478637 1.5020225 1.7400354 0.92189693
000010 26 c8 ad 3e 7f 33 86 be 00 41 4a bf 7b d4 aa 3f
       0.33941764 -0.26211163 -0.7900543 1.3346094
000020 56 3d 88 3f c9 85 d3 3f e2 28 09 3f e5 79 7c bf
       1.0643718 1.6525203 0.5357801 -0.98623496
000030 ea e3 c8 be 0d 8d 40 bf 86 0c 9c bf 1a 1f 8c 3f
       -0.39236385 -0.75215226 -1.2191322 1.0946991
000040 31 a8 1c c0 2f 73 4f 3e f3 7c 74 bf b2 13 04 c0
       -2.4477656 0.20258783 -0.9550316 -2.063702
000050 e7 37 e3 bf 34 1a 02 bf 72 d3 93 bf 6f 71 77 3f
       -1.7751435 -0.5082123 -1.1548903 0.9665746

bias_hh_l0 f4 [24]
000000 17 3c d0 3d ad 0d 89 3f 7f 12 06 40 c0 cf b3 3f
       0.10167711 1.0707299 2.094879 1.4047775
000010 a2 4e 19 3f 61 c9 b0 3d 95 00 33 bf 0b ee d6 3f
       0.5988561 0.0863216 -0.69922763 1.6791395
000020 9b 8a 27 3f 60 b7 ca 3f e6 c2 ba 3e 70 8b 8c bf
       0.6544587 1.5837212 0.3647682 -1.0980053
000030 92 45 5a bd c4 ef c1 bf 4d b7 b2 bf ff 2d ba 3f
       -0.053289004 -1.5151296 -1.3962189 1.4545287
000040 f4 32 19 c0 6c e1 f2 3e 84 99 4b bf 26 4b 08 c0
       -2.393735 0.47437608 -0.7953112 -2.1295867
000050 d2 28 c3 bf 3a 7e 94 bf 67 7e c3 bf 8a 40 6a 3f
       -1.5246832 -1.1601021 -1.527295 0.9150473

weight_ih_l1 f4 [24, 6]
000000 e0 c9 28 c1 41 de c0 c1 87 cc 17 41 d7 c6 95 40
       -10.549286 -24.108522 9.487433 4.6805224
000010 4c 45 ed 41 39 87 04 41 27 0d 66 c1 51 21 29 c1
       29.658836 8.283013 -14.378211 -10.570634
000020 4a b1 b4 40 6c 26 5f 40 f7 6a a1 41 a6 ec eb 40
       5.6466417 3.48672 20.177229 7.3726377
000030 54 aa 74 c1 a3 37 93 c1 03 3e 9b bf ba 2b 84 40
       -15.291584 -18.402166 -1.21283 4.1303377
000040 7d 2b 99 41 8e 2d b1 40 0b d9 26 c0 6e d7 36 c0
       19.146235 5.536811 -2.6069973 -2.8568988
000050 0b 42 6d bf 8b bf 0f c0 a8 cc 0c c0 cf 78 8a 3f
       -0.926789 -2.2460659 -2.1999912 1.0818118
000060 c6 5b c7 c0 fa 12 98 c0 c2 ac 95 bf 63 6a c0 3f
       -6.229953 -4.7523165 -1.1693347 1.5032467
000070 2b 4b 48 c0 bb 86 9c 40 e5 93 20 41 be 06 01 41
       -3.129588 4.8914466 10.036107 8.064146
000080 9f 7e 98 c0 02 e3 92 40 1a 22 ae c0 03 5d 6e c0
       -4.7654567 4.590211 -5.441663 -3.724427
000090 42 17 9d c0 32 60 aa c0 5b 07 75 41 ea f8 20 bf
       -4.909089 -5.3242426 15.314296 -0.6287981
0000a0 a8 64 64 41 fe 17 52 40 78 a1 fc c0 0a b6 57 c1
       14.274574 3.2827144 -7.8947105 -13.481943
0000b0 67 08 45 41 12 c1 38 bf 1c 66 78 41 43 1a c7 40
       12.314551 -0.721696 15.524929 6.221956
0000c0 49 94 c8 c0 e7 e6 21 c1 de db 35 41 d2 02 2e bf
       -6.268101 -10.118873 11.3661785 -0.67973053
0000d0 d4 9c 4b 41 af 1e a8 40 19 f3 df c0 9c 59 e0 c0
       12.725788 5.2537456 -6.998425 -7.0109386
0000e0 c2 77 a7 40 cc 4c 26 41 27 69 b1 40 a6 12 d4 40
       5.233369 10.393749 5.544086 6.6272764
0000f0 75 51 22 c1 3a d4 01 c1 bd f6 88 40 18 ce ed 3f
       -10.144887 -8.114313 4.2801194 1.857852
000100 67 e5 11 41 26 32 e3 3f b9 18 9d 40 86 46 0a 3f
       9.118506 1.7749679 4.909268 0.5401386
000110 4c 5a 64 40 9e 99 bb bf 28 9c 81 bf 49 3e 4a c0
       3.5680113 -1.4656255 -1.012578 -3.1600516
000120 19 9f 82 c0 63 7c c6 c0 6c ab 1e 3f 9a 67 37 3f
       -4.081921 -6.202684 0.6198032 0.7164246
000130 9e c9 a8 40 a4 74 31 40 08 e0 9f bf 8b a1 27 c0
       5.2746115 2.7727442 -1.2490244 -2.6192348
000140 b4 61 31 3d 8c d2 20 3f f0 dc d7 3f 43 d1 da 3e
       0.043306068 0.6282127 1.68643 0.4273778
000150 e6 a2 85 40 f3 e9 c7 40 b8 c9 c1 3e c0 fc 37 bf
       4.176135 6.2473083 0.37849212 -0.7187004
000160 db 96 86 c0 5e 41 e8 bf d9 19 f4 40 c4 c1 13 41
       -4.205915 -1.8144948 7.628155 9.234806
000170 24 df 2d c1 58 c9 66 c0 81 35 17 c1 64 30 b1 c0
       -10.866978 -3.606039 -9.4505625 -5.537157
000180 ec f6 0a 40 bf d7 fd 3f f2 ec 6a 3f ca af 21 c0
       2.171321 1.9831465 0.917678 -2.5263543
000190 ef fe f6 3e cd 69 a4 bf 2a 15 8f c0 40 dc dc bf
       0.48241374 -1.2844788 -4.4713335 -1.7254715
0001a0 a0 26 ce 3e 7f 6e fe bf ec 7c d3 3f 94 9e 0a 40
       0.40263844 -1.9877471 1.6522498 2.1659288
0001b0 c2 e9 91 c1 45 31 a3 c1 fd ce 71 41 39 b4 c7 c0
       -18.23914 -20.399057 15.113034 -6.24075
0001c0 08 8c af 41 05 54 37 41 cb 80 8d c1 80 ee b8 c1
       21.943375 11.458013 -17.687887 -23.116455
0001d0 09 8b 53 41 65 e3 ec 3f d1 f7 ca 41 a2 54 e2 40
       13.221444 1.8506895 25.371004 7.072831
0001e0 0e b1 7b c1 69 21 c2 c1 dd 65 4a 41 91 38 51 3f
       -15.730726 -24.266314 12.649869 0.8172694
0001f0 99 93 d7 41 fd 6f 00 41 cd 53 21 c0 fc 9e e8 bf
       26.94707 8.027341 -2.5207398 -1.8173518
000200 90 d3 28 40 3e e6 05 41 d3 bb 88 40 7e 20 ed 40
       2.6379128 8.368711 4.2729278 7.4102163
000210 40 66 65 c1 29 fc 96 c1 c4 01 0b 41 f2 11 2e 40
       -14.337463 -18.873125 8.687931 2.7198453
000220 a3 12 22 41 dc 76 f1 40 ec fe 8d 40 37 62 2c 41
       10.12955 7.545759 4.4373684 10.773978
000230 e1 df 31 c0 fd d0 82 c0 cb a8 e9 c0 ec 83 36 c1
       -2.7792895 -4.0880113 -7.3018546 -11.4072075

weight_hh_l1 f4 [24, 6]
000000 fc 99 21 3f 81 da c3 be 26 84 e0 3e c7 62 1f bf
       0.63125587 -0.38252643 0.4385082 -0.622601
000010 85 af 3d bc 20 24 16 3f e1 f7 62 3f e4 9e cc bd
       -0.011577492 0.5864887 0.88659483 -0.099912435
000020 ea d8 1b 3f 1c b6 7c bf 88 c5 7a 3e ad ef 0f 3f
       0.6087786 -0.98715377 0.24489415 0.5622509
000030 65 c7 ce 3c 6a b7 f3 bd 08 a9 53 bb bb 00 ad bf
       0.025241563 -0.11900218 -0.0032296795 -1.3515848
000040 88 9b c7 bd 89 49 1b 3f 73 60 b4 3f 3b eb 2f 40
       -0.09746462 0.6065908 1.4091934 2.7487323
000050 c8 7e 05 c0 8e 79 ae 3f 0e 01 19 c0 5a ef ba c0
       -2.085863 1.3630846 -2.3906894 -5.8417177
000060 52 6f fb bf 2d d6 4f bf 5c 78 38 3f f8 36 20 be
       -1.9643347 -0.8118618 0.72058654 -0.15645969
000070 89 e2 be bd 6c 43 52 bf 90 2c c3 bf 1f 43 97 bf
       -0.09320552 -0.8213413 -1.5247974 -1.1817359
000080 14 a4 a0 3f b5 ab 09 c0 3e f8 af 3f ca b8 b6 3f
       1.2550073 -2.1511052 1.3747633 1.4275143
000090 66 ec 2a 3f 10 36 9a bf 51 48 ed 3f c4 ad 31 c1
       0.66766965 -1.2047749 1.8537694 -11.104923
0000a0 bc e3 02 40 de b5 d0 3e 5b d4 ae 3f 64 d3 02 3f
       2.0451498 0.40763754 1.3658556 0.51103806
0000b0 a7 52 cc 3d 22 30 94 c0 37 b8 1e 3e 84 57 cc 3f
       0.09976702 -4.6308756 0.1549996 1.5964208
0000c0 91 fd d1 3d 76 be 8d 3d 72 98 4f 3f 08 2f d7 c0
       0.10253442 0.06921093 0.8109199 -6.724491
0000d0 49 7a 5e 3e 21 04 9c 3f e0 20 fa 3e 88 36 3d 3d
       0.21726336 1.218876 0.48853207 0.046194583
0000e0 ee 7c 45 3f 78 66 00 40 7c 39 81 3e e0 50 06 c1
       0.7714375 2.0062542 0.2523917 -8.394745
0000f0 6e c6 ef 3f be 67 db 3f 59 23 9d bf 53 28 9f bf
       1.8732431 1.7141035 -1.2276412 -1.2434181
000100 bc 2a b0 bf 87 5e 86 40 40 c5 d8 be 30 27 8b bf
       -1.3763041 4.199039 -0.4233799 -1.0871334
000110 87 a2 81 3f 3f 73 05 40 73 ba bd bc b3 27 7c bd
       1.0127724 2.085159 -0.023160195 -0.061561298
000120 94 2e 7f 3e 10 86 ac 3e 4b 85 70 be cf 14 36 3e
       0.24920112 0.33696032 -0.23488347 0.17781375
000130 c6 f4 9c bf 80 fb e7 bf 11 84 66 3f cd 60 72 3d
       -1.2262199 -1.8123627 0.9004527 0.059174348
000140 49 f0 d8 be 15 21 ab 3f 18 55 39 bf f0 c5 33 bf
       -0.42370823 1.3369471 -0.7239547 -0.70223904
000150 91 d7 87 be ba 70 0f be 48 3a f7 bd 27 7d 97 be
       -0.26531652 -0.14007846 -0.12071663 -0.2958767
000160 8a d6 c9 3e 6e e1 00 40 d6 eb c5 be 8f 7b 75 3f
       0.39421493 2.0137591 -0.3865649 0.9589166
000170 b1 4e 32 bf 42 99 6d 40 0d ae c8 bf 1a 93 ec c0
       -0.69651324 3.712479 -1.5678116 -7.3929567
000180 69 00 6e bf 33 35 77 bf 10 b8 87 3f 84 e3 a8 bf
       -0.92969376 -0.9656555 1.0603046 -1.3194432
000190 f7 14 5a 3f 58 58 95 3f df f1 8a be f8 56 12 bf
       0.8518824 1.1667585 -0.27137658 -0.57163954
0001a0 68 e2 ea 3e a4 18 ca be 24 ac 42 3f fa 55 3c 3f
       0.4587586 -0.39471924 0.76043916 0.7356869
0001b0 39 a8 f1 be 9b 08 af bd 2a 07 21 3f 38 b0 75 40
       -0.47198656 -0.08546563 0.62901556 3.8388805
0001c0 73 9d 81 3e 1b 4c 45 c0 dd f1 6d be 71 ac 00 be
       0.25315437 -3.08277 -0.23236795 -0.12565781
0001d0 70 1e c1 3e 71 db e8 3f cd 49 f1 be df aa 6f bf
       0.37718534 1.8191968 -0.47126618 -0.93620104
0001e0 83 5e 74 3e ab 87 20 bd 90 69 51 3f 9a 6c e2 3f
       0.23864178 -0.039191883 0.818017 1.7689393
0001f0 65 d4 95 bd 84 b1 d5 bf 39 01 fc be 61 5a b9 bd
       -0.07315902 -1.6694798 -0.49219683 -0.090504415
000200 94 7d 5c be a5 28 ca 3e 02 14 0c bf 5b 2e 8a 3e
       -0.21532279 0.39484134 -0.5471803 0.2698849
000210 86 79 d9 be 73 46 61 be fe 5c 10 be 90 04 24 3f
       -0.42475528 -0.2199953 -0.14097974 0.6406946
000220 44 63 7e be 1e f5 ad 3e f3 e9 d4 3e 91 ac af 3e
       -0.24842554 0.33976072 0.4158474 0.34311345
000230 62 6b f2 be 52 64 d7 bf 31 4f d8 3e 28 8f ac 3f
       -0.47347552 -1.682749 0.42247918 1.3481188

bias_ih_l1 f4 [24]
000000 54 9c f0 bf 53 84 de bf b8 00 9c bf bb b7 31 40
       -1.8797708 -1.7384132 -1.2187719 2.776839
000010 1d 74 68 3d 2c bd 65 bf c5 d7 7a c0 96 25 59 c0
       0.05675136 -0.8974178 -3.9194195 -3.392919
000020 d5 47 63 c0 52 c0 b5 be 0d 8a 13 c0 b2 21 25 40
       -3.5512593 -0.3549829 -2.305301 2.5801816
000030 f2 79 0a 3f 38 ee 9e 3f 37 23 11 bf 88 90 2f 40
       0.54092324 1.2416449 -0.5669436 2.7431965
000040 fe 35 9e bf 0b 10 a4 bf 13 ec 8c 3f 3d 54 28 bf
       -1.2360227 -1.2817396 1.1009544 -0.6575354
000050 96 27 94 3c 7d 24 3e bf 2a b4 81 bf 6e 97 2f c0
       0.018085282 -0.74274427 -1.0133107 -2.7436175

bias_hh_l1 f4 [24]
000000 57 84 e4 bf c2 bd 82 bf 1b 51 a4 bf a8 94 24 40
       -1.7852887 -1.021416 -1.2837251 2.5715733
000010 68 fd f5 bd e4 37 4e bf 2f be 7c c0 5d e2 59 c0
       -0.12011224 -0.8055403 -3.949108 -3.404441
000020 a3 28 63 c0 e7 a7 3a bf 77 f4 0f c0 9d 70 03 40
       -3.5493553 -0.7291245 -2.249296 2.0537484
000030 43 fb 3f bd 10 75 af 3f 04 cf 3f bf a2 fb 3e 40
       -0.04687048 1.37076 -0.74925256 2.9841084
000040 8e 1a f7 bf 5f 63 3c bf 80 98 50 3f a6 10 97 be
       -1.9304979 -0.7358913 0.81482697 -0.2950489
000050 9f d1 03 bf 7e 73 38 bf 07 c1 54 bf cb da 32 c0
       -0.5149173 -0.7205123 -0.83107036 -2.794604

weight_ih_l2 f4 [24, 6]
000000 c5 d0 73 c0 17 60 b3 3f b8 b5 a3 bf 61 ed 8b bf
       -3.8096173 1.4013699 -1.2789831 -1.0931817
000010 d0 15 b9 bf 27 48 fd bc 9c 52 f4 bf f1 fc e2 c0
       -1.4459782 -0.030918194 -1.908771 -7.0933766
000020 25 3c 53 40 7b b6 e5 3f 17 08 7b 40 65 1b 96 c0
       3.300546 1.7946314 3.9223688 -4.690844
000030 e2 2a be 40 aa fa 3e 40 59 56 1c c1 ce a5 90 c1
       5.9427347 2.9840493 -9.771081 -18.08096
000040 ac 26 5e bf 54 5f 68 40 5a 3d 12 c0 93 da 06 c0
       -0.8677776 3.6308184 -2.2849946 -2.1070907
000050 ea 61 b0 bf d2 ad 2f 40 32 91 04 c0 2b 9a 1d c0
       -1.3779881 2.7449841 -2.071362 -2.4625347
000060 0c ec 00 40 b6 59 eb 3f 65 63 74 c0 e0 cf 36 c0
       2.0144072 1.8386753 -3.8185666 -2.8564377
000070 d1 54 36 40 ff 4b 8b c0 f1 dc 07 c0 62 71 4d c0
       2.8489268 -4.353027 -2.1228602 -3.2100453
000080 04 8d 45 40 af d8 d9 c0 47 af b2 40 db 17 83 c1
       3.086732 -6.8077006 5.583896 -16.386648
000090 ce 2d 09 c0 85 4a 8e 3e 83 e1 9f 3f b2 74 82 3f
       -2.1434207 0.2779123 1.2490696 1.0191863
0000a0 75 38 a1 3f 30 21 c2 3d 4a 24 0f 40 f2 7a 1f 3f
       1.2595354 0.09478986 2.23659 0.62296975
0000b0 b8 c2 09 c0 aa ed 8a 40 5c 30 43 3f e3 cb ad c0
       -2.1525097 4.3415117 0.76245666 -5.4311385
0000c0 f8 28 d2 41 e2 ce ec 41 f1 c0 6f c1 c7 35 ca c1
       26.270004 29.601017 -14.984605 -25.276258
0000d0 9a e3 35 41 01 88 ae 41 3a 63 4d bf 16 03 5e 3d
       11.368067 21.816408 -0.8022953 0.05420216
0000e0 26 fd 3f 3d 86 71 a0 40 fa 71 2e c0 fe dd 29 40
       0.04687228 5.013858 -2.7257066 2.6541743
0000f0 25 13 37 40 63 d3 6e 40 db e6 82 c0 a8 83 42 c0
       2.8605435 3.731652 -4.0906806 -3.0392857
000100 d6 dd 6f bf 32 fe 59 40 32 01 8e bf cf 5b b1 bf
       -0.9369787 3.4061399 -1.1094115 -1.3856143
000110 55 33 4f 3f b6 7b 4a c0 98 1a 25 41 e8 40 87 bf
       0.809377 -3.1638007 10.318993 -1.0566683
000120 70 7b 31 40 aa 4d 11 40 bf 08 e9 bf da ec 95 c0
       2.773159 2.2703652 -1.8205794 -4.6851625
000130 b6 3f 49 bf bc 38 c7 3f d0 c4 5c 40 0f 56 cf 40
       -0.7861284 1.5564189 3.4495125 6.479255
000140 3b c9 a7 c0 65 aa e3 c0 65 a2 a4 bf 2e 59 52 40
       -5.2433143 -7.11455 -1.2862059 3.286693
000150 62 7c 03 40 d1 17 20 40 52 22 85 c0 09 7f e9 bf
       2.0544667 2.5014536 -4.1604395 -1.8241893
000160 c1 7c eb bf cb 98 cd 3f bf 00 27 c0 f8 6f da bf
       -1.8397447 1.6062254 -2.6094205 -1.706542
000170 bc 9b 13 40 78 c4 71 40 ea 2e 43 bf 85 d1 17 c0
       2.3063803 3.7776165 -0.7624346 -2.372163
000180 c2 44 c6 40 52 b0 0f 41 11 1e aa c0 6c 27 b0 c0
       6.1958933 8.980547 -5.31617 -5.5048122
000190 f0 79 92 c0 d7 e6 c0 bb f5 16 1a 41 d9 ab 8b 41
       -4.577385 -0.0058868933 9.630605 17.45891
0001a0 1c 49 72 c1 da 03 55 3f c8 0b ca bf 69 9e 85 41
       -15.142849 0.83209 -1.5784845 16.702349
0001b0 8e c3 03 c2 1b 9d 8f c1 c9 30 36 41 fd a5 59 c0
       -32.94097 -17.951712 11.38691 -3.4007561
0001c0 3f ae 1c 41 62 b4 f7 be f3 86 02 c1 c1 25 f3 c1
       9.792541 -0.4837981 -8.157947 -30.393435
0001d0 3a fc 59 41 41 a3 a4 c0 2b f0 8c 41 46 6b 0d c0
       13.624079 -5.1449285 17.61727 -2.2096725
0001e0 f2 ee b9 40 a4 91 af 40 d4 a2 d7 c0 f5 9d e5 c0
       5.810418 5.4865284 -6.7386265 -7.175532
0001f0 90 44 82 bf b2 af 81 40 a0 d3 e6 c1 bc 6e ce c1
       -1.0177174 4.052697 -28.853333 -25.80407
000200 85 91 2f 41 16 ea 88 bf 3a c5 7d 40 5e 30 9b bf
       10.973027 -1.0696437 3.9651628 -1.2124135
000210 f0 9a a8 be 2b 6d f5 be 0a 1b 97 3f 8d ae ad bf
       -0.32930708 -0.4793485 1.1805127 -1.3568894
000220 d3 6a 95 3f a2 6a 28 c1 55 26 93 3f 67 de 60 40
       1.1673225 -10.526033 1.1496073 3.5135744
000230 0f eb 26 40 a9 ad 4b 40 74 0b 82 41 7f c9 09 c2
       2.6080968 3.1824744 16.255592 -34.446774

weight_hh_l2 f4 [24, 6]
000000 b8 a5 f2 be e3 b6 c0 be 35 b8 13 40 96 de 42 3e
       -0.47392058 -0.37639531 2.308118 0.19030222
000010 01 bb de be cc 89 46 bf 52 ec 61 40 98 f3 46 bd
       -0.43502048 -0.7755401 3.5300488 -0.048572153
000020 6e 95 69 40 83 38 2c c0 48 c7 d6 3f 72 e4 46 40
       3.6497455 -2.6909492 1.6779566 3.1076932
000030 71 f5 1d c0 4a 5e 1b c0 3e ff 25 3f b9 d5 8d be
       -2.4681056 -2.42763 0.64842594 -0.2770212
000040 bd c5 21 c0 d5 cb 2b 40 5c 24 1e bf 9e c0 14 bf
       -2.527694 2.684316 -0.6177423 -0.5810641
000050 10 37 09 40 ca c0 1c 3e 4a bf e4 bd 2e 6b c1 be
       2.1439857 0.15307918 -0.11169298 -0.37777084
000060 02 39 96 3f 9d bf 5e 3f 77 14 7f 40 dd 29 33 bf
       1.1736147 0.8701113 3.985624 -0.69985753
000070 e5 79 5f c0 b0 db 25 40 21 0f 9b 3f 54 fa 12 be
       -3.4918149 2.5915337 1.2113992 -0.14353305
000080 c8 8d ca 3f 01 76 51 3f de 8e e9 3f 33 05 22 bf
       1.5824518 0.81820685 1.8246725 -0.63289183
000090 d1 06 3d bf 85 20 a4 bf 99 71 49 c0 ce 38 5e 3f
       -0.73838526 -1.2822424 -3.1475585 0.8680543
0000a0 63 5d 6f c0 6f cf 76 bf 31 ef 53 bf 8b 2f a8 bf
       -3.7400749 -0.9641027 -0.8278685 -1.3139509
0000b0 6b 04 91 c0 b6 a8 bc 3c fc bc 6d c0 4f 61 66 bf
       -4.5317893 0.023029666 -3.7146597 -0.8999223
0000c0 a9 73 8b 40 4d da 4d 40 f7 5f e1 bd f4 e6 d8 c0
       4.3578687 3.216449 -0.11004632 -6.7781925
0000d0 52 52 f4 3f de 8d 65 3e f3 0b 8f bf da e0 84 bf
       1.9087622 0.224174 -1.1175522 -1.0381119
0000e0 7c 00 0e c0 b2 fb 9e 3f 9b 43 d0 c0 d8 0a 9a bf
       -2.2187796 1.2420561 -6.5082526 -1.2034559
0000f0 d6 d7 48 bf ed 72 0d c0 ae df 28 c0 04 56 89 3f
       -0.7845434 -2.2101395 -2.6386523 1.0729375
000100 0c 3e a3 bf a0 0f 97 3d d0 c6 cc bf 17 f6 cf bf
       -1.275331 0.07376027 -1.5998173 -1.6246976
000110 69 40 3d c0 a3 ba ca 3f 8f aa 75 3f 84 f0 61 bf
       -2.9570563 1.5838207 0.95963377 -0.8825762
000120 fd 67 2f bf 52 4a d1 3d fe c6 6e bf 0c 9e ad 3e
       -0.6851805 0.102192536 -0.9327239 0.33909643
000130 d7 d9 5b bf f5 27 56 be d8 84 13 3f 87 cc 07 3f
       -0.8587927 -0.2091368 0.5762458 0.5304646
000140 72 aa a1 bf 4c 70 44 bf 28 03 1b bf ea 4e ea 3f
       -1.2630141 -0.7673385 -0.6055169 1.8305333
000150 77 07 f5 bf cb 12 6c bf 69 cf b6 bf b7 7a 2c 3e
       -1.9142903 -0.92216176 -1.4282047 0.16843687
000160 9e 6b fb 3e 9d cc 92 bf 9d ef c3 3e 31 fd 93 bd
       0.49105543 -1.1468693 0.38268748 -0.07226027
000170 d0 fd 76 3f de 5c ed 3e 56 6f 95 3e 8e 94 62 bf
       0.9648104 0.46359915 0.29186505 -0.88507926
000180 49 98 dc bf 42 08 ac bf 81 a1 be 3f c6 87 24 3f
       -1.7233974 -1.344002 1.4893037 0.64269674
000190 a5 49 d5 3d 07 36 25 bf 8a ac 13 bf 27 7b 1e 3f
       0.10414437 -0.64535564 -0.5768515 0.61906666
0001a0 68 4c af bd e5 f5 6e 3f 26 39 6b 3d 74 60 05 3d
       -0.08559495 0.93343955 0.057427548 0.032562688
0001b0 20 fd 04 40 ce bb e9 bf 32 72 53 40 1e 6b 9d bf
       2.0779495 -1.8260438 3.303845 -1.2298315
0001c0 07 6f e7 3f 66 98 4f be 5b 9d 86 3f ee 1b 9e bf
       1.8080758 -0.20272979 1.0516771 -1.2352273
0001d0 74 75 61 40 1f 80 a5 bf 6a 9b 4e 40 35 1a 4c bf
       3.5227938 -1.2929724 3.2282357 -0.7972749
0001e0 c1 8e 02 3e 77 7f 76 3f c6 9d 52 bf f6 ca 73 bf
       0.12749769 0.96288246 -0.82271993 -0.9523157
0001f0 17 b7 cc 3d b3 cc 37 3f 66 bc ac 3f df 59 c8 bf
       0.09995859 0.7179672 1.3494995 -1.5652426
000200 ed 45 d8 3f d3 87 ab bf 9c 03 87 3f e4 71 9c bd
       1.689634 -1.3400825 1.0547976 -0.076389104
000210 1a 13 8e 3f 4c ec e4 bf 06 b7 ad 40 3c 7e 8d bf
       1.1099579 -1.7884612 5.4285917 -1.1054149
000220 7f 51 e3 3f 55 91 ba be a1 c5 b1 3f 98 b1 25 bf
       1.7759246 -0.36439005 1.3888437 -0.6472411
000230 39 96 8b 3f a2 bf f8 bf 3e 66 5f be c0 cc 40 3b
       1.0905219 -1.9433482 -0.21816346 0.0029418916

bias_ih_l2 f4 [24]
000000 12 c8 3a 40 3b 61 b2 3f 35 e8 54 c1 29 51 e5 3f
       2.9184613 1.3935922 -13.306691 1.7915393
000010 c8 65 2f 40 73 60 85 3e 88 5d 0b c0 f4 17 3a bf
       2.7405872 0.26050147 -2.1775837 -0.726928
000020 dc ce e2 bf 9b 2f e3 3e 6f 14 b6 bf 39 2b 5b c0
       -1.7719378 0.44372258 -1.4224986 -3.424513
000030 ce 66 68 bf a5 32 f1 bf 46 34 40 3e 4d 9d d5 3f
       -0.9078187 -1.884358 0.1876994 1.6688629
000040 1f 57 2e c0 ef 18 06 bf f2 f7 65 3f 72 e6 98 3e
       -2.7240674 -0.52381796 0.8983146 0.29863316
000050 86 b2 4c c0 9c d3 d6 be 34 05 11 3f d9 19 a7 3d
       -3.1983962 -0.4195832 0.56648564 0.08159227

bias_hh_l2 f4 [24]
000000 c6 1a 50 40 dd 8e b8 3f 0d 2f 54 c1 3b 60 d7 3f
       3.2516341 1.4418598 -13.261487 1.6826242
000010 35 d8 4b 40 a8 50 9e 3e 97 64 f5 bf f4 57 30 bf
       3.1850712 0.3092091 -1.9171323 -0.68884206
000020 41 e9 a3 bf 70 17 c5 3e 98 2d ea bf 0b f2 59 c0
       -1.2805558 0.38494444 -1.8295164 -3.4053981
000030 bd f2 57 bf fa a8 b7 bf d4 a8 3e 3e f2 19 8b 3f
       -0.84354764 -1.4348443 0.1861909 1.0867293
000040 68 a9 5c c0 a3 d5 4b be 1b 67 16 3f f6 3f 0c 3f
       -3.4478397 -0.19905715 0.58751076 0.54785097
000050 9d b9 54 c0 90 27 f4 3d 76 f5 f9 3e fa 9d 2e 3f
       -3.323829 0.119216084 0.48820084 0.68209803

weight_ih_l3 f4 [24, 6]
000000 a0 fa 86 bf 5e 73 12 c0 29 be 89 40 69 d0 d7 3f
       -1.0545235 -2.2882915 4.304463 1.6860477
000010 66 b5 b1 3f 06 56 20 c1 d5 9a 1f c0 92 6f 94 bf
       1.3883483 -10.021002 -2.4938252 -1.1596549
000020 dd dd 78 3f 4f d4 f3 3f 7e 8e e0 be d1 c5 06 c0
       0.97213537 1.9049166 -0.43858713 -2.1058238
000030 91 6e f3 3e 55 1e c0 3f fe d4 23 40 08 b5 9b bf
       0.47545293 1.5009257 2.559875 -1.2164621
000040 31 1f 62 3f 48 e9 69 3f 3f 06 e0 bf 9e 5e 73 bf
       0.88328844 0.91371584 -1.7501906 -0.9506625
000050 fb bc 1a 40 8a 29 76 3f 05 ac 2a be 49 4e 01 c0
       2.4177845 0.96157134 -0.16667183 -2.0204031
000060 23 90 4b 3d 3d f7 a3 be 66 4c e6 3f 54 c6 2e 3e
       0.049698006 -0.32024565 1.7992065 0.17067844
000070 88 a8 80 3e 0b b0 b3 3d 6d 90 7a 3f ac 8e c4 40
       0.2512858 0.08773812 0.97876626 6.142416
000080 f4 bb 81 40 6a d6 29 bf eb b0 45 bf a2 a4 51 40
       4.0541935 -0.66342795 -0.7722308 3.2756734
000090 1f 72 89 40 8d 8f 67 40 80 f3 41 40 5c 94 6f c0
       4.295181 3.6181366 3.030487 -3.7434301
0000a0 08 2a 9c 40 2e 68 09 40 ea 1e 8b 3e 37 47 c9 3e
       4.880131 2.1469836 0.27172023 0.39312145
0000b0 60 96 4e 40 c8 4f 00 be 8f f5 12 3f 88 9a 9a be
       3.2279282 -0.12530434 0.5740594 -0.30196023
0000c0 b6 d0 ab bf 16 02 f2 bf 48 ab 21 40 fa 10 e9 3f
       -1.3423069 -1.8906887 2.5260792 1.8208306
0000d0 00 91 a7 bd 1e 1f 01 c0 37 e9 1f 40 c5 e2 42 40
       -0.081819534 -2.0175242 2.4986093 3.045091
0000e0 13 05 81 40 06 c2 64 c0 b9 0b 54 40 d1 68 8d 40
       4.0318694 -3.5743423 3.3132155 4.419045
0000f0 27 d8 97 40 38 16 87 40 76 fa 45 40 de 21 98 c0
       4.745136 4.2214622 3.093412 -4.754134
000100 ae 7d 9b 40 dd c9 8c 40 92 4d 84 bf ec 34 70 be
       4.8590918 4.3996415 -1.0336173 -0.23457688
000110 23 04 b6 40 3d bf cc 3e 83 6e 3c 40 1b dc 35 bd
       5.688005 0.39989653 2.944245 -0.044399362
000120 e2 6f 2e 41 03 4f 02 41 67 cc e2 3f 09 5b 39 c1
       10.902315 8.14429 1.7718629 -11.584725
000130 a4 77 ca 3f 2b fd cb 40 a3 bc 62 3e ef f0 85 3d
       1.5817761 6.3746543 0.22142272 0.06540095
000140 63 19 6f bf 24 c3 59 be a9 eb 37 bb 27 9a a3 3e
       -0.9339811 -0.21265846 -0.0028064048 0.31953546
000150 70 ea 2a 3f cb 9a b7 3e a6 da b7 3e 6b 06 7a bf
       0.66763973 0.35860285 0.35909003 -0.97666043
000160 ad cf 46 be 81 ca f1 3e 8c d0 c6 40 e6 8f 9d 40
       -0.1941516 0.4722481 6.2129574 4.9238157
000170 cc 79 ef 3f 38 b9 a9 c0 95 08 e6 40 93 4c 89 40
       1.8709044 -5.3038597 7.1885476 4.2905974
000180 a3 e5 15 3f 53 f2 67 3f 15 f7 79 3f 67 1d 33 bf
       0.5855352 0.9060413 0.9764264 -0.6996674
000190 fe ea 86 3e 43 8b a3 3f 3f b9 86 bf 41 8e 01 3f
       0.2635116 1.2776874 -1.0525283 0.5060769
0001a0 a7 60 66 3e af 19 3d bd 45 ab 60 3e 55 30 c7 3d
       0.22497807 -0.046167072 0.21940334 0.097260155
0001b0 9f 25 49 3e f3 9a eb 3d 05 97 fc 3f 47 5a 34 3f
       0.19643258 0.115041636 1.9733588 0.7045025
0001c0 9e b8 98 3f c6 dd ed bf bb 02 16 3d e5 3b f8 3c
       1.1931341 -1.8583305 0.036623698 0.030301997
0001d0 f7 9e 1f 3f 7e f9 e1 bd d9 6b 24 3e 48 c1 91 3d
       0.62351936 -0.11033915 0.16056766 0.071169436
0001e0 bf a7 d2 bd 2c 33 cc bd 24 33 0a 40 78 1b ce 3c
       -0.10285901 -0.09970698 2.1593714 0.025159582
0001f0 96 91 d7 bd 50 32 9c 3d d4 fd 7b 40 6b 5e 6e 40
       -0.10525815 0.07626784 3.9373674 3.7245128
000200 8c 84 ce 3f b9 ef 7e c0 df 19 1e 40 31 00 24 40
       1.61342 -3.9833815 2.470329 2.5625117
000210 0a a3 e6 be 86 c4 df be d1 f6 5d 40 3e b5 6f 3f
       -0.45046264 -0.43704623 3.4681895 0.9363593
000220 e6 96 38 3f 9c 7a 9d c0 67 a0 ab 40 56 67 b2 40
       0.7210525 -4.921217 5.3633304 5.5751143
000230 86 b5 0c 40 9a 5c b1 c0 0c 62 80 40 84 4c 72 40
       2.1985793 -5.542554 4.0119686 3.7859201

weight_hh_l3 f4 [24, 6]
000000 cb 45 49 3f b8 a6 7d 3e 57 2c b6 bf 8b 6c d7 3e
       0.7862212 0.2477063 -1.4232281 0.42075
000010 0c b3 3d be 65 5f 96 bd b0 a8 eb bc 3a 5b 63 bf
       -0.18525332 -0.07342414 -0.02876696 -0.88811076
000020 66 73 04 40 5b 58 8a bf fa b2 00 3f 72 48 83 3f
       2.0695434 -1.0808214 0.50273097 1.0256484
000030 2c 5c 23 bf 4e 04 d9 bf cb 6c b4 bf 2c d0 ec 3f
       -0.6381252 -1.6954439 -1.4095701 1.8501029
000040 b7 92 a7 be 03 ba 43 bf e7 0d f7 bf 7c 87 a4 bf
       -0.32729122 -0.76455706 -1.9301118 -1.2853847
000050 ac 55 fb 3f 4d 6c 95 bf 79 74 3c bf 3d b2 e3 3f
       1.963552 -1.1673676 -0.73615223 1.7788769
000060 1b f8 3b 40 02 69 d5 be 8a 25 71 3f 94 dc 07 40
       2.9370182 -0.41681677 0.94197905 2.122838
000070 09 4a 3a 40 4c 07 bc bf 98 e1 f6 3f 38 c7 21 c0
       2.9107687 -1.4689727 1.9287596 -2.5277843
000080 1b e9 6e c0 45 d2 06 3f b3 9f a3 bf 66 71 bb bf
       -3.7329776 0.52664596 -1.2783111 -1.4643981
000090 b8 3c 71 3f 33 cb 8b bf 22 7a 0e c0 79 fc bc 3e
       0.94233274 -1.0921386 -2.2262044 0.3691137
0000a0 74 ac c8 3f 0d 1e 9d bf 26 84 0a 40 2b 9e d9 3f
       1.5677629 -1.2274796 2.1643157 1.7001394
0000b0 42 23 ce bf d6 cc 32 40 07 f0 60 40 41 ca 2a be
       -1.610451 2.7937522 3.51465 -0.16678716
0000c0 81 59 5f 3f 5a db b5 bf 62 4d 21 c0 28 cf 73 3e
       0.8724595 -1.4207566 -2.520348 0.23809493
0000d0 58 c2 03 3d fb a7 08 be 83 1e 36 be b8 f9 cd 3f
       0.032167763 -0.1334533 -0.17785077 1.6091833
0000e0 73 e9 0e 3f 4b eb 1f bf ed 69 db bf b7 25 b9 bf
       0.55824965 -0.62468404 -1.7141701 -1.4464635
0000f0 9a 1b 73 3f 09 f5 19 bd 52 38 32 bf 66 71 d5 3f
       0.9496399 -0.0375872 -0.6961719 1.6675231
000100 a0 49 d7 3f 3e fa 08 bf 74 ca 30 40 2f c6 65 3d
       1.6819344 -0.5350684 2.7623568 0.056097206
000110 f1 6d cb 3f b6 16 84 40 30 00 02 40 1d b3 45 3f
       1.5892926 4.1277723 2.0312614 0.7722643
000120 bf 99 34 bf e3 01 ad 3e 63 6e cd 3d 0f 8c 89 be
       -0.705471 0.33790502 0.1003082 -0.2686467
000130 b4 dc af 3e 31 88 fc 3f 7d e6 bd bf fb 07 99 3e
       0.3434807 1.9729062 -1.4835964 0.298889
000140 6b 73 d2 bf 18 05 66 bf bc 37 44 c0 fb 2b e2 bf
       -1.6441473 -0.8985152 -3.0659018 -1.7669672
000150 e7 e5 32 3e 92 fb 72 c0 ce 44 0e 3f b1 1e 55 3f
       0.17470513 -3.7966046 0.5557374 0.83249956
000160 a6 e8 dc 3e 72 e5 d8 3f e7 80 0b be e0 7d a0 bf
       0.43146247 1.6945021 -0.13623391 -1.2538414
000170 a5 f5 84 3e 7c 33 0a 39 a2 71 e9 3e dc 45 93 3f
       0.25968662 0.00013179885 0.45594507 1.1505694
000180 12 d2 5b 3e 45 a1 1a 3e 7f bd b0 3d e8 e0 3c bd
       0.21466854 0.15100582 0.086298935 -0.046112925
000190 e6 4b f6 be d2 4f b2 3d 7f 4e 8a bf 4e 9d b8 bf
       -0.4810478 0.08706631 -1.0805205 -1.4423006
0001a0 6f 00 98 bf c0 01 b8 3f 70 11 29 3f 49 2b 05 c0
       -1.1875132 1.4375534 0.6604223 -2.080767
0001b0 e0 06 73 bf 5a 00 80 3f 8e 07 e9 be c6 87 fe bf
       -0.94932365 1.0000107 -0.45513576 -1.9885185
0001c0 d4 72 a1 3f be 51 e2 3e 62 d8 6a 3e f5 63 f5 bf
       1.2613168 0.4420299 0.22934106 -1.917113
0001d0 b4 e6 f4 bf e7 f3 d7 3f 1b 97 b5 40 58 99 c8 bf
       -1.9132905 1.6871308 5.6746955 -1.5671797
0001e0 9c bf da 3e 13 e0 8d 3e 74 eb af bc 42 a3 2d 3e
       0.4272431 0.27710018 -0.021474577 0.16956809
0001f0 3c e2 f1 3e 20 20 46 bf 10 6d 5c 3e 47 10 45 3f
       0.47242916 -0.7739277 0.21525979 0.7697796
000200 f9 7b f0 3e 4b 0a e2 3e d2 d4 73 be e0 44 9c bf
       0.46969584 0.44148478 -0.23811653 -1.2208519
000210 f1 8d 9b bf 93 40 c4 be f5 59 0d c0 ab d0 a6 3e
       -1.2152692 -0.38330516 -2.2086155 0.32581076
000220 aa fb 1a 3f 93 a5 4a 3f dd 1b 8b bf 77 e2 e2 bf
       0.6054026 0.79158896 -1.0867878 -1.7725362
000230 95 bc 91 3e 3d 59 91 bf b6 05 c5 bf c5 06 bd 3e
       0.2846419 -1.1355358 -1.5392368 0.36919227

bias_ih_l3 f4 [24]
000000 92 ee 15 bf 20 d3 25 40 1e e1 94 3e b0 84 1d 40
       -0.58567154 2.591011 0.29078 2.4612236
000010 9c 02 ea 3f 41 01 b7 bd 33 d3 9a bf b2 de 97 be
       1.8282046 -0.08935786 -1.2095703 -0.2966209
000020 c9 86 eb 3b ae 2e 96 3e 1a 20 12 c0 eb 7d 47 c0
       0.0071876985 0.2933249 -2.2832093 -3.1170604
000030 4f da 4b 3e d2 a9 4d 3f 3a 04 ca bd e2 36 5c be
       0.19907497 0.8033725 -0.098640874 -0.21505311
000040 f4 8a e3 3d f5 6b b0 3d 9b 92 03 40 90 cf 65 3e
       0.111104876 0.08614341 2.055823 0.2244246
000050 7f f8 c7 3d d2 74 7c 3f c6 0b 8d 3f 9c ae 91 3d
       0.09764194 0.98615754 1.1019218 0.07113382

bias_hh_l3 f4 [24]
000000 27 5e c4 bc fd e8 33 40 4b a3 21 3d 0c 76 05 40
       -0.023970677 2.8110955 0.03946237 2.08533
000010 31 69 d2 3f c8 78 48 be 84 46 91 bf e8 1a 6e be
       1.6438352 -0.19577324 -1.1349645 -0.23252451
000020 5e 3d aa 3e 0f 95 b8 3e d9 22 04 c0 c2 dc 60 c0
       0.33249944 0.36051223 -2.064627 -3.513474
000030 a4 9d 4c 3e d5 cf 2e 3f 80 4a d0 3d 4b 9b 1e bf
       0.1998201 0.68285877 0.1017046 -0.6195571
000040 df a7 83 3d 42 bd f0 3e 2e 46 e2 3f 77 f5 93 3b
       0.06428503 0.47019392 1.7677667 0.0045153457
000050 7e 84 2f 3e 64 16 4d 3f 25 2f fb 3e f3 7e c3 3e
       0.17140386 0.8011229 0.49059406 0.38182792

weight f4 [132, 6]
000000 19 cd 4d 3f c6 6e 9f bd fc 34 de be ba 16 c0 3f
       0.8039108 -0.077848 -0.433998 1.5006936
000010 37 d6 f6 3e 1f 55 8b c0 6b 45 4a 3f 1d 7f 18 be
       0.48210308 -4.3541408 0.79012173 -0.1489224
000020 6c 94 27 bf a7 83 b9 3f cb 6a ef 3e b8 32 8b c0
       -0.6546085 1.4493302 0.46761164 -4.3499413
000030 58 bc c8 bf 14 a6 cc 3f f5 df c7 be 0c d5 99 bf
       -1.5682478 1.5988183 -0.39038053 -1.2018142
000040 e9 8c db bf 5e cb 08 40 c4 35 3b 3f f6 a1 92 bd
       -1.7152377 2.1374125 0.73128915 -0.07159798
000050 2a 06 08 bf b2 22 a8 3f a6 99 7a 3e 72 3c 79 c0
       -0.53134406 1.3135588 0.24472675 -3.8943143
000060 ae b7 3f 3f b2 2f d6 bd 0c 53 05 bf e3 4e c3 3f
       0.7488965 -0.10458316 -0.52079844 1.5258449
000070 08 35 f9 3e 8b 5a 85 c0 b7 95 d5 bf f9 f8 a6 bf
       0.48673272 -4.1673026 -1.6686314 -1.304473
000080 73 ef 39 3f 62 9f bc 3f ab 19 0a c0 b9 23 2a c0
       0.72630996 1.473614 -2.1578166 -2.6584303
000090 35 09 da bf e3 6a 9f bf 1e 9a e8 3e ee 4c d4 3e
       -1.703406 -1.2454494 0.45430082 0.41464943
0000a0 5a d6 0d c0 99 3c 11 c0 6f 83 dc bf 72 b8 88 bf
       -2.216208 -2.2693236 -1.722761 -1.0681288
0000b0 b8 6d 39 3f 7c 1e d2 3e 57 11 0e c0 a9 a6 d3 bf
       0.7243304 0.41038883 -2.2198083 -1.6535236
0000c0 cd 27 bb bf e0 80 83 bf 99 b7 0f 3f 56 46 09 3f
       -1.4621521 -1.0273705 0.5613952 0.5362295
0000d0 a3 d0 08 c0 86 02 c8 bf 7c 61 dc bf 63 13 a6 bf
       -2.1377342 -1.562577 -1.721725 -1.2974666
0000e0 e1 39 37 3f 80 89 ab 3f d9 c5 08 c0 04 81 f7 bf
       0.7157269 1.3401337 -2.1370757 -1.9336247
0000f0 e7 4b 9e bf 8e b2 81 bf a0 93 a2 3e 4e e7 b7 3e
       -1.2366914 -1.0132616 0.31753254 0.3591866
000100 9f 71 05 c0 92 59 c4 bf e9 a2 d5 bf 74 af 9b bf
       -2.08506 -1.5339835 -1.6690341 -1.2162919
000110 7f 2f 26 3f 68 b5 85 3f b0 1d 0f c0 3c 06 fe bf
       0.64916223 1.0445986 -2.236187 -1.9845653
000120 f0 54 96 bf 06 01 97 bf a8 ef f3 3e b4 a4 2c 3f
       -1.1744671 -1.1797187 0.4764378 0.6743882
000130 fb 94 0d c0 c9 6b c6 bf 07 db 53 3f 53 98 1b be
       -2.212218 -1.5501643 0.82756084 -0.15194826
000140 9b 66 d1 be 28 d8 b5 3f b6 ed 07 3f 37 4b 8b c0
       -0.40898594 1.4206591 0.53097093 -4.3529315
000150 02 fb 52 3f 35 87 1a be fc a4 d1 be d2 e0 b8 3f
       0.8241426 -0.1509064 -0.40946186 1.444361
000160 d3 bb 0a 3f 5a 83 80 c0 fa 92 41 3f b8 c6 ca bd
       0.54192847 -4.016034 0.75614893 -0.09901184
000170 40 71 ff be 4f 27 c3 3f 95 a6 f8 3e fe 25 85 c0
       -0.4989109 1.5246371 0.48564592 -4.1608877
000180 36 cd 43 3f 1a 1c 0f be ec 9e 1c bf 5e d0 c0 3f
       0.76485 -0.13975564 -0.61179996 1.5063589
000190 e0 e7 f3 3e 92 16 88 c0 80 cc d5 bf db c6 aa bf
       0.47637844 -4.252755 -1.6703033 -1.3341936
0001a0 88 57 5c 3f 51 99 5d 3f 47 c6 12 c0 2b 55 c0 bf
       0.8607106 0.8656207 -2.293352 -1.5025991
0001b0 dd 36 d5 bf 2c f2 b8 bf 13 78 25 3f 5c 35 00 3f
       -1.6657368 -1.4448905 0.64636344 0.5008142
0001c0 14 b5 08 c0 cf 90 a7 bf 5e 30 02 3f c4 96 a5 be
       -2.1360521 -1.3091067 0.5085505 -0.32341588
0001d0 47 94 2e bf ad e6 b9 3f d0 18 8f be be 9c 72 c0
       -0.68195003 1.4523522 -0.27948618 -3.7908168
0001e0 17 a4 00 c0 4d c4 72 bf 87 33 44 3f e9 62 92 3e
       -2.0100152 -0.9483078 0.76641124 0.28591087
0001f0 96 8f 13 c0 15 18 b5 bf ed 1e d3 bf 68 8c 86 bf
       -2.3056388 -1.4147974 -1.6493813 -1.0511599
000200 7a 5b cc 3e c3 b0 a3 3e ea 55 14 c0 41 df 88 bf
       0.3991354 0.31970796 -2.3177438 -1.0693132
000210 f3 d6 2b 3e 7a 42 10 bf 36 8c f6 be 45 ed b3 3f
       0.16781215 -0.56351435 -0.48153847 1.4056784
000220 9b 87 a6 bf 54 78 75 c0 3e 09 4c 3f 9e 92 a2 bd
       -1.3010134 -3.8354692 0.797016 -0.07938121
000230 80 8c ec be d8 88 c1 3f 2f 8b f4 3e 0a 31 8d c0
       -0.46200943 1.5119886 0.4776244 -4.412236
000240 e4 44 48 3f c4 71 ee bd fb 62 0a bf 96 50 c2 3f
       0.7823012 -0.11642793 -0.5405728 1.5180843
000250 27 f6 f7 3e 6b 32 84 c0 65 f5 4a 3f d8 af 06 be
       0.48429987 -4.1311545 0.7928069 -0.13153017
000260 c0 30 2b bf e0 02 bf 3f 0e c5 e9 3e 8a 77 83 c0
       -0.6687126 1.4922752 0.45658153 -4.108342
000270 94 f8 e9 bf 5b 9b d2 be c9 79 8b be 8e e5 2d bf
       -1.8278985 -0.41134152 -0.27241352 -0.679284
000280 9d cf ff bf 7b 91 13 bf 5c 01 09 c0 a1 41 cb 3f
       -1.9985234 -0.5764386 -2.140708 1.5879403
000290 e4 64 3c bf 75 65 96 3d 03 e8 24 c0 5b c2 dc bf
       -0.73591447 0.0734357 -2.5766609 -1.7246813
0002a0 8e 16 e9 bf 9f 8e 04 3e 09 82 da bf b6 7d 4c bf
       -1.8210008 0.1294503 -1.7070934 -0.7987932
0002b0 b7 18 05 c0 ea 01 d7 bf b2 01 98 be d1 be ee 3e
       -2.0796335 -1.6797459 -0.29688793 0.46629956
0002c0 c9 93 dc be 16 d0 5d 3f a0 1c cc bf eb 12 41 c0
       -0.430815 0.8664564 -1.5946236 -3.0167797
0002d0 f5 10 55 3e ac df ce 3c 9b d9 2b bf f3 4a 99 3f
       0.2080725 0.02525314 -0.67128915 1.1975998
0002e0 31 c0 a1 bf 81 eb 5c c0 8c 0a 72 bf 97 81 6e 3f
       -1.2636777 -3.451874 -0.94547343 0.9316649
0002f0 8d 6f 32 3f ea 4f 33 bf d2 7a 91 bf 9f e4 c1 3f
       0.69701463 -0.70043814 -1.1365607 1.5147895
000300 5d 28 de bf 7a 9d a6 3c 85 34 82 3e c1 ad 0b bf
       -1.7356068 0.020338763 0.25430694 -0.54562
000310 ca 95 f9 bf 18 c4 e8 bf 2a 2b bf 3e ea bb cc be
       -1.9498837 -1.8184843 0.3733762 -0.39987117
000320 e1 aa d6 be 08 9f ab 3f 52 5f 88 bf 9a e3 62 c0
       -0.41927245 1.3407907 -1.065409 -3.5451417
000330 31 98 ef bf 06 44 f3 bd 24 ab 38 3f 01 56 97 3e
       -1.871832 -0.11878209 0.7213614 0.29557803
000340 3b 69 0f c0 4b 54 9a 3d 4d 72 4d 3f da 99 be bd
       -2.2407978 0.07535609 0.80252534 -0.093066886
000350 52 af 00 bf ae 0c c0 3f 2b a1 f3 3e ca 24 8b c0
       -0.5026752 1.500387 0.475839 -4.348241
000360 a7 c4 d6 bf 2a b3 01 3f 44 80 8f bf 40 9a 6d bf
       -1.6778764 0.5066401 -1.1211019 -0.9281349
000370 5a 4a 03 c0 ce cb f0 be 9d 84 d0 bf f1 80 81 bf
       -2.051413 -0.4703049 -1.629047 -1.0117475
000380 26 1d ce 3e 84 b9 10 bf 84 e6 07 c0 26 ac 5d bf
       0.40256613 -0.56533074 -2.1234446 -0.865908
000390 65 08 56 3f 7a 56 17 be ad 52 bf be 1c da b5 3f
       0.8360656 -0.14779082 -0.37367764 1.4207187
0003a0 5b 2a 0a 3f a1 3a 89 c0 f3 ef d9 bf 03 82 b1 3f
       0.5397088 -4.288407 -1.7026352 1.3867801
0003b0 aa ff c2 be f4 9f 86 bf 3a 43 ff bf 54 8d 9f 3e
       -0.3808568 -1.0517564 -1.9942391 0.31162512
0003c0 bb f1 90 bf f5 c6 53 3f 58 7b 1e bf 76 0f 31 3f
       -1.132377 0.8272546 -0.6190696 0.69164217
0003d0 ac 54 0f c0 b8 fe 1f c0 06 b7 c1 bf c2 a1 85 3f
       -2.239543 -2.4999218 -1.5133979 1.043999
0003e0 69 10 10 bf 9f c4 a0 bf 99 f9 db bf b6 42 9d be
       -0.5627504 -1.2560004 -1.7185546 -0.3071496
0003f0 de 77 51 3f c2 de 26 be 23 43 13 bf 5f 9c b9 3f
       0.8182353 -0.16295913 -0.5752432 1.4500846

bias f4 [132]
000000 e6 22 a5 c0 23 00 aa c0 61 60 35 3f 88 94 96 c0
       -5.16051 -5.3125167 0.7085019 -4.7056313
000010 2f 2c 9b c0 d2 49 25 bf c2 71 6c bf 5d 67 3b c0
       -4.8491435 -0.64565766 -0.9236108 -2.9281838
000020 da ed 92 c0 82 8d ea bf e0 05 8c c0 94 35 fb bf
       -4.5915346 -1.8324435 -4.375717 -1.9625726
000030 10 12 96 c0 c3 f5 9d c0 92 9b a6 c0 62 21 a2 c0
       -4.689705 -4.93625 -5.2064905 -5.066575
000040 cc 30 9e c0 91 9b 40 c0 31 46 78 c0 1b e3 9f c0
       -4.9434566 -3.009495 -3.8792841 -4.996473
000050 62 1b 7e c0 ef 32 8d c0 82 bd 98 c0 f7 3d ab c0
       -3.9704213 -4.4124675 -4.7731333 -5.351314
000060 a0 46 a8 c0 90 71 a2 c0 62 13 ee 3f a8 99 49 c0
       -5.258621 -5.0763626 1.8599665 -3.1500034
000070 96 f6 04 40 91 db 95 c0 b0 04 aa c0 18 de 6b c0
       2.0775504 -4.6830525 -5.313072 -3.6854305
000080 3d d0 55 3f 03 8e 9f c0 c2 5b ad 3e 70 87 92 c0
       0.8352087 -4.9860854 0.33859068 -4.579033
000090 b0 19 49 c0 6e 39 71 c0 8b 1f a2 c0 06 6b 29 3e
       -3.1421928 -3.7691302 -5.0663505 0.16544732
0000a0 ae e7 a3 c0 d3 07 28 3f 7f 37 90 c0 69 9f 4b 3d
       -5.122031 0.6563694 -4.5067744 0.049712572
0000b0 7a 68 8a c0 aa f6 ea 3f 2e 40 8f c0 58 af d8 3f
       -4.3252535 1.8356526 -4.4765844 1.6928511
0000c0 d6 f1 3a bf 5c 1a 2a 40 da 8c b3 c0 a4 7d db bf
       -0.7302526 2.6578588 -5.610944 -1.7147717
0000d0 c5 94 88 3f 36 1a a0 c0 0c e6 61 3e da 73 16 c0
       1.0670401 -5.0031996 0.22060412 -2.350821
0000e0 57 69 00 40 db 4a 01 c0 19 52 bf 3f b6 d2 24 40
       2.0064294 -2.0201938 1.4946929 2.5753608
0000f0 a5 75 9d c0 32 1d 0a 40 88 88 a9 c0 81 c3 98 c0
       -4.920611 2.158032 -5.2979164 -4.773865
000100 68 be b2 3f 40 01 dd be 2b a8 90 3e 8f c3 ed 3f
       1.3964357 -0.43165016 0.28253302 1.8575305
000110 2a f6 94 3f 77 55 e4 bf a6 7d a3 bf 87 79 93 c0
       1.1637623 -1.7838582 -1.277272 -4.608585
000120 24 94 a2 c0 71 26 9e c0 9e 83 4f 40 15 73 af c0
       -5.0805836 -4.9421926 3.2424083 -5.482798
000130 4b b0 a2 c0 0e b4 9a c0 59 72 9e c0 9b bc 3d 40
       -5.08402 -4.8344793 -4.9514585 2.9646366
000140 9a 68 7e be de 0f 19 c0 87 24 3c 40 4c 05 71 3f
       -0.2484459 -2.3915935 2.9397295 0.9414871
000150 1a 03 0a 40 91 b9 b0 c0 47 8f 38 bf 7e 8a a9 c0
       2.1564393 -5.522652 -0.72093624 -5.298156
000160 93 55 8e c0 f6 b9 22 40 2b 29 a5 c0 cd 39 78 c0
       -4.447946 2.5426002 -5.1612754 -3.8785279
000170 ed 51 af c0 79 bc b1 c0 0d fc ac c0 19 8c 57 c0
       -5.4787507 -5.554257 -5.405768 -3.367926
000180 10 f3 98 c0 26 2c b3 c0 b8 96 98 c0 ad e1 b6 c0
       -4.7796707 -5.599139 -4.7683983 -5.7150483
000190 29 d2 a3 c0 48 72 aa c0 fb 72 92 c0 a6 ac ad c0
       -5.1194043 -5.3264503 -4.5765357 -5.4273252
0001a0 b2 1a a4 c0 83 88 a9 c0 29 87 a8 c0 a9 6b ab c0
       -5.1282587 -5.297914 -5.266499 -5.356892
0001b0 ee a3 9a c0 16 a3 9e c0 02 87 a2 c0 e5 68 ae c0
       -4.832511 -4.957408 -5.0789804 -5.4503045
0001c0 19 55 af c0 72 9c a0 c0 0f 04 97 c0 d9 f7 96 c0
       -5.479138 -5.0190973 -4.7192454 -4.717755
0001d0 7b 53 a8 c0 6b 83 9d c0 5b 61 9b c0 b7 1f 9a c0
       -5.2601905 -4.922292 -4.855634 -4.8163714
0001e0 f0 cf b4 c0 3c f6 ad c0 17 5a a0 c0 56 ad 8f c0
       -5.650383 -5.436308 -5.0109973 -4.489909
0001f0 d1 a2 b0 c0 9c 05 9d c0 19 06 ac c0 e0 ab a0 c0
       -5.519875 -4.9069347 -5.3757443 -5.020981
000200 15 3c a3 3e a2 bc a7 c0 89 79 6a be 98 87 32 40
       0.31881776 -5.2417765 -0.22897924 2.789526
