Data/neural-model-state-dict-tokenized-1024-2-4.pth (torch, 107939 bytes, 18 tensors)

lstm.weight_ih_l0 f4 [8, 2379]
00000000: 4a4a dcbe a5c8 99c0 3bca 8cbf 5845 0cbf
00000010: 7fc8 6e3e fef6 19bf 307c 79c0 78ed 60bf
00000020: a532 18bc 92a9 87be 4e03 02bf dad2 cc3e
00000030: dc8c 2dc0 5c24 d13f 73bf 2fbf 692d 03bf
00000040: 6cbd fa3f 8c32 403e 4432 9c3f ca81 2bbf
00000050: c26a 69be f777 93bf 820e 1e40 decc c2be
00000060: 0f50 17be bd99 f33e 8c0d 3140 53b0 623e
00000070: 39ea a040 56b5 fd3e 8b99 833e 4242 d5bf
00000080: cabe ef3d e086 2abe 7e4e e13e 4b8e d23e
00000090: 0923 6ebe 1dad 11c0 179f bcbe b296 5b3f
000000a0: 10f8 05be 2749 db3f fc3f af3f 8789 1d40
000000b0: 68cd 393f e1ee 3ac0 395a b63e 7c7e 88bf
000000c0: 44c7 2cbe 5372 fc3f 1ea6 adbe 7615 b1bf
000000d0: 6639 65c0 aa51 adbf 443b 0340 4925 38bf
000000e0: 9468 d33f f6c0 3440 de90 1c3f 4189 cfbe
000000f0: d449 80bf d776 14bf 7745 433e f5bf 073e
00000100: 866a 583d 24dd 5cbd 4fd9 0d3f 7317 5a3e
00000110: 2570 0e3f 2b79 a4be 893c ccbc ab10 51be
00000120: 2cc5 313e 5b41 033f 38c3 e7be 2807 14be
00000130: cd09 a1bd 9f97 80be 23b7 c23e 416a 8cbf
00000140: f662 e63f 5f29 eebf 4c9a adbe 7eb6 663f
00000150: ca40 9c3f d80c 57c0 719a 323f e4f4 d03d
00000160: ac98 d73d b9b4 c4bf 5260 c8be 7678 fabf
00000170: 1c91 a53f ae11 84be 51db 17bd 5cbe 12be
00000180: 3417 3dbd 422b dcbe c578 2cbf 78b0 a2be
00000190: 8f6d 993e 4bc4 563e 17cf 6cbc 3316 f8be
000001a0: 2726 bb3e e0ba bdbe 05bf 0c3f 429f 1fbe
000001b0: 9965 14be a27f 353c 42c9 313e 5bc6 aabe
000001c0: c07c 263e 8841 05bf 9c7c 1bbf 72f8 083f
000001d0: af6e 0f3e 6ecc 37be bcdc 053e f60c d0be
000001e0: 3218 873e 7974 743e aaf7 f43d ba34 163f
000001f0: efe1 243f 77aa 403e b4cf a239 2c39 cf3e
00000200: 110e 9b3e c991 ccbe a719 04bf b7c3 a83e
00000210: 4545 e2be 0d5f fb3d 9e58 febe 63d2 f83d
00000220: 7411 a63f 883b e73e 7267 d9bd 325d ef3f
00000230: 8f51 28bf 062c 12be 3483 373d 251b c83e
00000240: eb90 e23d 3343 0ebf 25c5 713d e4d7 783e
00000250: 11d9 663e 4559 9cbe 3ca3 323f e890 193e
00000260: 280b 29bf 1b2a eebe 386d b63c 711b 12bf
00000270: 07db 0fbe eee1 af3e b038 d13c 8f91 b63e
00000280: 716a 1ebf 1252 c13e 5221 1cbf 4c4f d03e
00000290: e154 413c 54c3 bdbe 45ec cdbe cc54 cc3e
000002a0: 16f2 763d b47a b53e 823e 0bbf 113f 523e
000002b0: c787 a63d 3514 323f 0449 ea3e 5c4d 313d
000002c0: 2c5a 0abf dd83 1dbf fe0b b6ba 1160 d9bd
000002d0: a55e e53e 45fb de3d 23ee e43e 39fb b9be
000002e0: f6e1 05bf 1286 07bf a6b5 b5be 2433 a93e
000002f0: 6450 133f 161d 1ebf e2b9 003f 1a73 833f
00000300: 126e e53f 6f4a eb3e 43b5 4f3f c83f b63e
00000310: ce56 3ec0 0e0f 89c0 9fee 863f dc95 283f
00000320: 31f0 983e bbda 2d3f ceb7 48be 5e8f 2abe
00000330: b86e 3b3f 36ad ffbe c574 c23e f140 b7be
00000340: e9bc e93e 9153 e4bd 0e83 46bc b51d 7fbe
00000350: 89f7 213f 1216 a53e 4690 4e3e 041c 183f
00000360: ffa3 1b3f ca40 bf3e fe76 b93d 0cd6 19be
00000370: fbfe 39be 15b6 e13e 4bb4 1e3f 1e23 1fbe
00000380: bf91 ebbe 3a54 c5be b2d2 703e 0ba1 333f
00000390: ae8d 47be 6b30 313f b728 c83d 6caa 813b
000003a0: d959 1f3f e172 123f fda9 033e 4c50 363e
000003b0: 859b 0a3f 8a96 8abe fecf 7e3e ddd5 6ebe
000003c0: ce7d 233f 46ae 2d3f b63f ed3e de60 88bc
000003d0: 5681 7c3e 722d 3e3e 1e0d 42bf ecd2 243f
000003e0: 4223 93bf a84b 643e d28b bb3e a060 223f
000003f0: d93e 15bf 3d47 d3be bdc2 17bf 451f 863e
-0.43025428 -4.8057427 -1.0999216 -0.5479331 0.2331867 -0.60142505 -3.8982048 -0.8786235
-0.009289418 -0.2649656 -0.5078629 0.40004617 -2.7117224 1.6339221 -0.68651503 -0.51241165
1.9589057 0.18769282 1.220284 -0.6699492 -0.22794631 -1.1520985 2.4696355 -0.38046926
-0.14776634 0.4757823 2.7664518 0.22137575 5.0285916 0.4955241 0.2570308 -1.6660845
0.11706312 -0.16653013 0.44005197 0.41124186 -0.23255552 -2.276191 -0.36840126 0.8577682
-0.1308291 1.7131699 1.3691401 2.461519 0.7257905 -2.92083 0.3561571 -1.06636
-0.16872889 1.9722389 -0.339158 -1.3834674 -3.5816283 -1.3540547 2.0504923 -0.7193189
1.651629 2.8242774 0.6115855 -0.40534404 -1.002253 -0.57993835 0.19069467 0.1325682
0.052835964 -0.053921834 0.5540971 0.21298008 0.5563987 -0.32123694 -0.02493121 -0.20416515
0.17360371 0.512716 -0.45266128 -0.14455855 -0.078631975 -0.25115678 0.38030347 -1.0969926
1.799895 -1.8606375 -0.33906782 0.9012221 1.2207272 -3.360159 0.6976691 0.10202959
0.10527167 -1.5367652 -0.39135987 -1.9568012 1.2934909 -0.2579474 -0.03707439 -0.14330429
-0.046164706 -0.43001753 -0.6737178 -0.3177526 0.299664 0.20973317 -0.014453671 -0.48454437
0.36552545 -0.37056637 0.5497897 -0.15588096 -0.14491881 0.011077793 0.1736193 -0.33354458
0.16258526 -0.5205312 -0.60737014 0.535041 0.14007066 -0.17949077 0.13072485 -0.40634888
0.26385647 0.23872556 0.11961301 0.58674204 0.6440725 0.18815027 0.000310538 0.40473306
0.3028417 -0.39954975 -0.5160164 0.3296182 -0.44193473 0.12273989 -0.49676985 0.12149503
1.2974076 0.45162606 -0.10615434 1.8700316 -0.6574945 -0.14274606 0.04480286 0.3908321
0.11062797 -0.5557129 0.059025902 0.24301106 0.22543742 -0.30536857 0.69780326 0.14996684
-0.6603265 -0.465165 0.022268876 -0.5707312 -0.14048396 0.34352058 0.025539726 0.35657927
-0.61881167 0.37757927 -0.6098834 0.406855 0.011800022 -0.37063086 -0.40219322 0.39908445
0.060289465 0.35445178 -0.54392254 0.2053187 0.08131366 0.69562083 0.45758832 0.043286666
-0.5404384 -0.6152933 -0.0013889072 -0.10614026 0.4479877 0.108877696 0.44712934 -0.3632448
-0.52297914 -0.5293895 -0.3549015 0.3304683 0.5754454 -0.6176313 0.50283635 1.0269501
1.7924216 0.45955226 0.8113596 0.35595536 -2.9740481 -4.2830877 1.0541571 0.6585367
0.29870752 0.6791188 -0.19601366 -0.16656253 0.7321582 -0.49936837 0.37979713 -0.35791734
0.4565194 -0.111487515 -0.012116207 -0.24913676 0.63268334 0.322434 0.20172223 0.5941775
0.60797113 0.37354118 0.09055899 -0.15023059 -0.18163674 0.4408423 0.61993855 -0.1554074
-0.46009633 -0.38540822 0.23517874 0.7016761 -0.1948764 0.69214505 0.09773391 0.0039570834
0.6224647 0.5720654 0.12857814 0.17804068 0.54143554 -0.27067977 0.2488403 -0.2332377
0.6386384 0.67844045 0.4633767 -0.016647752 0.24658713 0.18572024 -0.75801265 0.6438434
-1.1495135 0.22294486 0.36630112 0.6342869 -0.5829902 -0.41265288 -0.5928152 0.26195732

lstm.weight_hh_l0 f4 [8, 2]
00000000: f2ab 7540 e13b 0bc0 5df4 8e3f 81e0 1340
00000010: 75b1 19c0 6206 c8bf ce47 4bc0 51d6 28bf
00000020: 52a2 223f 3076 233f 00fe 243f 345c 2cbf
00000030: ad09 b43f c63d 3cbf b6fd 1f40 8021 99c0
3.8386197 -2.1755297 1.1168324 2.3105776 -2.401456 -1.5626948 -3.1762576 -0.6595202
0.6352893 0.63852215 0.64450073 -0.6732819 1.4065453 -0.7353176 2.4998603 -4.7853394

lstm.bias_ih_l0 f4 [8]
00000000: b47d 033f 4589 abbe 8624 ee3e f547 aabe
00000010: a000 09c0 2db0 403f ba3c 8b40 9583 7e40
0.5136368 -0.33503166 0.4651224 -0.33258024 -2.1406631 0.7526882 4.351163 3.9767811

lstm.bias_hh_l0 f4 [8]
00000000: 906f 6c3e 4b0d 63be 1fec 163f 8d93 6bbf
00000010: ee5a a0bf e0a8 383f c50c 4d40 91a5 4640
0.23089433 -0.2217304 0.5895404 -0.9202202 -1.252775 0.7213268 3.2039044 3.1038554

lstm.weight_ih_l1 f4 [8, 2]
00000000: 7820 86c1 e062 edbd ab18 ff3e e0e1 a440
00000010: 2628 59c1 edd0 2ec0 f5a5 e7c0 4748 4ec0
00000020: 7b47 5f41 111c b440 0a93 56bf 5e86 8a40
00000030: eef2 4ec1 e673 57bf a4dd 1ec1 2423 2ac1
-16.765854 -0.115911245 0.49823508 5.1525726 -13.572302 -2.7315018 -7.2390084 -3.2231615
13.954951 5.628426 -0.83818114 4.3289022 -12.934309 -0.8416122 -9.9291115 -10.633579

lstm.weight_hh_l1 f4 [8, 2]
00000000: 2326 e3bf 49e6 0a40 7bd7 333f 8f32 2ec1
00000010: 0350 3dc0 2522 ac40 8e76 26bf f041 1ac0
00000020: 2bbb 0440 d8de 0240 4207 33c0 a745 2540
00000030: 9eb4 70c0 1fe9 8540 c235 2ac0 5e6b ebc0
-1.7746013 2.1703055 0.7025067 -10.887343 -2.9580085 5.379168 -0.6502465 -2.4102745
2.0739238 2.0448513 -2.797318 2.5823762 -3.761024 4.184707 -2.659531 -7.3568563

lstm.bias_ih_l1 f4 [8]
00000000: e3c9 3740 9440 583f 6245 10c0 0024 2240
00000010: 5bca 8c3e 3a0d 91c0 ed4f 1440 df48 20c0
2.8716972 0.8447354 -2.2542348 2.5334473 0.27498135 -4.5328646 2.3173783 -2.5044477

lstm.bias_hh_l1 f4 [8]
00000000: 3e9a 6240 63d7 c8be 493c f7bf 2d72 4f40
00000010: 161a 91bd adc4 4fc0 7029 4440 0517 08c0
3.5406642 -0.39226827 -1.9315273 3.2413437 -0.070850536 -3.2463791 3.0650291 -2.126405

lstm.weight_ih_l2 f4 [8, 2]
00000000: 46bc a7be 2a82 d23f 3227 f83f 34c7 5dc0
00000010: dac5 0cbd b7b7 b0be 2644 113f b4b2 dac0
00000020: eb3f 003d 7a33 683f 7408 b0bf 7664 8640
00000030: 15f8 9f3e b7a1 dd3e f471 d53c f69e 57c1
-0.3276083 1.6445973 1.9386961 -3.4652834 -0.034368373 -0.34515163 0.5674461 -6.8343143
0.031310957 0.90703547 -1.375258 4.1997633 0.3124396 0.4328744 0.026055314 -13.476309

lstm.weight_hh_l2 f4 [8, 2]
00000000: f4c7 0dbf 7def c2bf 9af3 d33f aaa1 89bf
00000010: fbe3 c53f dff7 00c0 48ff 1640 2568 18c0
00000020: ee68 223f 0be4 34c0 45d0 96bf cd3e c33f
00000030: ae74 f23e 8249 1941 6751 fbbe 3d82 7bc0
-0.5538323 -1.5229336 1.6558716 -1.0752461 1.5460199 -2.0151289 2.3593311 -2.3813565
0.6344136 -2.8264186 -1.1782309 1.525354 0.47354645 9.580446 -0.49085543 -3.929824

lstm.bias_ih_l2 f4 [8]
00000000: c60e 2b3f ec4a a53f 6bff dd3f a1c5 133f
00000010: 7eee 123f ef70 17bf ec52 023e fdd3 bcbf
0.6681942 1.2913489 1.7343572 0.5772343 0.5739516 -0.591567 0.12726945 -1.4752194

lstm.bias_hh_l2 f4 [8]
00000000: 9b3c 1ebf 10dd ab3f f89f b03f bb2b 643d
00000010: e780 903f 2848 fdbe e7cf 553e b171 aebf
-0.61811227 1.3426838 1.3798819 0.055705767 1.1289338 -0.49469113 0.2088009 -1.3628446

lstm.weight_ih_l3 f4 [8, 2]
00000000: 9530 02bf 2da9 32bf 552c 823f 20d4 2ebf
00000010: 9f29 8c3f ca39 73bf 5167 953f 6dc5 96bf
00000020: f245 25bf bd18 203f b959 253f b497 91be
00000030: 7598 e340 ffdc c040 4e38 e440 9915 b2be
-0.5085538 -0.6978939 1.0169779 -0.6829243 1.0950202 -0.95010054 1.1672155 -1.1779
-0.64559853 0.6253775 0.6459003 -0.28436053 7.1123605 6.026977 7.131873 -0.34782103

lstm.weight_hh_l3 f4 [8, 2]
00000000: 2349 183d c975 c33d 6632 83bf e25f 1cbe
00000010: 9b90 65bf 2ef0 293f ff9b 3fbe 429a c43e
00000020: 950f 553f 0eb8 b1be dfd5 19be 1030 51be
00000030: d604 bfc0 7aef aa3f 6c10 97bf ec42 9640
0.037179124 0.0954395 -1.0249755 -0.15270951 -0.89673775 0.6638211 -0.18711852 0.3839894
0.832269 -0.34710735 -0.15022992 -0.2042849 -5.9693403 1.3354332 -1.1801887 4.695669

lstm.bias_ih_l3 f4 [8]
00000000: 1d95 1a3f 3274 be3f e4ce 683f 1af7 473f
00000010: 8226 a7bf 73c7 8a3f 45c2 b0bf 71a9 0ec0
0.6038378 1.487921 0.9094069 0.7811142 -1.3058627 1.0842117 -1.3809286 -2.229092

lstm.bias_hh_l3 f4 [8]
00000000: 555f 4cbc ef2f 803e 91e4 303f 2326 563f
00000010: 588c 61bf 239e 563f dc78 19c0 d654 30c0
-0.012473901 0.2503657 0.69098765 0.8365194 -0.8810477 0.8383505 -2.3980017 -2.755178

fc.weight f4 [2379, 2]
00000000: d3be f8bf c63c 0c40 8987 debf 47d0 0140
00000010: debb febf d1b6 0140 d313 edbf 54da 0340
00000020: c5ed e7bf 0d7d 1340 a589 f6bf 11a0 0240
00000030: c891 f7bf df4b 0940 4ecd 12c0 377d 0b40
00000040: f906 3c40 974b 3cc0 b8a4 2b40 2f75 31c0
00000050: 024c 5940 7ae2 58c0 924b 3340 27ff 54c0
00000060: 903a 00c0 5bbd 0f40 0b3c f7bf a217 0a40
00000070: 5f87 e4bf c954 1540 6fc2 f4bf 6634 0840
00000080: 544b f8bf 18f6 0440 1c4b 08c0 f2c5 d33f
00000090: 4c93 0bbf c663 353f 61ca 81bf 9e98 463f
000000a0: aa00 91bf 240e 6a3f 952c e93e 33c4 31bf
000000b0: 8ae4 92bf d890 853f 6a70 aebf 0e62 9f3f
000000c0: 6964 2c40 8429 18c0 7537 52bf 19c2 943f
000000d0: 0ee3 dfbf 9dc2 eb3f 549c fabf 7dea 0440
000000e0: 439d c4bf 454b da3f fbca 4e40 294b 54c0
000000f0: 3c61 57bc a48d 18be 93bf 63bf 612b 8b3f
00000100: 14f0 3040 f65e 2cc0 e357 6fbf 9203 903f
00000110: f934 04bf 3053 263f b868 33bf 7899 3c3f
00000120: 9753 3a40 ab9c 54c0 e566 78bf 1243 903f
00000130: 5996 03bf 7f7b d23e 67b5 5dbf 3541 5a3f
00000140: 8404 b3be cf44 56bd c8e3 8cbf af3d 883f
00000150: 99a4 bbbf 6cc5 a83f 5324 4abf a3cb 593f
00000160: c40b 8abf da19 b53f fc7d c2bf c005 be3f
00000170: 4765 333e 32c6 513f da9a c2bf 1059 f33f
00000180: 6d82 93bf bc07 b53f 7620 a6bf 2e90 b03f
00000190: 7e6f 7dbf 8191 983f b42e 43bf 8a5a 6e3f
000001a0: 9aa5 81bf 41aa 8e3f e7bf 7bbf b765 843f
000001b0: 3896 89bf ab73 923f dde5 5bbf 19c4 623f
000001c0: 08ec 68bf 6c45 583f 07ad c7bf 6d95 de3f
000001d0: 3720 91bf f9b8 9c3f 124a 89bf 98b7 993f
000001e0: ac24 d4bf 60c1 f83f 6dea 2140 dc11 25c0
000001f0: 541f 3840 23a6 2ec0 c55a 2f40 d2d9 42c0
00000200: fb67 4740 ede1 27c0 9e8e 4240 11b4 37c0
00000210: 3f70 5640 93c4 49c0 16d4 1c40 6ece 2ac0
00000220: cac3 5c40 1723 2ec0 29df 3240 56a7 40c0
00000230: 77a8 4a40 6086 1ac0 0cf1 1740 f935 1ec0
00000240: a9c6 5f40 adeb 4ec0 1185 2640 2159 29c0
00000250: baaa 2540 4899 1fc0 c294 3540 b1db 3dc0
00000260: 2dc5 1340 72c3 02c0 38a3 5f40 b963 2cc0
00000270: 69db 1840 eae3 2ac0 88c6 3dbf f883 853f
00000280: 731f 54bf acfe 233f 8079 c9bf 42e4 e73f
00000290: 0ab5 afbf 458b d43f 8137 b9bf c19b d13f
000002a0: 405c 92bf fe85 c03f 9801 d7bf 33d8 d73f
000002b0: 4dbe cbbf 74e7 fd3f a944 86be 5423 9c3f
000002c0: 09d3 d2bf 715f c53f 9f2a 6ebf 394a 823f
000002d0: da75 c9bf 92eb 8f3f 560e c4bf 943d de3f
000002e0: 2a09 95bf 44f4 8d3f 9446 ffbf 7288 1040
000002f0: 01eb 6740 24ab 59c0 77e1 81bf 5ae4 463f
00000300: c47e 5740 e2d0 17c0 a3a8 2340 6f17 0fc0
00000310: e7a6 3b40 ea95 4bc0 3a65 4440 f0ab 3ac0
00000320: e951 5840 4d75 29c0 6d4e 3640 8c20 41c0
00000330: 5bef 4840 62dc 1fc0 368a 5140 6011 47c0
00000340: 6f22 3740 196f 3ac0 1527 1f40 e0c2 13c0
00000350: 639a 5b40 339d 59c0 1d31 1940 3af2 18c0
00000360: b36b 4c40 991f 37c0 12b4 2d40 ac48 1ac0
00000370: 4ad0 3140 87c6 27c0 32ea 3f40 ee81 4ec0
00000380: 06aa 2c40 0f0c 39c0 abd5 5040 45de 41c0
00000390: eedf 1d40 1ec6 24c0 e00b 3140 84c7 48c0
000003a0: 21e5 1740 5993 0fc0 8fa6 3a40 b414 2ec0
000003b0: b0ce 1b40 c572 46c0 91d7 1d40 3263 0fc0
000003c0: d00b 5740 7461 22c0 ed3c 2d40 5540 2fc0
000003d0: d6b2 1e40 0ff8 13c0 f571 4c40 fca6 31c0
000003e0: d142 4740 b9da 15c0 df7c 1740 5b7f 0bc0
000003f0: 0889 3940 1eb3 3cc0 f1c4 5e40 5541 52c0
-1.9433235 2.1912093 -1.7385112 2.0283372 -1.9901083 2.0267832 -1.8521675 2.0602007
-1.8119437 2.3045075 -1.9260756 2.0410197 -1.9341364 2.1452558 -2.2937808 2.1795175
2.9379256 -2.9421136 2.6819286 -2.7727773 3.3952641 -3.388823 2.8014874 -3.3280733
-2.0035744 2.2459323 -1.9315199 2.1576924 -1.7853812 2.3332999 -1.9121836 2.1281981
-1.9397988 2.0775204 -2.1295843 1.6544783 -0.5452163 0.7085537 -1.0139886 0.77576625
-1.1328328 0.91427827 0.45541826 -0.6944 -1.1475995 1.0434828 -1.3628056 1.2451799
2.6936285 -2.377534 -0.8211587 1.1621734 -1.7491167 1.8418766 -1.9578958 2.076812
-1.5360492 1.705422 3.231139 -3.3170874 -0.013145741 -0.14897782 -0.88964194 1.0872613
2.7646532 -2.693296 -0.9349348 1.125109 -0.5164333 0.64970684 -0.70081663 0.73671675
2.911352 -3.3220623 -0.97032005 1.1270468 -0.5140129 0.41109845 -0.86604923 0.8525575
-0.34964383 -0.052311715 -1.1007013 1.0643824 -1.4659606 1.3185248 -0.78961676 0.8507635
-1.078484 1.4148514 -1.5194697 1.4845505 0.17519103 0.8194305 -1.5203507 1.9011555
-1.1524178 1.4142985 -1.2978656 1.3794 -0.9899825 1.1919404 -0.7624314 0.931069
-1.0128663 1.1145707 -0.98339695 1.0343541 -1.0748968 1.1441549 -0.8589762 0.8858047
-0.90985155 0.8448093 -1.5599679 1.7389351 -1.1337956 1.2243949 -1.072573 1.2009153
-1.6573691 1.9434013 2.5299332 -2.579215 2.876912 -2.7288902 2.7399151 -3.0445447
3.1157215 -2.6231644 3.0399547 -2.8703654 3.350601 -3.152623 2.4504447 -2.6688495
3.44945 -2.7208917 2.7948706 -3.0102134 3.1665323 -2.4144516 2.3740873 -2.4720442
3.4965003 -3.2331345 2.6018717 -2.646065 2.5885453 -2.4937305 2.8372045 -2.966534
2.3089097 -2.043179 3.494337 -2.6935866 2.3883917 -2.6701608 -0.7413106 1.0430899
-0.8286049 0.64060473 -1.5740204 1.8116534 -1.3727124 1.6605002 -1.4470063 1.6375657
-1.1434402 1.5040891 -1.6797361 1.6862854 -1.591745 1.9836259 -0.2622426 1.2198281
-1.6470653 1.5419751 -0.93033785 1.0178901 -1.573909 1.1243765 -1.5316875 1.7362542
-1.1643422 1.1090169 -1.9943414 2.258328 3.6237185 -3.4010706 -1.0146931 0.77692187
3.3671122 -2.3721242 2.5571678 -2.2358053 2.932062 -3.181025 3.0686784 -2.9167442
3.3799994 -2.6477845 2.8485367 -3.0176115 3.139609 -2.497826 3.2740607 -3.1104355
2.8614767 -2.9130309 2.4867604 -2.3087692 3.431298 -3.4002197 2.3936226 -2.3897843
3.1940734 -2.8613036 2.7141156 -2.4106855 2.778338 -2.6214921 2.9986691 -3.2266803
2.6978774 -2.891361 3.2630413 -3.0291913 2.4667926 -2.574592 2.7663498 -3.1371775
2.37336 -2.2433684 2.916416 -2.7200136 2.4344902 -3.100755 2.4662821 -2.2404294
3.360096 -2.537198 2.7068436 -2.7383015 2.4796653 -2.3120153 3.1944554 -2.775817
3.1134531 -2.3414748 2.3669965 -2.1796482 2.8989887 -2.9484324 3.4807703 -3.2852376

fc.bias f4 [2379]
00000000: 5877 0140 bcf4 d93f 0bfd dabe f83b 67c0
00000010: 44d2 3a3f d0df 23c0 06ca 2e3f f0b1 34c0
00000020: e9f2 1dc1 1905 1cc1 3fba 1fc1 cd38 0ec1
00000030: fbbb e8be 7bf8 9abf c07a d1c0 9e10 91bf
00000040: f8c8 04c0 a270 aec0 83ef 6a40 30b9 c5c0
00000050: 5c37 6640 160c 983e d01f 4a40 06b3 83c0
00000060: 90ae 0bc1 0872 ebbf 6585 a43f 999c d1c0
00000070: d341 0b40 d5ea 26c1 3f53 b2bf 4009 82c0
00000080: 194c 13c1 6073 bc3f 1e3f 8ac0 03f8 0540
00000090: cc4f 21c1 99f0 0c40 c322 95c0 d4da 4240
000000a0: 6d04 f9bf fe14 4940 1bb8 b63f 8228 7440
000000b0: fce6 693e e281 1540 918b e3c0 8d51 bc3f
000000c0: 804e c9bf aff7 6940 e1a9 8cbe 4cde 8240
000000d0: b9b3 8b40 2a07 6740 f3e6 6140 9baa bb3f
000000e0: 0014 e03f db4c 3340 0f22 5440 6f61 81be
000000f0: 977c 00bf 6f99 11c1 8564 15c1 41b6 1ec1
00000100: 323d 19c1 ac72 19c1 b4c8 24c1 cc3b 0bc1
00000110: f235 23c1 9436 18c1 81b5 13c1 46db 0ac1
00000120: 9007 17c1 037c 1ec1 d40d 0ac1 7115 0fc1
00000130: 41e1 e2c0 f90b 1ac1 94cc 0fc1 1d85 2140
00000140: 0ee9 4140 856a 35bf 0b03 5cc0 7aeb f73e
00000150: ad39 22bf 30b2 1640 b8aa 38c0 da19 d4c0
00000160: 4843 b8bf 9f30 483e 77ee c7c0 7351 1f3f
00000170: 5079 8f3f 72b2 f2bf 9d97 1bc1 056c 89c0
00000180: a7c4 0ac1 e4a1 0bc1 3712 15c1 f004 15c1
00000190: 873a 1bc1 f9c9 1cc1 cbe9 0fc1 aa93 0fc1
000001a0: 65f9 21c1 8e24 06c1 d04c 23c1 9102 0cc1
000001b0: d9ca 17c1 f3f7 09c1 d0ed 13c1 d95b 16c1
000001c0: 2ac2 14c1 31f2 1bc1 fc2b 0ec1 9d0e 19c1
000001d0: 8261 07c1 03f7 10c1 145b 13c1 108b 0ac1
000001e0: 040f 11c1 130d 11c1 7d10 0cc1 cbba 0dc1
000001f0: 5771 10c1 59e4 0cc1 511a 19c1 b853 23c1
00000200: 4b22 1fc1 a802 13c1 a0f3 10c1 69c8 0ac1
00000210: 45a0 1bc1 2fb8 1ec0 2e3b 523f 9cb7 c5c0
00000220: 071c acbf ba5a 13c1 d049 14c1 755b 74c0
00000230: 9c45 c5c0 e1b6 12c1 51ea 1ec1 f079 1dc1
00000240: 1d78 0fc1 5a79 c9c0 855b 16c1 e879 16c1
00000250: 2736 20c1 d70c 15c1 97b4 0cc1 cd87 1dc1
00000260: d409 18c1 2c04 19c1 ddae 26c1 85bd 13c1
00000270: 9f28 23c1 918c 08c1 45a3 1bc1 c629 12c1
00000280: 9d80 0fc1 06e2 26c1 46b7 19c1 c92c 1cc1
00000290: 97f7 14c1 40e9 17c1 b7da 07c1 36b0 21c1
000002a0: 6717 16c1 eaf8 12c1 0050 09c1 7390 1ec1
000002b0: dc03 25c1 02e5 19c1 fb5a 15c1 cb54 1fc1
000002c0: 272f 1fc1 55c3 1cc1 7364 1fc1 b9fb 10c1
000002d0: bdd1 22c1 7422 0fc1 fd6d 22c1 41ce 13c1
000002e0: afa2 1fc1 d108 21c1 f3c6 11c1 9389 0fc1
000002f0: 2776 14c1 805f 9cc0 4f13 09c1 392c 8bbf
00000300: 627a a03e 0665 3fc0 cfe3 dac0 7d0e 153f
00000310: c020 6dbf 8387 103f a818 9dc0 821b 22c1
00000320: 7ffb b73f 3734 9940 bfae b6c0 ff3e bf3f
00000330: 7c6e adbf d713 43c0 34ba 0dc1 024a 1dc1
00000340: 777c 1cc1 e721 16c1 3b74 16c1 fa4d 12c1
00000350: a380 18c1 131c 21c1 2f03 23c1 4244 19c1
00000360: 9a1a 1ec1 5a41 24c1 66ff 12c1 bdff 13c1
00000370: 6afe 15c1 853d 13c1 f02d 1fc1 2293 14c1
00000380: 7c91 19c1 4161 18c1 750e 1bc1 04b5 1dc1
00000390: e442 17c1 abc7 14c1 6baa 0fc1 4442 0ac1
000003a0: 6822 05c1 d342 10c1 db8d 1cc1 5bf8 1ec1
000003b0: e4a2 1ec1 a52e 0fc1 eae5 0bc1 03a8 1dc1
000003c0: d80d 0ec1 af1d 0ec1 156c 21c1 7ae9 17c1
000003d0: a2d8 0ac1 0cf2 62c0 469f 32c0 aa38 0cc1
000003e0: 5cc4 95c0 e3ad 16c1 37a6 10c1 8ea4 14c1
000003f0: 864c 14c1 4934 f8c0 863f 1cc1 b039 17c1
2.0229092 1.7027812 -0.4277118 -3.6130352 0.7297709 -2.5605354 0.68277013 -2.8233604
-9.871804 -9.751245 -9.98297 -8.888867 -0.45455918 -1.210708 -6.546234 -1.1333196
-2.0747662 -5.451249 3.6708686 -6.178856 3.5971289 0.2969672 3.1581917 -4.1156034
-8.730118 -1.8394175 1.2853209 -6.550366 2.1758926 -10.432332 -1.3931655 -4.063629
-9.206079 1.472271 -4.3202047 2.0932624 -10.081982 2.202185 -4.6604934 3.0446062
-1.9454476 3.1419063 1.4274935 3.8149724 0.2284202 2.3360524 -7.110787 1.4712387
-1.5727081 3.6557424 -0.27473357 4.089636 4.365689 3.6098123 3.529721 1.466144
1.7506104 2.801566 3.3145788 -0.25269648 -0.5019011 -9.099959 -9.337041 -9.919496
-9.57744 -9.590496 -10.299 -8.702099 -10.20067 -9.513325 -9.2318125 -8.678534
-9.439346 -9.905276 -8.628376 -8.942735 -7.089997 -9.627923 -8.987446 2.5237496
3.0298495 -0.7086566 -3.4376857 0.48421842 -0.63369256 2.3546257 -2.8854198 -6.6281557
-1.4395533 0.19549797 -6.2478595 0.62233657 1.1208897 -1.8960707 -9.724515 -4.294436
-8.673011 -8.727024 -9.316947 -9.313705 -9.701789 -9.79931 -8.994578 -8.973551
-10.123387 -8.3839245 -10.206253 -8.750627 -9.487023 -8.6230345 -9.24556 -9.397424
-9.297403 -9.746629 -8.885738 -9.566068 -8.461306 -9.060306 -9.209736 -8.658951
-9.066166 -9.065692 -8.754025 -8.858104 -9.027671 -8.805749 -9.568925 -10.207939
-9.945872 -9.1881485 -9.059479 -8.673928 -9.726628 -2.4799917 0.8212155 -6.1786633
-1.3446053 -9.20965 -9.268021 -3.818082 -6.164747 -9.169648 -9.932206 -9.84227
-8.966825 -6.2960634 -9.397344 -9.404762 -10.013221 -9.315635 -8.794089 -9.8456545
-9.502399 -9.563519 -10.417691 -9.233769 -10.197417 -8.534318 -9.727361 -9.135199
-8.9689 -10.4301815 -9.6072445 -9.760934 -9.310447 -9.494446 -8.490897 -10.10552
-9.380713 -9.18577 -8.582031 -9.910266 -10.313442 -9.61841 -9.334712 -9.958201
-9.949012 -9.7976885 -9.962024 -9.061456 -10.176206 -8.945911 -10.151853 -9.237855
-9.977218 -10.064652 -9.111072 -8.971087 -9.278846 -4.8866577 -8.567214 -1.0872871
0.3134337 -2.990541 -6.8403087 0.5822523 -0.926281 0.56456774 -4.90926 -10.131716
1.4373626 4.787624 -5.7088313 1.49411 -1.3549342 -3.048086 -8.85796 -9.830568
-9.780387 -9.383277 -9.403377 -9.144037 -9.531405 -10.069354 -10.188277 -9.5791645
-9.8814945 -10.265955 -9.187353 -9.249936 -9.374613 -9.202519 -9.948715 -9.285921
-9.598019 -9.523744 -9.69103 -9.856693 -9.453831 -9.298747 -8.979106 -8.641178
-8.3209 -9.0163145 -9.784633 -9.935634 -9.914768 -8.948888 -8.743631 -9.8535185
-8.87838 -8.882247 -10.088887 -9.494501 -8.677889 -3.5460234 -2.7909713 -8.763834
-4.6802197 -9.417453 -9.04058 -9.2901745 -9.2686825 -7.7563825 -9.765509 -9.451584
