Data/neural-model-tokenized-2048-2-2.pth (torch, 197155 bytes, 10 tensors)

weight_ih_l0 f4 [8, 2379]
000000 7d 3e 9d bf f8 f1 ab bd 3b 0a 47 c0 47 3e 9f 3e
       -1.2284695 -0.08395761 -3.1099994 0.311022
000010 16 b4 80 3f 82 4a 72 c0 26 dd 32 bf 85 3b 8f 3f
       1.0054958 -3.7857976 -0.69868696 1.1190039
000020 a1 4a 9a 3d c3 40 de 3e 4a bd 32 bf d1 41 09 be
       0.075337656 0.43408784 -0.6982008 -0.13404013
000030 05 2e a7 c0 95 9c df 3f 6d bb ea be 45 5b 18 c0
       -5.2243676 1.746966 -0.4584612 -2.3805707
000040 9a a4 76 bf 03 91 37 bf b7 fe 01 be 02 42 dd 3f
       -0.9634491 -0.71705645 -0.12694822 1.7285769
000050 37 78 e5 3e 72 54 48 3f 4f ad 6d be 7d 9a 72 bf
       0.4481828 0.78253853 -0.23210643 -0.9476698
000060 c6 95 89 be e3 e4 45 3f b0 26 52 3d 58 9c 45 bf
       -0.2687208 0.7730238 0.051306427 -0.77191687
000070 bb 8c 37 be bf 8f e0 3e 34 af 70 3f aa e6 dd bf
       -0.17924778 0.4385967 0.9401734 -1.7336018
000080 e3 d3 c6 3e 83 18 eb 3d 1a 64 9d bf 5a 8c d5 be
       0.38833532 0.114792846 -1.2296174 -0.41708642
000090 99 1d 0d 3f 35 f4 9f bd 57 b2 fb bf 62 5f a0 3e
       0.5512329 -0.07810251 -1.96638 0.3132277
0000a0 8e 5d b3 be ea c0 98 3e 5f 74 bd 3e bb 1c df be
       -0.35032314 0.29834682 0.37002847 -0.43576607
0000b0 eb af e3 bd 7a 05 c6 bd 91 99 03 40 ce da ac bd
       -0.11117538 -0.09669013 2.056248 -0.08440171
0000c0 4e 45 b9 bd 09 fe 10 3d 87 c9 09 3f 14 40 e3 be
       -0.09046422 0.035398517 0.5382313 -0.44384825
0000d0 13 5d 0b bd 5d fd a2 3e fa cf 94 be f0 be 3c 3e
       -0.03402431 0.31833926 -0.29064924 0.18432212
0000e0 38 05 c2 3e fd bc f6 3d 14 4d 1e be 69 af ac be
       0.37894607 0.120477654 -0.1545909 -0.33727577
0000f0 76 9f 62 3f e7 ab fb 3d 82 94 c3 bd bf 33 de be
       0.8852457 0.12288647 -0.0954981 -0.43398854
000100 45 8f 58 3e 2b 2f ed 3d 3b 32 ed 3e d6 a4 2a 3e
       0.21148403 0.11581262 0.46327385 0.16664442
000110 e9 3a 10 3f 02 a6 04 3e 82 73 92 3d 0e 30 f3 be
       0.5633989 0.12953952 0.071509376 -0.474976
000120 dc 28 14 3f c4 55 c2 3e 5c 50 eb be 9c f9 82 be
       0.57874846 0.3795606 -0.45959747 -0.25581062
000130 83 53 82 3f eb 63 16 3f 38 90 da 3e 2b 36 0e bf
       1.0181736 0.5874621 0.42688155 -0.55551404
000140 98 fb 84 3e 0a c5 8e 3e 42 28 84 bf 2e 08 c5 3e
       0.259732 0.27884704 -1.0324786 0.38482803
000150 1e a0 a2 3e 0f 7d 49 3f a2 c6 12 40 59 bb 88 bf
       0.31762785 0.7870645 2.2933736 -1.0682174
000160 97 6c 67 bf 5c 4b 46 be 33 40 33 bf 53 0c b3 3f
       -0.9040007 -0.19364685 -0.70019835 1.3988136
000170 32 4f 50 bf f6 bd 96 3f 72 a6 f0 be d2 85 ef 3e
       -0.8137084 1.1776721 -0.47001988 0.46781784
000180 b2 41 12 bf f9 03 f1 3e 4b 8d 4d bd 6e 2e b4 bd
       -0.57131493 0.47073343 -0.050183576 -0.08797918
000190 8d 62 6c 3e b2 4f 28 3f e1 8d 9f be 01 b3 3e bd
       0.23084469 0.65746605 -0.31162933 -0.04655743
0001a0 f4 6b 04 bf 7e 6c b6 3e 65 9a d0 be 50 68 c5 be
       -0.51727223 0.35629648 -0.40742794 -0.38556147
0001b0 b6 6a da 3e 5b 64 fe 3e a2 48 1c bf 47 8e b0 3e
       0.4265954 0.4968594 -0.6104833 0.3448355
0001c0 63 87 a9 3d 60 f6 0e 3f e1 ca cf 3e a5 5c 86 3e
       0.08277776 0.5584469 0.40584472 0.26242557
0001d0 4b 68 0c bf 51 22 ec be 1e 18 2f bd 4d 65 81 3e
       -0.5484664 -0.4611993 -0.04274761 0.252726
0001e0 98 96 e3 3e 99 85 2f 3f 80 e1 25 3f cf 5c fc 3c
       0.4445083 0.6856323 0.6479721 0.030805973
0001f0 54 84 6e be 1c 3b ce bd a1 0a a8 3e 0f 5e ac 3e
       -0.23292667 -0.10069868 0.3282061 0.3366551
000200 32 bd a0 bd a6 61 06 3f 2d 65 99 bb 3e d0 07 be
       -0.07848586 0.5249275 -0.0046812505 -0.13263032
000210 b7 75 86 be 5d 98 26 bf 31 1a c9 3d 15 9d 98 3f
       -0.26261684 -0.6507624 0.09819449 1.1922938
000220 3b 0a 69 3f ce ba 3a 3d 54 a3 44 3e c4 88 c7 3f
       0.91031235 0.045588307 0.1920293 1.5588613
000230 7f 4e 32 3f db 5a e9 bd 4f fc 23 bd 4f 87 ee bd
       0.69651026 -0.113942824 -0.040035542 -0.11646902
000240 e4 64 c0 be 7d 05 b6 3f 6b e5 7b 3e 4d d5 27 3f
       -0.37576973 1.4220425 0.24599235 0.65559846
000250 a5 6a b4 be cb 40 b8 3d 60 78 12 3f aa 86 1c bf
       -0.35237613 0.08996733 0.5721493 -0.6114298
000260 b1 b4 ed 3e a2 30 07 bd 45 a8 b1 3e fe 39 1f 3f
       0.4642692 -0.033005364 0.34698692 0.62197864
000270 bd 2f d5 be 31 71 2f 3f de 50 01 3f c1 14 88 be
       -0.41637984 0.6853209 0.5051402 -0.26578334
000280 24 ef 34 3e 72 17 e3 bd c7 59 18 bf 02 e7 cb 3e
       0.1766935 -0.11088456 -0.5951199 0.39824682
000290 9b ae 1d 3f 9a 0d 8d 3d 71 5e 2d be f2 ce 27 be
       0.6159455 0.0688736 -0.16930558 -0.16387537
0002a0 99 80 0b bf 9d cb c8 3e 4d 79 10 3f bb a2 30 bf
       -0.544931 0.39217845 0.5643509 -0.68998307
0002b0 c3 29 ca 3e d9 b3 1c 3d 4a 1d c6 be ca 64 4d 3e
       0.39484987 0.038257454 -0.3869422 0.20057979
0002c0 38 bb 5d 3e a9 1d 12 bf 96 ec 6d 3e 4a 06 27 bf
       0.2165345 -0.5707651 0.23234782 -0.6524397
0002d0 b8 a8 77 3e bb aa 89 be e3 81 ee be 23 08 23 3f
       0.24185455 -0.2688807 -0.4658347 0.6368429
0002e0 d3 9f 29 be 13 b6 b8 be c6 aa 2c 3f bd e4 ce 3e
       -0.16564874 -0.36076412 0.6744808 0.40408888
0002f0 89 65 0e bf 93 2b f0 3e 36 36 cf be 01 26 19 c0
       -0.5562368 0.46908244 -0.40471047 -2.3929446
000300 9b 6e 84 be fd f3 ae bf 99 26 d2 3e 7f 94 28 3e
       -0.25865635 -1.3668209 0.41045073 0.16462897
000310 89 7b 38 be c8 8d d0 3e dc 83 9e bd 33 48 77 be
       -0.18015875 0.4073317 -0.07739994 -0.24148636
000320 8f a9 0f c0 5e f9 7c 3e 73 0c 8c 3f 3a 6d 61 bd
       -2.244724 0.24704501 1.0941299 -0.055035807
000330 0a d3 9d be e9 9c 04 c0 99 54 89 bd 45 3b 21 bf
       -0.30825073 -2.072077 -0.06705589 -0.62981063
000340 ce 1a e5 be 2f 42 1b be 80 82 f1 bd 5f 8d 34 3f
       -0.44747013 -0.15161966 -0.11792469 0.70528215
000350 96 15 bc be e0 96 22 bf fd 02 ef 3e b3 c1 3a 3d
       -0.3673522 -0.63511467 0.46681967 0.045594882
000360 f6 95 76 3e cd f4 9e 3e 5a e7 f7 be bb b5 0f bf
       0.24080643 0.31046143 -0.48418695 -0.56136674
000370 a0 59 ec be c1 dd ee 3e 18 a3 75 3d 20 07 ca 3e
       -0.46162128 0.4665356 0.05996999 0.3945856
000380 9f 02 27 bf b6 05 e1 be df 0d 33 bf 44 03 dc 3d
       -0.65238374 -0.4394967 -0.6994304 0.1074281
000390 6c 95 b5 3d a7 d7 38 be da 26 e0 be 23 bc f8 3e
       0.088663906 -0.18051015 -0.4377964 0.48581037
0003a0 cb 8b 05 3e fd 68 6f be 8a e1 d1 be 84 fe 2d bf
       0.13041608 -0.23379894 -0.40992385 -0.67966485
0003b0 c2 ce fb 3e 52 93 e3 be 73 ed 2e 3e f2 b9 8f be
       0.4918118 -0.44448334 0.17082767 -0.28071553
0003c0 c1 ee f5 bd fa 9e b3 bd 17 44 04 3f 47 93 5b be
       -0.12008429 -0.08770557 0.51666397 -0.214429
0003d0 1d d1 2f bd 21 3b 75 3e e1 24 3d 3f ca bb ff bd
       -0.042924035 0.23948337 0.738844 -0.1248699
0003e0 ea 71 68 bd cc a1 93 3e a9 d8 0e bf 0a ff 71 bd
       -0.056749262 0.2883438 -0.5579935 -0.059081115
0003f0 1b 98 25 3f 6b 9a 6c 3f 89 a0 e3 3e c0 dd 0a bf
       0.6468522 0.92423123 0.44458416 -0.54244614

weight_hh_l0 f4 [8, 2]
000000 71 e0 b3 be 0b 7f 51 bd a8 19 c4 3e 13 7f dd 40
       -0.35132173 -0.05114655 0.38300824 6.921762
000010 b1 19 65 c0 15 21 4b bf f4 ca bb c0 9d 1f 90 40
       -3.579693 -0.79347354 -5.8685246 4.503859
000020 83 28 ac c0 f1 27 e4 bf 10 4a 5d 3e 2d 18 9f c0
       -5.3799453 -1.7824689 0.21610284 -4.971701
000030 33 17 c5 c0 b0 f7 9c 3e 49 b0 91 3f e0 65 3e 3f
       -6.159082 0.3065772 1.1381923 0.743742

bias_ih_l0 f4 [8]
000000 2c 31 1d bf c2 1d 79 bf 1f 95 d6 3e 4d 32 aa bf
       -0.61403155 -0.9731103 0.41910645 -1.32966
000010 47 3e af 3d a6 f3 b6 bf 08 39 48 bf 6a 0e 51 be
       0.085568 -1.4293106 -0.7821202 -0.20415655

bias_hh_l0 f4 [8]
000000 54 e4 3e bf 5e dd 87 bf bc 2e a2 3e 9d 61 d1 be
       -0.7456715 -1.0614431 0.3167628 -0.40894786
000010 69 c4 31 3e 4d 4b 35 bf 96 ec aa bf 2e 8a 7b bd
       0.17360081 -0.70818025 -1.335345 -0.061411075

weight_ih_l1 f4 [8, 2]
000000 9a 61 35 3f e8 e5 71 bf 9a ec 0d be 78 7b 0a 3e
       0.70852053 -0.94491434 -0.13859788 0.13523662
000010 10 6e 64 3f 9e d0 30 bf a2 94 dd 3e d5 16 42 bd
       0.8923044 -0.69068325 0.4327746 -0.047385056
000020 b1 cc 40 3f 04 ab b1 bf f7 ef 51 3f 1d 39 6c 3f
       0.75312334 -1.3880315 0.8200678 0.9227465
000030 e9 5f 3d 41 d2 28 83 41 84 e2 0d 41 d1 86 11 41
       11.835916 16.394932 8.867802 9.095414

weight_hh_l1 f4 [8, 2]
000000 db 13 b8 3e 76 d0 f2 be 95 08 63 3e 74 66 da bd
       0.3595265 -0.47424668 0.22171243 -0.10664073
000010 bd 38 1e 3f 0e 41 db be 7d c0 23 3f fa 4d 5f bf
       0.61805326 -0.4282307 0.6396559 -0.8722836
000020 0d b2 0b 3f d1 d4 a2 bf 14 0e 85 bf e6 e1 49 3f
       0.5456856 -1.2721196 -1.0394921 0.7886032
000030 b9 0c 65 40 36 09 37 41 00 3a 73 40 fa 68 9b c0
       3.5789015 11.439749 3.800415 -4.8565645

bias_ih_l1 f4 [8]
000000 2c d4 9b 3e f3 59 e9 bd 5e ba ab 3f cb d3 47 3f
       0.30435312 -0.113941096 1.341625 0.78057545
000010 14 ba 1d 3f 80 9b 8f bf 28 92 58 bf d3 7d 84 c0
       0.6161206 -1.121933 -0.84598017 -4.1403594

bias_hh_l1 f4 [8]
000000 44 4f d3 be 79 07 4d 3f 2b c7 94 3f 08 f6 4c 3f
       -0.41271412 0.8008953 1.1623281 0.80062914
000010 a0 e1 97 3f 6a 62 89 bf c6 8c c1 bf 48 ec a2 c0
       1.186573 -1.0733159 -1.5121086 -5.091343

weight f4 [2379, 2]
000000 2c 52 c5 c0 aa a4 c5 c0 d7 fc 14 c0 8a 36 bd c0
       -6.1662807 -6.1763506 -2.3279321 -5.9129076
000010 a3 34 ad bf 36 45 bd c0 c8 b8 94 bc dd 45 b5 c0
       -1.3531688 -5.9146986 -0.018154517 -5.664778
000020 6f e2 96 c0 e4 52 c8 c0 5d 92 1c bf fc 98 be c0
       -4.715141 -6.2601185 -0.6116083 -5.956175
000030 1b ba 74 c0 f6 66 c6 c0 28 a1 dc be 02 d6 c6 c0
       -3.823859 -6.2000685 -0.43091702 -6.213624
000040 a9 c4 0d c0 ed dd 1f 40 cf 90 fc bf 01 6e 10 40
       -2.2151282 2.4979203 -1.9731692 2.256714
000050 81 86 11 c0 a2 17 f6 3f d1 c4 f1 bf 40 c4 eb 3f
       -2.2738345 1.9225962 -1.8888189 1.8419266
000060 14 a0 3a c0 7b 8e cc c0 87 e7 fa bf 7d 1e c6 c0
       -2.9160204 -6.3923926 -1.9601907 -6.1912217
000070 43 2e 52 3e 5c 92 0b c0 a6 28 8d bf b3 bb b5 c0
       0.2052546 -2.180808 -1.102803 -5.6791625
000080 e6 ec 81 bf c6 45 bd c0 8e ba a5 bc de 0a 6a c0
       -1.0150421 -5.9147673 -0.020230558 -3.6569133
000090 06 b6 83 bf d8 b5 aa 40 f1 4f cc 3e 55 09 90 be
       -1.0289924 5.3346977 0.3990474 -0.2813212
0000a0 bf ab 19 40 78 20 57 c0 e4 b6 92 bf 9d 8f 08 40
       2.4011075 -3.3613567 -1.1462064 2.1337655
0000b0 c5 cd b4 bf ae a1 25 c0 4b 54 33 3f 98 3c a2 be
       -1.4125296 -2.5879931 0.70050496 -0.31686854
0000c0 50 70 27 c0 1f a0 13 40 33 28 97 be 68 94 60 3f
       -2.61623 2.306648 -0.29522857 0.8772645
0000d0 bf 5a 36 c0 17 73 b6 c0 f8 b3 ea 3e ce 12 2e c0
       -2.8492887 -5.701549 0.4584043 -2.7198977
0000e0 70 a4 99 c0 51 2a 8e c0 3e ab 00 c0 eb 04 fd 3f
       -4.801323 -4.4426656 -2.0104518 1.9767126
0000f0 6c 1e 8e 3f 5d 2c 00 3f 40 55 6d 3f 8d 1e 32 c0
       1.1103034 0.50067693 0.92708206 -2.7831147
000100 99 84 0f c0 74 c6 13 40 ef 04 b7 bf ed 06 1d 40
       -2.242468 2.3089876 -1.4298381 2.4535477
000110 e9 02 88 3f 8a ee d3 be c8 5e 56 40 69 f1 20 3f
       1.0625888 -0.41392928 3.349535 0.6286836
000120 90 98 0f c0 2b 34 fe 3f cf b4 9a bf 25 51 88 40
       -2.2436867 1.985967 -1.2086428 4.2599053
000130 b0 31 7e bd 25 5b 66 be b2 51 97 3f 09 7d 03 c0
       -0.062059104 -0.22495706 1.1821806 -2.0545065
000140 fc 4f 46 3f c7 49 fd 3e 24 e6 6c c0 a9 b3 8d bf
       0.77465796 0.4947035 -3.7015467 -1.1070453
000150 e5 79 c5 3f 35 46 8d c0 81 0b 89 40 43 c7 b2 bf
       1.5427824 -4.41482 4.2826543 -1.396706
000160 12 c8 74 c0 71 f4 35 40 a6 32 eb bf 88 82 87 c0
       -3.8247113 2.8430445 -1.8374832 -4.234684
000170 63 7a 3d bf 92 45 89 3f e0 c5 20 c0 e7 39 9e c0
       -0.7401487 1.0724356 -2.5120773 -4.944568
000180 e4 b1 ad bf 30 63 1a bf 32 c8 a7 c0 43 a2 26 c0
       -1.3569913 -0.603076 -5.243188 -2.6036537
000190 b3 8c ba be d1 6d 08 40 2c 8f fd bf 39 1c 53 40
       -0.3643547 2.1317027 -1.9809318 3.2985976
0001a0 4a 57 29 3f 52 21 a8 bf ed 51 0a 3f 3b 9a 36 bf
       0.6614882 -1.3135169 0.5403126 -0.71329087
0001b0 0c 8c 0c 3f 43 e7 e2 bf 0e da 8d bf 50 91 bd bf
       0.54901195 -1.7726825 -1.108217 -1.4809971
0001c0 5a 59 0b c0 b7 a9 ff 3c 00 21 83 c0 e3 7e 91 c0
       -2.1773286 0.031208856 -4.0977783 -4.546739
0001d0 0e 8e a2 c0 eb 83 d4 bf 27 bd 12 3f 78 11 b3 bd
       -5.0798407 -1.6602758 0.57319874 -0.08743566
0001e0 bc 00 ea bf 50 75 ad c0 50 83 2f c0 fb de f4 3f
       -1.8281474 -5.4205704 -2.7423897 1.9130548
0001f0 2d b1 f5 bf bb d6 e3 3f fa 4b fb bf 9d 81 17 40
       -1.9194695 1.7799906 -1.9632561 2.367286
000200 80 50 ee bf b5 c0 17 40 80 bd 36 c0 23 9b 13 40
       -1.8618317 2.371137 -2.8553162 2.3063438
000210 fd a0 05 c0 6f c7 d9 3f c4 e1 dc bf fc db d4 3f
       -2.087951 1.7013987 -1.7256398 1.6629634
000220 c3 f3 3e c0 4a c7 2a 40 af 04 4a c0 2a b4 2d 40
       -2.983628 2.6684136 -3.1565359 2.7141213
000230 4d 23 f8 bf aa 69 e7 3f 53 5a 0d c0 53 b8 04 40
       -1.9385773 1.8079121 -2.208638 2.0737503
000240 b0 cc 3a c0 0b 99 1d 40 3c 43 1e c0 fb 09 29 40
       -2.9187431 2.462466 -2.4728537 2.6412342
000250 68 92 0f c0 b3 43 0a 40 8e e3 23 c0 09 4a 2a 40
       -2.243311 2.160382 -2.5607638 2.6607687
000260 85 4d e0 bf be 7e e0 3f b5 05 30 c0 15 fb 24 40
       -1.7523657 1.7538679 -2.7503483 2.5778248
000270 dd 7f f5 bf ff 31 16 40 3e be 04 c0 6a 43 7b 40
       -1.9179646 2.3468015 -2.0741115 3.9259896
000280 0a 6f 85 40 cd 86 73 bf ae 6e cf bf 85 09 ab c0
       4.1698046 -0.95127565 -1.6205652 -5.344912
000290 27 8d 74 3f e6 ca 7c c0 f7 ea de bf 9e ba 7d c0
       0.9552788 -3.949884 -1.7415456 -3.9645152
0002a0 fc 70 33 bf 58 d9 65 c0 c7 49 1f c0 5c b6 a0 c0
       -0.70094275 -3.5913906 -2.488878 -5.0222607
0002b0 7f ca 3d bd f8 5d 85 c0 e1 d4 0a bf 40 cd 45 bf
       -0.046335693 -4.167721 -0.5423108 -0.7726631
0002c0 63 99 4b be e7 23 8d c0 8d f5 2f 40 1a 1a e4 bf
       -0.19882731 -4.4106326 2.7493622 -1.7820466
0002d0 a0 bf 20 bf 04 4d c1 bf 22 a4 05 c0 e7 40 9f c0
       -0.62792397 -1.5101628 -2.0881429 -4.9766726
0002e0 2b 5e 7e bf 64 8a 72 c0 33 0e af bf 83 08 ca c0
       -0.9936244 -3.7896967 -1.3676208 -6.313539
0002f0 f5 b9 2e c0 b8 ae 0a 40 71 1c 9c 3f 92 a0 96 be
       -2.7301 2.166914 1.219618 -0.2941938
000300 32 c5 1d c0 39 2b f7 3f cf 1f 01 c0 b7 8c eb 3f
       -2.4651608 1.9310066 -2.0175664 1.8402318
000310 d7 de 21 c0 b6 ef 16 40 83 36 17 c0 99 67 26 40
       -2.529226 2.3583808 -2.3627021 2.600073
000320 6d 1a 3b c0 cd ad 1d 40 5c 3e 35 c0 20 74 24 40
       -2.923488 2.463733 -2.831931 2.5695877
000330 96 d9 14 c0 28 09 fc 3f ae 1f fd bf ad ac 10 40
       -2.3257804 1.9690294 -1.9775293 2.2605393
000340 ed 9b 2e c0 43 88 23 40 d4 1a 0d c0 c0 c4 27 40
       -2.728267 2.5551918 -2.2047625 2.6213837
000350 76 45 04 c0 fd d8 d6 3f ec 4d 12 c0 aa 73 16 40
       -2.0667396 1.678497 -2.286006 2.3508096
000360 5b 3a 1d c0 a6 b0 f8 3f ab e6 20 c0 b0 ab 1a 40
       -2.4566867 1.9428909 -2.5140789 2.416729
000370 69 da f9 bf f6 db fc 3f bc b5 29 c0 f6 eb 0e 40
       -1.9519778 1.9754627 -2.6517172 2.233152
000380 d0 be f0 bf 50 16 e6 3f 9d 7b 2e c0 19 c2 0f 40
       -1.8808231 1.7975559 -2.7262948 2.2462218
000390 60 cf 19 c0 de c7 22 40 ee e2 30 c0 20 28 fe 3f
       -2.4032822 2.543449 -2.7638507 1.9855995
0003a0 f4 66 31 c0 a9 43 05 40 70 73 12 c0 4a 12 24 40
       -2.7719088 2.0822546 -2.2882957 2.5636163
0003b0 7a a4 0e c0 2b 0a 1c 40 3c c9 24 c0 c2 a3 ff 3f
       -2.2287889 2.4381206 -2.5747824 1.997185
0003c0 8d 0c 33 c0 e1 a5 1a 40 ca 05 08 c0 72 c3 11 40
       -2.797641 2.4163744 -2.1253533 2.277554
0003d0 21 c1 2d c0 ae 92 1b 40 28 e5 23 c0 0b 5a 10 40
       -2.7149127 2.4308276 -2.5608616 2.2554958
0003e0 ae 1b 0a c0 a8 64 1f 40 fa d5 25 c0 96 d9 ef 3f
       -2.1579394 2.4905186 -2.591185 1.8738277
0003f0 38 99 e8 bf 50 31 0d 40 67 14 2f c0 8f a9 14 40
       -1.8171759 2.2061348 -2.7356203 2.322849

bias f4 [2379]
000000 c4 5c 3e 40 b1 c8 1e 40 72 f5 03 3f 86 b5 21 c0
       2.974412 2.4809992 0.51546395 -2.5267043
000010 f7 e3 ed 3f 6b 7c ba bf 0a 3d cc 3f de 83 0a c0
       1.8585194 -1.4569219 1.5956128 -2.1642985
000020 5d b6 fe c0 11 86 db c0 71 55 d6 c0 d2 62 d9 c0
       -7.959761 -6.8601155 -6.69793 -6.793313
000030 a8 3b 1c 3f 20 40 eb be cc 97 a9 c0 5a 99 1d bf
       0.6102853 -0.4594736 -5.29978 -0.6156212
000040 8c 2d 74 bf af 50 8d c0 07 cc 81 40 98 0c a5 c0
       -0.95382 -4.416099 4.0561557 -5.1577873
000050 4f e0 78 40 6c 89 e0 3e e0 59 69 40 38 b6 70 c0
       3.8886907 0.43854845 3.6461105 -3.7611217
000060 eb 77 fc c0 a5 3f a6 bf 2b 8e 03 40 d6 fb a4 c0
       -7.8896384 -1.2988173 2.0555522 -5.1557417
000070 01 f5 3d 40 fd f6 f0 c0 48 d4 9b bf 51 8a 4c c0
       2.9680789 -7.53015 -1.2174158 -3.1959422
000080 44 72 da c0 63 7e f0 3f ca bb 8a c0 3a be 14 40
       -6.8264484 1.878857 -4.3354235 2.3241105
000090 0c fa f1 c0 a4 67 31 40 e4 27 8c c0 df cb 4f 40
       -7.5617733 2.7719507 -4.3798695 3.2468183
0000a0 b9 31 02 c0 2e aa 6c 40 7e 31 d9 3f 71 1e 81 40
       -2.0342848 3.697887 1.6968229 4.034966
0000b0 21 c0 a0 3f c9 1d 41 40 9b 1e ce c0 9f 9a 15 40
       1.2558633 3.017443 -6.441236 2.3375623
0000c0 93 a8 51 bf 03 58 8d 40 ea e6 01 3f 40 13 90 40
       -0.8189785 4.4169936 0.5074297 4.50235
0000d0 91 cf 99 40 05 bb 81 40 fd 19 80 40 0b c3 fb 3f
       4.8065877 4.0540795 4.0031724 1.9668897
0000e0 d4 60 0d 40 0c ba 63 40 3e 41 76 40 a9 1b b2 3e
       2.209035 3.5582304 3.847732 0.34786728
0000f0 e0 c4 b6 3e 26 7b da c0 1a c4 dc c0 8e e7 f9 c0
       0.3569708 -6.827533 -6.898938 -7.809516
000100 50 ea e1 c0 44 54 db c0 f9 bc d6 c0 91 dd e4 c0
       -7.0598526 -6.8540363 -6.710568 -7.1520467
000110 9e 81 00 c1 5c d3 ed c0 21 93 da c0 3f 02 d7 c0
       -8.031645 -7.4320507 -6.83046 -6.719024
000120 1c 1a d7 c0 21 ef dd c0 a0 ba da c0 c8 de df c0
       -6.721937 -6.9354405 -6.8352814 -6.995945
000130 3d 47 c6 c0 bd 35 f8 c0 86 73 ce c0 a8 39 42 40
       -6.196196 -7.75656 -6.451602 3.034769
000140 e0 4a 4a 40 b5 8e bc 3d 22 80 36 c0 62 c8 a1 3f
       3.16082 0.09206907 -2.8515706 1.2639277
000150 a2 4a 7e bd 10 46 40 40 dd b8 05 c0 d1 f3 c1 c0
       -0.062082894 3.0042763 -2.0894082 -6.0610127
000160 37 f7 61 bf 18 2c 05 3f 1b 82 a3 c0 e0 18 b1 3f
       -0.88267845 0.52020407 -5.109632 1.3835716
000170 4a bd c7 3f 6f 00 63 bf 80 b3 dd c0 19 e4 83 c0
       1.5604641 -0.88672537 -6.9281616 -4.121594
000180 cd 8b f3 c0 ac 24 ed c0 a0 87 d9 c0 e1 96 d8 c0
       -7.6108155 -7.4107265 -6.797806 -6.768418
000190 2a 84 f4 c0 75 68 fc c0 6d e1 f1 c0 d5 dd ee c0
       -7.6411333 -7.887751 -7.558768 -7.464579
0001a0 c6 f9 f2 c0 e8 74 f0 c0 01 1a d6 c0 87 2e f7 c0
       -7.59299 -7.514271 -6.6906743 -7.7244296
0001b0 c2 2f d2 c0 52 86 f5 c0 65 3b e9 c0 16 ee f3 c0
       -6.56833 -7.6726465 -7.2885003 -7.622813
0001c0 d9 56 dd c0 18 d2 e4 c0 fa f5 eb c0 f9 bf d2 c0
       -6.9168515 -7.150646 -7.3737764 -6.585934
0001d0 d6 a8 d5 c0 ed d8 f9 c0 13 6b f3 c0 de 82 ea c0
       -6.67686 -7.80773 -7.6068206 -7.328475
0001e0 5d 95 f1 c0 81 3d d7 c0 3b 15 d9 c0 61 88 d7 c0
       -7.549483 -6.726258 -6.7838416 -6.735398
0001f0 76 a1 fe c0 f4 6c cd c0 d2 58 d0 c0 e5 3b db c0
       -7.9572096 -6.41955 -6.5108423 -6.8510613
000200 1e 23 cc c0 f0 c0 fe c0 aa e2 d4 c0 a3 d1 df c0
       -6.379287 -7.961052 -6.652669 -6.9943404
000210 6b 7c e9 c0 b1 31 18 c0 25 87 d4 3f 31 27 bd c0
       -7.2964377 -2.378033 1.6603743 -5.911034
000220 5a e6 d1 bf 9a 69 dc c0 fc 07 d3 c0 31 4b 45 c0
       -1.6398423 -6.887891 -6.5947247 -3.0827143
000230 45 d4 ae c0 84 61 d2 c0 7e 2a eb c0 75 96 de c0
       -5.463412 -6.574404 -7.348937 -6.9558663
000240 9a 11 e4 c0 bd fb af c0 4b b9 ec c0 40 7a de c0
       -7.1271486 -5.49948 -7.397619 -6.952423
000250 4d cc ea c0 02 a9 ef c0 90 31 e6 c0 0b ef d7 c0
       -7.337439 -7.489381 -7.19355 -6.74793
000260 c4 1c e4 c0 69 e7 ce c0 52 a4 d9 c0 19 16 de c0
       -7.1285114 -6.4657483 -6.8013086 -6.9401975
000270 16 7b d0 c0 a6 62 d3 c0 e2 44 ec c0 0a 8a d8 c0
       -6.515025 -6.605792 -7.3834085 -6.7668505
000280 26 88 d1 c0 86 ad f2 c0 b7 e2 e5 c0 29 92 d8 c0
       -6.5478697 -7.583682 -7.183925 -6.767842
000290 d4 33 e3 c0 77 04 d6 c0 aa 07 dd c0 3e 43 f8 c0
       -7.1000767 -6.688045 -6.9071856 -7.7582083
0002a0 73 ef e2 c0 f2 98 f7 c0 16 eb cb c0 d6 ac d8 c0
       -7.0917296 -7.73742 -6.372447 -6.771098
0002b0 f2 24 cb c0 ab ac ed c0 61 e2 f9 c0 3d bf e5 c0
       -6.34826 -7.4273276 -7.808884 -7.1795945
0002c0 d8 51 d4 c0 3a b4 f4 c0 bd 25 e7 c0 84 4f cb c0
       -6.6349907 -7.6470003 -7.2233567 -6.3534565
0002d0 08 95 ed c0 67 47 ed c0 9a 82 c8 c0 02 8c cf c0
       -7.4244423 -7.414966 -6.2659426 -6.485841
0002e0 78 29 ec c0 80 e8 ec c0 0d f5 f8 c0 6c 1f d4 c0
       -7.380062 -7.4033813 -7.7799134 -6.6288357
0002f0 61 52 f7 c0 0c 26 a6 c0 b1 2c dd c0 70 d2 72 be
       -7.728806 -5.1921444 -6.9117055 -0.23713088
000300 52 a6 45 3f cd bb 0e c0 dc 91 b8 c0 f7 49 8d 3f
       0.7720691 -2.2302125 -5.767805 1.1038197
000310 8a 83 91 be 74 40 aa 3f 47 da 85 c0 bc 62 ee c0
       -0.2842067 1.330092 -4.182895 -7.4495525
000320 43 6c ef 3f 1b 0b 7c 40 ec 29 c0 c0 bf 68 e8 3f
       1.8704914 3.9381778 -6.0051174 1.8156966
000330 35 05 3a bf f5 a6 09 c0 79 ac ea c0 cb 62 dd c0
       -0.72664195 -2.1508152 -7.333554 -6.9183097
000340 38 83 e3 c0 e9 ae ec c0 b7 e4 f1 c0 79 74 fd c0
       -7.109768 -7.3963513 -7.5591693 -7.920468
000350 e8 8d f5 c0 2f b0 e6 c0 90 f6 da c0 e5 0f e3 c0
       -7.6735725 -7.209007 -6.842598 -7.0956903
000360 86 e7 e2 c0 ea 7e c9 c0 20 7a f3 c0 ba 05 e1 c0
       -7.090762 -6.2967424 -7.608658 -7.031949
000370 ee 0b e2 c0 12 36 e1 c0 0d 2b f1 c0 1f 8d e4 c0
       -7.0639563 -7.0378504 -7.536505 -7.1422267
000380 f3 c4 e2 c0 66 3d e0 c0 a2 12 de c0 64 af e2 c0
       -7.0865417 -7.007495 -6.9397745 -7.08391
000390 27 06 eb c0 4f e5 e7 c0 b0 c7 f6 c0 d5 31 00 c1
       -7.344501 -7.246742 -7.711876 -8.012166
0003a0 08 7a e2 c0 03 f4 e6 c0 54 f8 e6 c0 a6 d7 c6 c0
       -7.0773964 -7.2172866 -7.2178135 -6.2138243
0003b0 10 d0 cb c0 1e 8e ce c0 37 2c e7 c0 20 0f ee c0
       -6.3691483 -6.4548483 -7.2241473 -7.4393463
0003c0 b2 bb e9 c0 81 03 e5 c0 39 4d d6 c0 bb aa f8 c0
       -7.304162 -7.1566777 -6.6969266 -7.770841
0003d0 c2 97 de c0 fd 49 42 c0 c3 fa f1 bf 05 e9 e9 c0
       -6.956025 -3.035766 -1.8904651 -7.309695
0003e0 17 15 8e c0 57 11 e6 c0 df 46 e9 c0 01 da db c0
       -4.4400744 -7.1896167 -7.2899013 -6.870362
0003f0 f9 65 f4 c0 11 7c cf c0 d5 55 c6 c0 d5 df d3 c0
       -7.637448 -6.483895 -6.1979775 -6.6210732
