Data/neural-model-tokenized-2048-4-2.pth (torch, 292963 bytes, 10 tensors)

weight_ih_l0 f4 [16, 2379]
000000 d3 fd d0 bf bb 47 56 40 3f fb 80 bd 0a 79 90 c0
       -1.6327461 3.348128 -0.062979214 -4.5147753
000010 29 8c 11 c0 e5 8f 14 c0 1a d9 74 bf b0 f1 0b 40
       -2.2741797 -2.3212826 -0.9564377 2.1866264
000020 e4 4b cd be d0 5c aa be e4 8e cf 3e 00 8c 12 3e
       -0.40096962 -0.33273935 0.40538704 0.14311218
000030 b5 91 5b c0 f4 1d f3 3f d4 a3 22 40 0b aa d7 3f
       -3.4307683 1.8993516 2.5412493 1.6848768
000040 d6 b1 8c 3e 50 8b 8a bf 3e 9a 32 bf d2 1e 5c 40
       0.27479428 -1.0823765 -0.69766605 3.4393811
000050 e8 89 34 bf 07 0e 8c 3d e5 98 15 3f 23 c4 17 c0
       -0.7052293 0.06838613 0.58436424 -2.3713462
000060 34 48 a5 3e df e1 44 c0 22 ef 9f 37 ad 62 a8 bf
       0.3228165 -3.076286 1.9065632e-05 -1.3155113
000070 70 a6 2a c0 9c 1d cd be 47 a5 90 3f 57 6a 25 40
       -2.6664085 -0.40061653 1.1300439 2.5846155
000080 0e 7f b9 be 49 ea b4 c0 19 4c ae bf 8a f8 2d bf
       -0.36229748 -5.6535993 -1.3616973 -0.67957366
000090 08 e3 2a 3e 66 42 45 3f d7 64 40 c0 91 3f e3 bf
       0.16688168 0.7705444 -3.0061548 -1.7753774
0000a0 7c da e8 40 05 99 81 c0 33 d8 49 c0 03 a3 6c 3f
       7.2766705 -4.049929 -3.1538208 0.92436236
0000b0 26 23 9a bf 3f 28 d8 bf 25 5a 34 bf 01 8b 21 c0
       -1.2041976 -1.6887282 -0.7045005 -2.5241091
0000c0 77 0e 4a 40 b3 31 a0 be de 25 3d bc 32 25 b6 3f
       3.1571329 -0.31287917 -0.011544673 1.4230101
0000d0 30 7f a4 3e 18 0b cd 3f 94 4e 3f 3f bf 94 1a 40
       0.32128286 1.601901 0.74729276 2.4153287
0000e0 cb 61 90 40 29 46 09 c0 d6 79 ca 40 54 7f 8a 40
       4.5119376 -2.1449072 6.3273726 4.328043
0000f0 b1 96 4b 40 b4 d5 46 3e 40 a3 91 bd 80 a3 cc be
       3.1810725 0.19417459 -0.071112156 -0.3996849
000100 10 0f 4d 3d ca 0c 9c 3e a0 71 a8 3e 66 cf 91 be
       0.050063193 0.30478507 0.3289919 -0.28478545
000110 70 50 e9 3d a0 f7 b7 3d 50 1a 17 3d 28 c2 f6 3d
       0.11392295 0.089827776 0.036890328 0.12048751
000120 de a2 d2 3e d0 c7 9a be 7c c8 4b be 88 d2 82 be
       0.41139883 -0.3023057 -0.19900697 -0.25551248
000130 03 cd 0c bf 00 e5 1b 3e 84 93 86 3e 39 b6 6d c0
       -0.55000323 0.15224075 0.2628442 -3.714247
000140 2b 38 c2 3d 66 d3 00 c0 64 14 75 3f 20 7b 6b 40
       0.094833694 -2.0129027 0.9573424 3.67939
000150 98 3d 8d 40 23 fe 67 bf 7b ae a1 40 e5 10 a4 bf
       4.413769 -0.90622157 5.052549 -1.2817656
000160 76 c2 de be dc 2a fb bf 8b b0 2b 40 34 fd 8d 40
       -0.43507737 -1.9622455 2.6826503 4.4371586
000170 38 cb 04 41 9c 0d d8 40 7e 8c 85 be 57 95 11 be
       8.299614 6.7516613 -0.2608375 -0.14217125
000180 9e 16 d6 3e e8 c8 34 be 70 31 ea 3e 70 df 99 3d
       0.4181413 -0.17654765 0.45740843 0.075133204
000190 10 63 7a be c4 59 cb 3e 8e 31 9d be 2a 29 e1 3e
       -0.24451852 0.39716923 -0.3070187 0.43976718
0001a0 8a f6 d2 be 2c d3 68 3e c0 f3 dd be e8 1c d0 be
       -0.4120372 0.22736806 -0.4335003 -0.40647054
0001b0 1e f4 bc be a0 c9 e9 3e 50 f5 3d bd f2 c0 ed 3e
       -0.36904997 0.4566164 -0.046376526 0.46436268
0001c0 04 ed 3c 3e bc 32 e8 3e 60 5f 4e bd 1c 97 23 be
       0.1844979 0.45351207 -0.050383925 -0.15975612
0001d0 60 0f 99 be ca 04 ea 3e 80 16 08 bc bc 96 f9 3e
       -0.29894543 0.4570678 -0.008306146 0.48747814
0001e0 b2 82 f0 3e e0 0c db bc 0c 87 1d be e6 78 b4 3e
       0.46974713 -0.026739538 -0.15383548 0.35248488
0001f0 c6 e5 fd be 60 f4 a1 3d ce e7 ee be 6c d3 cc 3e
       -0.49589366 0.07907939 -0.46661228 0.40005052
000200 22 63 fd 3e e4 e7 39 3e ae cc b0 be 00 54 67 bb
       0.49489695 0.18154866 -0.34531158 -0.003529787
000210 28 fa 1a 3e 0a b6 1f c0 33 db e0 bf 8e 54 77 40
       0.1513449 -2.4954858 -1.7566894 3.8645358
000220 10 90 61 bf c6 3f 8a 3e 32 ac ba be 28 14 73 40
       -0.88110447 0.2700178 -0.364595 3.7981052
000230 1a d4 3d 40 ae 0c e6 be aa c6 ed 3e ae ed e5 be
       2.9660707 -0.4493155 0.4644063 -0.44907898
000240 44 20 30 be 13 c7 1a 40 2e 46 f5 3e e2 7e fd be
       -0.17199808 2.4184005 0.47905105 -0.49510866
000250 a4 f1 88 3e f2 55 81 be 2c a1 00 3e d0 18 e8 be
       0.26746857 -0.25260884 0.12561482 -0.4533143
000260 7a 23 b9 3e a8 c8 38 be e4 77 90 3e 0e b4 b9 be
       0.3615988 -0.18045294 0.2821647 -0.36270183
000270 98 0f bb bd e0 95 31 3d 60 a9 f4 3d 50 27 dc 3e
       -0.09133834 0.043355823 0.11946368 0.42998743
000280 5c 97 9b be 3e d7 e5 3e 50 4a 11 bd 08 a1 09 3e
       -0.30388916 0.4489078 -0.03547126 0.13440335
000290 8e 0f c8 3e 56 67 a9 3e b6 a9 e0 be 3c 1c 73 be
       0.39074367 0.33086652 -0.4387948 -0.2374124
0002a0 fc c7 cf 3e 64 59 9e 3e 20 3f 71 3d 30 d6 3b 3e
       0.40582263 0.30927575 0.05889809 0.18343425
0002b0 58 ae 9b 3d 40 0c 06 3c 20 31 e2 3e 94 8b a5 3e
       0.07601613 0.008181632 0.44178104 0.32333052
0002c0 c0 66 64 3c c0 18 1d bd 4e af b9 3e 1c 1c 6d 3e
       0.013940513 -0.03835368 0.3626656 0.23155254
0002d0 7c eb b9 3e 86 08 8a be b6 ab da be 90 17 f0 3e
       0.36312473 -0.26959628 -0.4270913 0.46892977
0002e0 74 62 fc be 70 16 df bd 1c fd fa 3e a0 94 6d bd
       -0.49293864 -0.108929515 0.49021232 -0.058003068
0002f0 a8 f0 77 be b2 45 4b 40 64 ec 90 be 97 64 bc 40
       -0.24212897 3.1761289 -0.28305352 5.887279
000300 52 28 18 40 67 45 2b c0 7a cf b1 3f 88 71 0c 3f
       2.377461 -2.676111 1.3891442 0.54860735
000310 f7 32 13 3f 8b dc de 40 b6 17 53 3f c0 1a 3f 3e
       0.5749964 6.9644217 0.82458055 0.18662548
000320 b9 4a df 3e 34 de 60 3f 63 86 5e 40 0d 78 90 3f
       0.43611696 0.87839055 3.4769523 1.1286637
000330 2a a6 87 bf ab a6 a0 3f 60 e3 ae 3e c4 5c 03 be
       -1.0597584 1.2550863 0.34157848 -0.12828356
000340 80 ab a2 be 26 a9 e0 3e d0 27 3c 3d 10 80 a4 3e
       -0.3177147 0.4387905 0.045936406 0.32128954
000350 50 5f f4 be 00 1b a5 3d b0 6d 51 be 7e 73 c4 3e
       -0.47728968 0.080617905 -0.20451999 0.38369364
000360 10 97 a1 3e e4 02 52 3e 70 ba f3 3e a0 9c a4 bd
       0.31560564 0.20508915 0.47603178 -0.08037686
000370 44 ac fb be c6 45 f1 be 24 14 f9 be c8 77 08 be
       -0.49154866 -0.47123545 -0.4864818 -0.13326943
000380 e0 b7 94 bd e0 a4 82 bd 7c d6 9b be e4 a9 48 3e
       -0.07261634 -0.06379104 -0.30437076 0.19596058
000390 00 80 e9 38 6e 1d d4 be 22 86 fa 3e 50 3f 43 be
       0.00011134148 -0.41428703 0.4893046 -0.1906712
0003a0 6e ed 95 be d0 e0 fe be 70 40 2a 3e d8 1e a4 be
       -0.29282707 -0.49780893 0.16626143 -0.32054782
0003b0 90 e8 3f 3d 8c d1 2b 3e 2c e4 b7 3e 40 e0 d5 3d
       0.04685265 0.16779155 0.3591627 0.10443163
0003c0 c8 c9 bb be 3a db e3 3e ba 24 93 be c8 86 86 bd
       -0.36677384 0.44503194 -0.28738958 -0.06568676
0003d0 80 0f b4 3c 66 b9 3d 40 09 fc ec 40 b8 25 52 3e
       0.021980047 2.9644408 7.405766 0.20522201
0003e0 2a 1b 45 40 30 9a 39 bd 00 35 7e 3d 88 2c e3 bd
       3.079783 -0.04531306 0.062062263 -0.11092478
0003f0 a8 03 ce be 80 79 20 3e 28 ec 43 3e 00 d0 00 bc
       -0.40237164 0.15671349 0.19133055 -0.007862091

weight_hh_l0 f4 [16, 4]
000000 9a c6 0a c1 86 16 b6 c0 a4 08 50 40 91 9e 1e bf
       -8.673487 -5.6902494 3.2505274 -0.61960703
000010 85 00 ff 3f 9f 10 13 c0 7d c5 95 3f 02 5c c3 bf
       1.9922034 -2.2978895 1.1700894 -1.5262454
000020 48 e8 9c 40 2e bb 95 bf c2 29 b9 c0 cd 81 fc 3f
       4.9033546 -1.1697748 -5.7863474 1.9727112
000030 bc 52 bc c0 03 03 dc c0 77 85 ac 3f 03 85 fe 40
       -5.8850994 -6.8753676 1.347823 7.953737
000040 27 bf 06 c0 bb 8e 69 c0 1a 33 38 40 0f dc b0 c0
       -2.105417 -3.6493366 2.878119 -5.5268626
000050 75 33 06 be 87 86 e2 3e cb 06 d5 3d 4b 87 04 40
       -0.13105567 0.4424326 0.10401686 2.0707576
000060 25 68 1f 40 97 fa 8d bf 4c 31 41 c0 40 37 67 c0
       2.4907315 -1.1092099 -3.0186338 -3.6127472
000070 17 9d 3c c0 b5 4e f6 3f 41 16 29 bf fb 49 c2 bf
       -2.947088 1.924277 -0.6604958 -1.5178827
000080 db 1d 00 bf 04 af b9 40 7d f2 14 c0 80 2e 85 40
       -0.50045556 5.802614 -2.3273003 4.1619263
000090 62 88 d8 c0 38 6f d4 c0 f8 e8 c6 3f d8 a6 9d 40
       -6.7666483 -6.6385765 1.5539846 4.9266167
0000a0 83 a9 25 40 07 79 1d 40 72 4b 14 3f 68 4a 68 c0
       2.5884712 2.460512 0.5792762 -3.6295414
0000b0 19 37 65 3f 76 cb 9f bf 0d 96 df bf c2 4d 2c 40
       0.895372 -1.2483966 -1.7467667 2.692246
0000c0 f6 7d 03 3f 0d 15 12 c0 37 38 31 c0 0a 5b ac 40
       0.51364076 -2.2825348 -2.769056 5.386113
0000d0 64 04 80 40 c6 6d e4 3f 12 1b 06 c1 5f 11 32 41
       4.000536 1.7846 -8.381609 11.129241
0000e0 f6 d2 5f c0 c1 43 db bf f5 05 ed 40 9b 1e 81 bf
       -3.497251 -1.7130052 7.406977 -1.0087465
0000f0 7a 25 48 41 8c cd 58 41 c3 92 85 c0 7c d8 1c c1
       12.50915 13.550182 -4.1741652 -9.802853

bias_ih_l0 f4 [16]
000000 4c 6f 1e bf 1e 04 40 bf 97 ab 11 3d 7f 5a 94 be
       -0.61888576 -0.7500628 0.03556403 -0.28975293
000010 70 77 b7 bf c5 8b 09 be c1 3e 27 bf f2 cc d9 3d
       -1.4333324 -0.13432224 -0.6533013 0.10634793
000020 cd b7 61 3f 79 c0 d1 be 2c 4f 24 3f 0a 35 3e bf
       0.8817108 -0.40967157 0.64183307 -0.7429968
000030 70 76 9b bf 50 10 92 3e af 54 fb bf 38 ec b9 bf
       -1.2145519 0.2852807 -1.9635218 -1.4525213

bias_hh_l0 f4 [16]
000000 d2 3a 03 be 21 32 96 bf 28 5b 84 3d 7f 5e b5 bd
       -0.12815407 -1.1734048 0.06462699 -0.08855914
000010 32 fe ad bf 8a 76 99 be 94 c6 c9 bf fb 54 b2 be
       -1.3593199 -0.2997325 -1.5763726 -0.3483046
000020 5c 9f 5b 3f cb 09 21 bf 64 be 54 bd c3 0b 5b bf
       0.8579004 -0.6290557 -0.051939383 -0.8556482
000030 c9 21 c3 bf af ad 29 3f 57 b8 08 c0 5f 24 a1 bf
       -1.5244685 0.66280645 -2.1362512 -1.2589225

weight_ih_l1 f4 [16, 4]
000000 06 6a 1a c1 de 4e 28 41 6e 68 74 3f 9c 17 8b 40
       -9.650885 10.519255 0.9547185 4.346632
000010 9c 0e 12 3f 43 bf 3b bf b1 33 38 3f d3 16 0a be
       0.5705354 -0.7333872 0.71953875 -0.13485269
000020 46 26 35 40 d4 19 2a 40 0d 47 22 be 06 d5 27 3f
       2.830461 2.6578264 -0.15847416 0.6555942
000030 7b 56 19 be 94 ec ea bf 77 22 38 bf f1 17 8f 3f
       -0.14974396 -1.8353448 -0.7192759 1.1179181
000040 5c 97 fc c0 3c d0 69 40 21 dd f0 40 7c 4f c6 c0
       -7.8934765 3.6533346 7.5269933 -6.1972027
000050 56 e1 34 3f 64 63 be be 02 5e f5 3e 16 da ee be
       0.70656335 -0.37185204 0.47923285 -0.4665076
000060 e3 b3 90 3f 96 f5 12 bf 5f 64 34 c1 3a 41 0f bf
       1.1304897 -0.57405984 -11.274505 -0.559589
000070 b5 cf f7 3c 27 1e 1f bf 37 d4 5c 3f 18 e3 15 bf
       0.03025041 -0.62155384 0.86261314 -0.5854964
000080 41 d5 9a bf 3f 26 fb 3e 27 40 ae bf 8a 06 c6 3f
       -1.209633 0.49052617 -1.3613328 1.5470746
000090 1a 62 5d bc cd 6a 00 3f 3d a9 96 bc 58 45 73 3f
       -0.013512159 0.50162965 -0.018391246 0.95027685
0000a0 13 42 03 c0 ff a9 40 40 8d 7e 94 3f 38 45 10 bf
       -2.0509079 3.0103757 1.160112 -0.5635562
0000b0 05 95 31 3f 23 a9 b8 3f 42 32 a1 be 1b 2e 3e 3f
       0.6936801 1.4426616 -0.31483656 0.742891
0000c0 6b a6 6b 40 18 dd 51 c0 bd af c8 41 a0 82 46 c1
       3.6820323 -3.2791195 25.08581 -12.406891
0000d0 1b ac 55 c1 e7 03 63 40 4a 5c 03 40 5c 87 04 41
       -13.354518 3.5471132 2.0525079 8.283047
0000e0 90 52 03 41 7b 69 d1 c0 16 56 e9 3f 43 06 2a 3e
       8.207657 -6.544126 1.8229396 0.16603951
0000f0 42 94 03 c1 58 1f cc be 8a f0 e4 3e 09 96 5b 3f
       -8.223696 -0.39867663 0.44714767 0.8577581

weight_hh_l1 f4 [16, 4]
000000 8d 29 37 c1 31 19 8b bf 87 7e c9 bf 91 27 4d 3d
       -11.447644 -1.0867063 -1.5741738 0.05008656
000010 72 ed e8 be eb 76 4b bf 55 eb f3 be 3b f4 4a be
       -0.45493656 -0.7947833 -0.47640482 -0.19819729
000020 cc c5 e2 bd 33 76 8b 3f f6 66 a3 3f 7a a7 0b c0
       -0.11072883 1.0895447 1.2765796 -2.182097
000030 2a b3 b8 bf 2c ec d7 bf 2a f3 dd bf 7f 56 cb bf
       -1.4429677 -1.6868949 -1.7339833 -1.5885772
000040 53 90 f0 c0 55 bc 0a c0 3f b2 78 41 2d ae aa c0
       -7.5176177 -2.1677449 15.543517 -5.3337617
000050 8e bc 46 be 33 cc 1b bf a9 41 a2 bf 82 7d 03 bf
       -0.19407865 -0.6085846 -1.2676288 -0.51363385
000060 58 85 a1 41 8c 8d 75 40 70 0e 15 c1 7e 3d f2 40
       20.19011 3.8367643 -9.316025 7.5700064
000070 14 30 a0 bf cc d7 6c bf 1f 1c 0a c0 77 58 66 bf
       -1.2514672 -0.9251678 -2.1579664 -0.89978737
000080 d5 8d f2 3f 91 85 29 3e 07 03 c9 3f f3 23 63 3f
       1.8949534 0.16554858 1.5704049 0.8872673
000090 1d 20 85 3f 6a 4e 4e 3e 98 ae e7 3d 21 85 84 3f
       1.0400425 0.201471 0.11312598 1.0353128
0000a0 b5 a2 16 bf ec ee f0 3d c4 9d 68 be 39 60 91 3f
       -0.5884202 0.11764321 -0.22716433 1.135749
0000b0 49 e6 b0 3f 98 56 d5 3f ad 74 61 3f c8 de e5 3f
       1.3820277 1.6667051 0.8806866 1.7958612
0000c0 9a b2 98 bf a8 ee 68 c0 48 22 ca 3f 56 b7 26 41
       -1.1929505 -3.6395664 1.5791712 10.41976
0000d0 d8 a2 53 be 48 69 53 40 c6 ee ab 40 92 5f 2b c1
       -0.20667589 3.3033009 5.372897 -10.710833
0000e0 22 49 a0 3c b1 f3 0d c0 b1 b2 dd bc db 95 c5 3d
       0.019566122 -2.2179987 -0.027062746 0.09647723
0000f0 1a 12 a2 bd e0 59 3d 40 c5 f9 88 40 c7 36 e3 c0
       -0.07913609 2.9586105 4.2804894 -7.1004367

bias_ih_l1 f4 [16]
000000 4a 52 6c 3f 41 9f 10 3f 65 2a 92 3f 3d 63 40 3d
       0.92313063 0.56493 1.1419188 0.04696964
000010 af db 26 bd c0 d5 7c 3f f1 d0 a9 3e f7 2e 93 3f
       -0.04073685 0.98763657 0.33167222 1.1498708
000020 f8 51 94 bf 4a a6 7b bd be 2f 87 3f 41 a4 6e bf
       -1.1587515 -0.061437882 1.0561445 -0.9321938
000030 54 74 70 bf 4b 9e cb bf fa 5f a2 bf e4 76 70 bf
       -0.939275 -1.5907682 -1.268554 -0.9393141

bias_hh_l1 f4 [16]
000000 3f 55 b7 3f 5e 4a 37 3c 02 ea 6e 3f cb 9a ac bc
       1.432289 0.011187164 0.9332582 -0.021069905
000010 c0 7f f6 be 1d 0b 6c 3e 7b 3c 13 3d 55 58 ae 3f
       -0.4814434 0.23051114 0.03594635 1.3620707
000020 5d 14 96 bf 44 cf 1a bf fc eb 89 3f b9 b6 8d bf
       -1.1724964 -0.6047251 1.0775142 -1.1071388
000030 8b 4f 73 bf f2 a6 fb bf c6 ce c9 bf 8a 22 a7 bf
       -0.9504325 -1.9660323 -1.5766227 -1.3057415

weight f4 [2379, 4]
000000 84 22 aa bf 90 eb d9 40 3f e3 0b c1 b5 62 04 41
       -1.3291783 6.810005 -8.74298 8.274098
000010 0e 65 9a bf 2a 94 36 bf 98 4a 0c c1 35 a5 d2 3f
       -1.206209 -0.7131983 -8.768211 1.6456667
000020 58 51 b8 bf 0e 7a 3e 3f fd a2 08 c1 cb 9c 43 40
       -1.4399824 0.7440499 -8.539792 3.056445
000030 ed f2 b6 bf dd f6 d2 3f 0b 26 ea c0 41 f2 4a 40
       -1.4292885 1.6481587 -7.317144 3.171036
000040 fd 2a a2 bf 6e d3 dc 40 c9 90 0c c1 0a 78 17 41
       -1.2669369 6.9008093 -8.785348 9.466806
000050 79 87 c4 bf 7c 49 08 40 14 30 06 c1 6b 00 8e 40
       -1.5353843 2.1294851 -8.386738 4.437551
000060 8e c3 a7 bf b9 6c 8f 40 e1 d0 0b c1 d0 17 d5 40
       -1.3106554 4.482022 -8.738496 6.659157
000070 64 65 ac bf 7b 48 1c 40 35 14 07 c1 0a ce a0 40
       -1.3468442 2.4419239 -8.442433 5.0251513
000080 97 b1 0e 40 2a bf 05 40 2b 0f 2c 40 46 d3 25 40
       2.2295892 2.0897927 2.6884258 2.59102
000090 3b dc 0b 40 f1 bd 02 40 fc 6b 41 40 62 52 33 40
       2.1853168 2.042843 3.0222158 2.8019032
0000a0 8e 4e e0 3f d6 ea f9 3f 42 26 43 40 76 03 11 40
       1.7523973 1.9524791 3.04921 2.2658362
0000b0 d6 b1 cf 3f 50 6e c2 3f 98 99 2f 40 17 61 f4 3f
       1.6226146 1.5189915 2.7437496 1.909213
0000c0 05 7b b0 bf 44 b8 aa 40 7d 46 0b c1 0c e1 f9 40
       -1.3787543 5.3349934 -8.704709 7.8087215
0000d0 cf 80 b4 bf e6 cc 88 40 16 99 0a c1 df e7 e9 40
       -1.4101809 4.275012 -8.6623745 7.3095546
0000e0 e0 8f 9b bf f4 9b c3 3f d5 cf 91 bf 90 bb 24 40
       -1.2153282 1.5281968 -1.139155 2.573948
0000f0 df b6 c2 bf 1b 56 fa 3f cc 7c 03 c1 b2 c7 21 40
       -1.5212058 1.9557527 -8.217968 2.5278134
000100 c4 51 b7 bf 0e 91 97 3f 16 fd 03 c1 bb 63 1e 40
       -1.4321828 1.1841142 -8.249289 2.474837
000110 9d e9 a3 bf 64 e5 a9 3f 3c 5a 2e c0 9a c3 29 40
       -1.2805668 1.327313 -2.7242575 2.6525636
000120 e5 e4 1f c0 54 45 a7 bf 19 b9 05 41 77 49 35 c0
       -2.4983456 -1.3068032 8.35769 -2.832609
000130 68 32 01 c0 d3 be a1 3f 31 a4 f1 3f f4 c2 d5 3f
       -2.0187016 1.263636 1.8878232 1.670012
000140 c2 2f d8 bf 9e eb 20 c0 8d cf 15 c1 78 3a 59 c0
       -1.6889575 -2.514381 -9.363172 -3.3941936
000150 20 04 4b c0 20 77 39 c0 f2 da 16 c1 d2 20 a0 c0
       -3.1721268 -2.8978958 -9.428453 -5.0040064
000160 8b 7f 0e c0 a1 9f 09 c0 3f f7 07 c1 d9 64 42 c0
       -2.2265346 -2.150368 -8.497863 -3.0374053
000170 fe 7e 0b c0 35 9b 62 3f fe 70 10 c0 41 0b 1e c0
       -2.179626 0.8851808 -2.2568965 -2.469437
000180 2b 4a 10 40 20 c7 11 40 3c 92 3f 40 0a 1d 1a 40
       2.2545269 2.2777786 2.9933004 2.4080224
000190 ea e0 0f c0 4d 2f 9b bf 41 2d e5 3f 74 e5 17 c0
       -2.2481027 -1.212381 1.7904435 -2.3733797
0001a0 24 31 af bf 82 5e 75 3e 45 32 0a c1 9f 35 bc 3f
       -1.3686872 0.23961833 -8.637273 1.4703864
0001b0 f5 57 b7 bf ab 53 b8 3f e9 c6 fd bf 0e c8 1d 40
       -1.4323717 1.4400533 -1.9826328 2.4653354
0001c0 88 63 fc bf d0 e4 0c 40 3d 29 00 c1 92 ca 0d bf
       -1.9717875 2.2014656 -8.010068 -0.5538722
0001d0 df 2b 1d 40 39 d0 07 40 2e f4 35 40 00 0e 32 40
       2.4558027 2.122084 2.8430285 2.7821045
0001e0 d3 59 b6 bf 43 c1 2b c0 ef 5b 0e c1 e8 f9 85 c0
       -1.4246162 -2.6836708 -8.897445 -4.186756
0001f0 09 7d c5 bf 35 f4 8e bf ce 5f 9c bf f7 0c 04 c0
       -1.5428783 -1.1168276 -1.2216737 -2.0632913
000200 19 1a 04 40 54 95 04 40 3a c4 35 40 fa 0f 16 40
       2.0640929 2.0716143 2.8401017 2.3447251
000210 5d 6f f6 bf ab 80 f0 bf 27 10 d4 40 e6 fc ec bf
       -1.9252735 -1.8789266 6.6269717 -1.8514678
000220 fc 15 9a bf e9 00 ff be 3e c7 22 40 c6 8e f6 bf
       -1.2037959 -0.49805382 2.5434108 -1.9262321
000230 b1 e9 93 bf d7 12 21 c0 89 4d ee 40 f7 64 43 c0
       -1.1555692 -2.516775 7.4469647 -3.0530374
000240 ef d4 12 40 26 0f de 3f 85 36 33 40 d7 a9 04 40
       2.2942464 1.7348373 2.8002026 2.0728662
000250 7f 34 22 c0 86 54 0f c0 1e 11 9c 40 c9 42 01 c0
       -2.534454 -2.239534 4.8770895 -2.0197012
000260 4c ed 02 c0 67 ef ef bf f6 2d ef 3f 22 46 15 c0
       -2.0457335 -1.8744935 1.8685901 -2.3324056
000270 db 4b 91 bf e3 b1 5e c0 87 3b 00 3f 90 64 51 c0
       -1.1351274 -3.4796073 0.5009083 -3.2717628
000280 fb 7c 8b bf 85 ad 14 c0 be e5 bf 40 29 c7 de bf
       -1.0897516 -2.3230908 5.9967947 -1.7404529
000290 21 d5 73 bf ef d8 3b c0 a6 aa 04 3f 89 ca 20 c0
       -0.95247084 -2.9351156 0.5182289 -2.5123618
0002a0 05 b3 64 bf 09 4e 68 c0 45 96 d5 c0 fd 6d 23 c0
       -0.8933566 -3.629763 -6.6745934 -2.5535882
0002b0 f6 6b b6 bf fe dc 45 c0 57 e0 55 40 f8 00 47 c0
       -1.4251697 -3.0916133 3.3418176 -3.1094341
0002c0 22 48 2f c0 ed 1d cd 3f 73 15 a5 40 34 67 a3 bd
       -2.7387776 1.6024758 5.1588683 -0.07978669
0002d0 dc 26 cb bf a1 6e 7d bf 6e 4e b6 c0 0d d2 73 bf
       -1.5871234 -0.9899693 -5.697074 -0.9524239
0002e0 be 86 75 3f 99 37 02 40 7f 18 39 40 66 d7 04 40
       0.95908725 2.0346434 2.8921201 2.0756469
0002f0 29 b1 dd bf 00 0c 1b bf 78 b6 d8 c0 dd a6 77 3d
       -1.731969 -0.60565186 -6.772274 0.060461868
000300 df 49 1d c0 bc 83 dd 3e 31 43 35 40 c7 4a 19 3f
       -2.4576337 0.43264568 2.832226 0.59879726
000310 83 59 07 c0 a1 33 78 be 3e 82 2b 3f d5 09 79 bf
       -2.1148384 -0.24238445 0.6699561 -0.9728063
000320 ca 9a 1c c0 ac 91 10 c0 0c 0a 86 40 ee fc fd bf
       -2.4469476 -2.258891 4.1887264 -1.9842813
000330 8b 1a 0b c0 1a 5b ec bf d6 53 2b 41 87 60 92 bf
       -2.173495 -1.8465302 10.707968 -1.1435708
000340 af 5e 08 c0 d3 bb 16 c0 1b 25 c2 40 a8 01 1c c0
       -2.130779 -2.3552139 6.0670295 -2.437601
000350 41 29 fb bf 5f 3b 2e c0 d8 8d 3f 40 a6 0e 25 c0
       -1.9621965 -2.7223737 2.9930325 -2.579019
000360 ff 66 ed bf 44 c3 2b c0 0c fe a4 3f ed ef 17 c0
       -1.8547057 -2.683793 1.2890029 -2.374019
000370 92 d6 09 c0 ae 3f e6 bf b4 68 61 c0 ca 16 41 c0
       -2.1537213 -1.7988183 -3.5220156 -3.017016
000380 92 1b 0f c0 04 b0 46 bf 92 90 6b 40 e7 ae 30 c0
       -2.2360578 -0.7761233 3.6806989 -2.7606752
000390 27 46 d9 bf 42 e2 ab 3e 47 56 c1 c0 45 cf b4 be
       -1.6974534 0.3357106 -6.041782 -0.35314384
0003a0 a0 48 31 c0 3e bf c3 bf 4c 0a 02 c1 fe 3e 74 c0
       -2.7700577 -1.5292737 -8.127514 -3.8163447
0003b0 bd 29 11 c0 12 d7 14 c0 09 8f fa 3f aa 40 1b c0
       -2.2681725 -2.3256269 1.9574901 -2.4258218
0003c0 33 6d c1 bf 32 80 da 3f 5f 63 ef c0 29 77 cb 3f
       -1.511145 1.7070372 -7.4808803 1.589574
0003d0 d2 25 00 40 56 9e 0f 40 7f 4a 2f 40 b9 d1 34 40
       2.0023084 2.244039 2.7389219 2.8253005
0003e0 a0 df ec 3f e0 44 e5 3f 76 42 2d 40 72 51 2c 40
       1.8505745 1.7911644 2.7071815 2.692471
0003f0 a6 33 0a 40 93 4a e0 3f c0 47 29 40 1c 55 1a 40
       2.1594024 1.7522758 2.6450043 2.4114447

bias f4 [2379]
000000 86 d8 6b 40 37 32 3c 40 84 0c 86 3f ff 04 15 c0
       3.6850905 2.9405649 1.047257 -2.32843
000010 99 01 29 40 4f 45 79 bf 52 72 12 40 a5 9e 9b bf
       2.6407225 -0.9737138 2.2882276 -1.215779
000020 ed 25 d2 c0 af d0 e6 c0 a4 cd c9 c0 54 63 c2 c0
       -6.5671296 -7.212974 -6.3063526 -6.074625
000030 b9 37 ac 3f b9 26 ef 3e c0 26 a5 c0 7e 00 5f bd
       1.3454505 0.4670923 -5.16098 -0.05444383
000040 13 27 2e bf d5 3e 8e c0 38 84 18 40 4e da a8 c0
       -0.6802837 -4.44517 2.38307 -5.2766485
000050 8f b0 52 40 d7 14 f5 bf 1a 08 2d 40 7c aa 93 c0
       3.2920263 -1.9146985 2.7036195 -4.614561
000060 b9 52 db c0 b1 46 22 c0 31 9f 1d 40 f0 ff a2 c0
       -6.853848 -2.5355647 2.4628413 -5.0937424
000070 be d5 30 40 d0 81 d9 c0 3f dd 09 c0 e2 4a 61 c0
       2.7630458 -6.7970963 -2.1541288 -3.5201955
000080 f6 e2 e5 c0 07 f4 66 3f a1 d7 8e c0 2d ce ab 3f
       -7.183955 0.90216106 -4.463822 1.3422295
000090 95 23 cd c0 48 0c c0 3f 11 47 b6 c0 0e c1 2b 40
       -6.4105935 1.5003748 -5.696175 2.6836581
0000a0 3a f8 22 c0 2c 17 4f 40 cb 7b d0 3f 93 29 57 40
       -2.5464005 3.2357893 1.6287779 3.3619125
0000b0 a1 29 20 3e 91 27 3c 40 d6 ac ca c0 18 10 1b 40
       0.1564088 2.939915 -6.333598 2.4228573
0000c0 be 5f b5 bf b9 da 76 40 e5 a2 4a bf 68 bc 38 40
       -1.4169843 3.8570998 -0.7915481 2.8864994
0000d0 db de 6d 40 9f 5a 4a 40 95 ce 52 40 78 07 8a 3f
       3.716727 3.161781 3.2938588 1.0783529
0000e0 10 b8 89 3f 4d 70 62 40 cc d7 16 40 20 ef 1e bf
       1.0759296 3.5381043 2.3569212 -0.62083626
0000f0 fa 07 25 3f c2 3a d7 c0 e2 8f e5 c0 43 32 cc c0
       0.64465296 -6.7259226 -7.173814 -6.3811355
000100 d7 ea e5 c0 97 0a eb c0 91 71 d8 c0 f2 fc d2 c0
       -7.184917 -7.3450427 -6.763863 -6.593377
000110 77 51 d3 c0 14 8d d1 c0 04 64 e3 c0 c2 ff e2 c0
       -6.6036944 -6.5484715 -7.105959 -7.0937204
000120 5f 79 df c0 f4 9b dc c0 85 6f d6 c0 1f 69 e7 c0
       -6.983566 -6.8940372 -6.701113 -7.231582
000130 d2 dd c6 c0 60 39 e3 c0 62 b7 df c0 d9 bd e0 3f
       -6.2145777 -7.100754 -6.9911356 1.7557937
000140 30 bb 14 40 37 bd ca 3e 8f 5f 2d c0 0c 31 80 3f
       2.323925 0.39597484 -2.7089574 1.0014968
000150 d8 f9 52 be 4a fa 4c 40 6a c1 09 c0 60 c7 c1 c0
       -0.2060312 3.2027764 -2.15243 -6.055588
000160 98 35 72 bf 48 a4 bc be 2c 13 9a c0 b6 a1 bd 3f
       -0.9461303 -0.36844087 -4.8148403 1.4814975
000170 5b 65 cf 3f ed 8c 8c be 69 da d9 c0 76 5e 8b c0
       1.6202806 -0.27451268 -6.8079114 -4.355281
000180 0d 3f d3 c0 c5 fc dc c0 5c f4 d7 c0 4a f4 e7 c0
       -6.6014466 -6.9058557 -6.748579 -7.2485704
000190 ec 05 f3 c0 49 6c c9 c0 35 6d f3 c0 a2 d2 d9 c0
       -7.594473 -6.2944684 -7.607081 -6.806962
0001a0 d2 2c d5 c0 4b b0 df c0 ea 4b bc c0 5e 15 df c0
       -6.661721 -6.99027 -5.884267 -6.9713583
0001b0 42 53 ce c0 f7 4a f4 c0 b0 6f e7 c0 d8 b4 da c0
       -6.4476633 -7.634151 -7.2323837 -6.8345757
0001c0 a9 1a dc c0 43 db d2 c0 e1 28 e9 c0 19 82 d8 c0
       -6.8782544 -6.5892653 -7.28624 -6.765881
0001d0 fd 66 da c0 a3 3b cb c0 9c 33 e1 c0 e9 3f e2 c0
       -6.825072 -6.35103 -7.03755 -7.0703015
0001e0 14 fa bf c0 2f c1 e8 c0 36 9b eb c0 83 e5 cf c0
       -5.999277 -7.273582 -7.3626966 -6.4967666
0001f0 10 4d dc c0 99 f6 db c0 ac c2 d0 c0 66 59 d2 c0
       -6.884407 -6.8738523 -6.5237637 -6.573413
000200 9f 9c dc c0 f1 20 d1 c0 88 e2 d8 c0 a5 0b e3 c0
       -6.894119 -6.535271 -6.7776527 -7.0951715
000210 5e da cf c0 bc f3 56 c0 e2 6f ad 3f 5a 2e c3 c0
       -6.495406 -3.3586264 1.3549769 -6.099408
000220 5d 2d 3b c0 71 4b e8 c0 71 fd e0 c0 2b 06 75 c0
       -2.9246438 -7.259209 -7.0309377 -3.8285015
000230 c9 d4 b0 c0 88 9c d1 c0 7d 95 c4 c0 b9 c4 cd c0
       -5.5259748 -6.550358 -6.143248 -6.430264
000240 43 1a cb c0 81 6e b1 c0 09 8c d7 c0 47 1d de c0
       -6.346956 -5.5447392 -6.735844 -6.941074
000250 5e 1e d4 c0 b7 9f d1 c0 25 4b d6 c0 2d 9b ea c0
       -6.628707 -6.5507464 -6.696673 -7.3314424
000260 2b 87 d1 c0 9f d5 cf c0 da 04 d7 c0 8a 2c d5 c0
       -6.54775 -6.494827 -6.719342 -6.661687
000270 92 d6 dd c0 d5 7e d0 c0 1d 0f d6 c0 b5 ee e7 c0
       -6.9324427 -6.5154824 -6.689345 -7.247889
000280 c3 3d ed c0 79 4a f2 c0 e4 09 ce c0 b7 bd ee c0
       -7.4137893 -7.571591 -6.4387074 -7.4606586
000290 ed db d6 c0 05 bf d9 c0 de 26 cb c0 d3 df d7 c0
       -6.7143464 -6.804568 -6.3484945 -6.7460723
0002a0 80 02 db c0 9d 4e e4 c0 56 38 d8 c0 53 ae df c0
       -6.844055 -7.1345963 -6.756877 -6.99003
0002b0 b7 68 d7 c0 60 02 e7 c0 dc 19 e4 c0 a7 3e e3 c0
       -6.7315326 -7.21904 -7.1281567 -7.101398
0002c0 3c b6 e5 c0 f1 cf d9 c0 0f 82 e6 c0 5d f3 d2 c0
       -7.1784954 -6.8066335 -7.2033763 -6.5922074
0002d0 c5 29 d3 c0 98 67 d4 c0 65 a0 d1 c0 0f 48 da c0
       -6.598849 -6.6376457 -6.5508294 -6.821296
0002e0 71 3e d8 c0 9f e0 e5 c0 ae 1c d7 c0 e6 90 dd c0
       -6.7576222 -7.1836696 -6.722251 -6.923938
0002f0 fc 98 de c0 b4 81 b6 c0 2f fc e9 c0 a6 46 91 bf
       -6.956175 -5.703333 -7.312034 -1.1349685
000300 57 a3 d8 3e 5d 38 0c c0 00 ba c2 c0 c5 14 1d 3d
       0.42312118 -2.1909401 -6.085205 0.038349885
000310 ba 2a 60 be db 9e e1 3f 54 f9 8e c0 b0 77 c8 c0
       -0.21891299 1.7626604 -4.4679356 -6.2646103
000320 f4 91 03 40 bc 1e ea 3f a1 82 b7 c0 bc ca 80 3f
       2.0557833 1.8290629 -5.734696 1.006187
000330 d0 b3 de be 47 4a 03 c0 98 03 d7 c0 5e 5a d7 c0
       -0.4349656 -2.0514085 -6.7191887 -6.729781
000340 ee 15 d8 c0 0e 2d e3 c0 54 97 da c0 5d 0f e8 c0
       -6.752677 -7.09925 -6.8309727 -7.2518754
000350 31 44 d0 c0 f2 51 d9 c0 21 21 ed c0 95 2c d9 c0
       -6.508324 -6.791253 -7.410294 -6.786692
000360 c5 1b d6 c0 53 e3 d7 c0 ad f3 d9 c0 dc 1a e0 c0
       -6.69089 -6.7464995 -6.8109956 -7.0032787
000370 ee 60 e2 c0 15 4c dd c0 09 c3 d8 c0 ee f2 dd c0
       -7.074332 -6.9155374 -6.773808 -6.9359045
000380 aa 0e e2 c0 d1 3f d3 c0 ad 23 e8 c0 d5 51 e5 c0
       -7.06429 -6.60154 -7.254355 -7.1662393
000390 d8 5c da c0 77 80 dd c0 47 e6 ec c0 ff 74 be c0
       -6.8238335 -6.9219317 -7.40311 -5.9517817
0003a0 82 fa d3 c0 7c 53 e4 c0 cc 8e d5 c0 17 9a e6 c0
       -6.6243296 -7.135191 -6.6736813 -7.20631
0003b0 e1 f3 e0 c0 58 47 ce c0 1b 7d d1 c0 2c e4 de c0
       -7.0297704 -6.446209 -6.5465217 -6.965353
0003c0 a0 79 da c0 21 1a c3 c0 f5 e4 e9 c0 6b 16 e0 c0
       -6.827347 -6.0969396 -7.309199 -7.0027366
0003d0 2b 60 ce c0 3a 32 7a c0 fe fe 01 c0 88 d8 c9 c0
       -6.4492393 -3.9093156 -2.0311885 -6.307682
0003e0 30 98 8e c0 42 1e e7 c0 a0 17 e0 c0 6c d8 dd c0
       -4.4560776 -7.2224436 -7.002884 -6.9326687
0003f0 10 78 e7 c0 3f ca cd c0 a0 af cf c0 6f b1 d0 c0
       -7.233406 -6.4309382 -6.4901886 -6.5216594
