data/saved_models/neural-model-state-dict-tokenized-512-2-2.pth (torch, 106915 bytes, 10 tensors)

lstm.weight_ih_l0 f4 [8, 2379]
00000000: f4ad 0641 436d de40 b6e0 b840 fe4e d3c0
00000010: 7dfe 2140 8ca7 1dc0 dee3 eb40 4633 3dc0
00000020: 8c4d 1a3d 3d2b 223f acec c83d c356 ff3d
00000030: 53be b640 5754 bb3f aaba 4ac0 92c9 52c0
00000040: 059a 9840 7c92 2dc0 2e23 1041 71f7 23be
00000050: 1984 aa3e 046b b8c0 2494 293f 83a5 56c0
00000060: c043 113f e31f a840 1a9d 1741 d7e8 1abe
00000070: 40d6 dbc0 1919 263f 6fd3 5ec0 1cb8 8140
00000080: df28 193e 5930 85bf 0f26 b93f fdc8 ac3e
00000090: 1c1c aa3e 77c9 95c0 bd3c 86c0 a0a1 db3f
000000a0: 3589 af40 db3e 393f a35f 2141 a46f 6240
000000b0: 22ee a740 3385 0bbf e7f1 853e 94df cd3f
000000c0: 68ff bac0 c1e0 d8be 4a8c 1fc1 b94e afbf
000000d0: 09d5 6a3f 73a0 193f 7b6e bf3f 278a dbbf
000000e0: 829b 4c40 74cb 28c0 9dad 073f 0285 2dc1
000000f0: 1a44 dcc0 bdd8 ecbe 7e55 df3e c177 b33e
00000100: 801c a9be 513d d7be d70b 753e ed3f c63d
00000110: 03a5 693e 2bfa 143f 0759 313d 5e5e f63e
00000120: 609c 753e 23fc e8be 47c7 8ebd 643e 5dbe
00000130: 7d56 1a3f c6f3 573e 0d4a 163f c9ca 1cbf
00000140: d0d0 573f b74c 92c0 47ec 5a3f be83 dfc0
00000150: 342c d43f 62c9 2741 0795 14c1 b5a4 383e
00000160: 2fe6 0a41 ee16 a93e 3db5 86c0 07f8 89c0
00000170: 5927 49c1 d339 4840 3a8b 16bf c07b a3c0
00000180: d9fd 233f 967f 9abe fe14 873e ca35 5a3d
00000190: 7515 8b3e b4cf 69be b576 1a3f ef68 f13e
000001a0: 6be2 803e 4f7f 8ebe 5cda f7be 57f8 a6bd
000001b0: abb9 96bd 0524 63be 21e5 73be 36c5 e2be
000001c0: ea2e 8fbd 43df 2ebf 7fe5 15bf 1202 8abe
000001d0: 7ebe 9dbe 9e84 febe 8575 cdbe 670f bbbe
000001e0: 2a6f 243f 15e6 18bf 5b98 9a3e b15f b9be
000001f0: b248 2abf 324c 323f 0629 ddbd 3216 1e3d
00000200: 08ea b73e 1c56 ab3e e955 833e 4405 00bf
00000210: efc3 313e 1b17 9bbf 6d23 ddbe 8f0e 57be
00000220: 034e f83f 8e9c fbbe 9005 21bf 09b9 0dc0
00000230: ce6e a63f 6c93 133f 36f3 093d 1585 c1be
00000240: 0e19 79be 9882 a5be a3b6 d63e ef8c 983d
00000250: 9f5c 80be bb0a 433e 575a 7fbe d9e1 6dbe
00000260: 1b89 1cbf de76 92bd 8efd 913e f880 df3e
00000270: 129d debe f6bd 543e 7d18 32bf f4c3 96be
00000280: ddfb f4be 3290 bfbd 80eb e33e 105d 48be
00000290: ff18 efbe 0996 98be bdd3 8ebd 9c5c a8be
000002a0: 3b83 573e 6929 22bf a9fb 12bf bca4 c83e
000002b0: 34d3 46be 33d2 bdbe 092c 853e 9f5a 0bbf
000002c0: 54f0 a63e 7b73 e13e 1b50 ac3e 0bb0 2a3f
000002d0: cf2f 0dbe 9151 d1be 4543 0e3f 7d4b 1f3f
000002e0: b238 0c3e 6c7c 84bd 77ac 30bf d190 d23e
000002f0: b761 7cbe fd01 01bd cabb 7fbe 70f5 f6be
00000300: ece3 11bf b09e 86c0 a798 2ec0 6cd5 68c0
00000310: 58c3 1ac1 168d fb40 f5ca 1bc0 5ac5 113f
00000320: 9548 b340 8fc6 1341 3ceb 5dbe 8daf 2941
00000330: d308 36c0 672e c9bf c861 b93e 37f1 9bbe
00000340: 8bb7 cdbc ef47 12bd c499 d23e 0a25 e93e
00000350: 6f19 28be 7695 cfbd cb83 ef3d 756f 0e3f
00000360: e890 843e 740b 96bd dad0 7ebe 689a 32bf
00000370: 01bc 673e cf04 bf3d 4551 10be 9496 ecbe
00000380: 55f7 c6be 2b29 b9be e821 9a3e 5124 263e
00000390: 770d d1bd 5713 0ebf 8f18 c43e 0ed8 22bf
000003a0: fea1 d33c 8619 8fbd c43f 2e3e b6f0 f53e
000003b0: b622 e0bc 7bbb fbbe f4fe 023f f62d 243f
000003c0: 1315 25be 9c9f 86be a6b8 08bf e2ab bbbd
000003d0: bbac a9be ccaf 953f d2e7 d3c0 2b3d ac3e
000003e0: e82b 55c0 9b6d 073f 8d98 8a3e d740 d1be
000003f0: 40eb 773e cbe2 133d f914 b03e 8e34 f7be
8.417469 6.9508376 5.7774305 -6.6033926 2.5311577 -2.4633512 7.371566 -2.9562545
0.03767161 0.63347226 0.098107666 0.1246772 5.710733 1.4635113 -3.167643 -3.2935529
4.768801 -2.7120657 9.008589 -0.1601236 0.33303908 -5.7630634 0.6624167 -3.353852
0.56744003 5.2538924 9.475855 -0.15127884 -6.8699036 0.64882046 -3.481655 4.0537243
0.14956997 -1.040538 1.446474 0.33747092 0.3322457 -4.680843 -4.1949143 1.7158699
5.485499 0.72361535 10.085849 3.538064 5.247819 -0.5450012 0.2616112 1.6083856
-5.8436775 -0.42358974 -9.97175 -1.3695899 0.91731316 0.6001045 1.4955591 -1.7151536
3.1969914 -2.6374178 0.5299929 -10.844973 -6.883313 -0.46259108 0.43619913 0.35052302
-0.33029556 -0.42038968 0.23930298 0.096801616 0.22816853 0.58194226 0.043297794 0.4811887
0.23985434 -0.45504865 -0.06971603 -0.21605831 0.6028822 0.21089086 0.5870674 -0.61246926
0.84303 -4.5718646 0.8551678 -6.984832 1.657599 10.486666 -9.286384 0.18031581
8.681197 0.33025306 -4.209624 -4.311527 -12.572106 3.1285293 -0.5880619 -5.108856
0.64059216 -0.30175465 0.26383203 0.053273953 0.27164808 -0.22833139 0.6033738 0.4715037
0.25172743 -0.27831504 -0.48408782 -0.08152836 -0.07359632 -0.22181709 -0.23817874 -0.44291085
-0.0699137 -0.6830942 -0.5855331 -0.26954705 -0.30809397 -0.49710554 -0.40128723 -0.3653519
0.6423212 -0.5972608 0.30194363 -0.3620582 -0.66517174 0.69647515 -0.1079884 0.038595386
0.3592074 0.33464134 0.25651482 -0.50008035 0.17359899 -1.2116426 -0.4319109 -0.21001647
1.9398807 -0.4914288 -0.6289911 -2.2144186 1.3002565 0.5764682 0.03367921 -0.37796846
-0.24325964 -0.32326198 0.41936216 0.07448756 -0.25070664 0.19047062 -0.24936806 -0.23230685
-0.61146706 -0.07151578 0.2851376 0.43653083 -0.4347921 0.2077559 -0.69568616 -0.29446375
-0.47848406 -0.09353675 0.4451561 -0.1956675 -0.46698758 -0.29801968 -0.069739796 -0.32883155
0.21046154 -0.63344437 -0.5741525 0.39188182 -0.19416505 -0.37074432 0.2601016 -0.5443515
0.3260523 0.44033417 0.33654866 0.6667487 -0.13787769 -0.40882543 0.55571395 0.6222456
0.13693503 -0.06469044 -0.6901316 0.4112611 -0.2464665 -0.031496037 -0.2497398 -0.4823413
-0.56988406 -4.206871 -2.7280672 -3.6380262 -9.672691 7.8609724 -2.4342625 0.5694176
5.60261 9.235976 -0.21671766 10.605359 -2.8442886 -1.5717286 0.36207414 -0.3045747
-0.025111934 -0.035713132 0.4113294 0.4553607 -0.16415952 -0.10135929 0.116950594 0.5563882
0.25891805 -0.07326403 -0.24884358 -0.69766855 0.22630312 0.09327089 -0.14093502 -0.46208632
-0.38860574 -0.3616422 0.30103993 0.16224791 -0.10207646 -0.5549826 0.38299987 -0.63610923
0.02583408 -0.0698729 0.17016512 0.4803521 -0.027360301 -0.49166474 0.5117028 0.6413263
-0.1612132 -0.26293647 -0.5340675 -0.091636434 -0.33139595 1.1694274 -6.6220484 0.33640417
-3.3308048 0.5290162 0.27069512 -0.4086978 0.24210835 0.03610496 0.34391 -0.48282284

lstm.weight_hh_l0 f4 [8, 2]
00000000: b674 cdc0 5429 0940 30c3 aec1 52d1 93c1
00000010: 14da 8f3f e4d8 3641 ae8c 85bf 91bd b0c1
00000020: f5c7 cb3f 239e c7bf dbf0 08c2 a60d 4340
00000030: e157 84c0 0bae 41c1 7cac 7440 6213 8441
-6.420497 2.1431475 -21.845306 -18.477207 1.1238427 11.427952 -1.0433557 -22.092562
1.5920397 -1.5595134 -34.23521 3.047708 -4.1357274 -12.104991 3.8230276 16.509464

lstm.bias_ih_l0 f4 [8]
00000000: 2d5e 25bf 0908 acbe 6491 313d 0935 0abf
00000010: 6a84 dfbf f346 1340 d9d2 5dc0 1405 a9bf
-0.64596826 -0.3359988 0.043351546 -0.53987175 -1.7462285 2.3012054 -3.4659941 -1.3204675

lstm.bias_hh_l0 f4 [8]
00000000: 7f20 bbbe b815 0bbf 8d4c 873f 07dc acbe
00000010: 79b4 02c0 2aa4 1640 7ea6 73c0 cd94 dabf
-0.3654823 -0.54330015 1.0570236 -0.33761618 -2.0422652 2.3537698 -3.8070369 -1.707666

lstm.weight_ih_l1 f4 [8, 2]
00000000: e913 66c1 de8a 8240 77bc d1c0 0a6c 2740
00000010: 9170 083f c734 0ec3 0f16 7d42 8eec 453e
00000020: 46bc 1cc1 c574 9dc2 0b06 f242 9b2f b53e
00000030: 4ac3 ccbe 6054 8f40 d893 19c1 6d55 a23f
-14.379861 4.0794516 -6.554256 2.6159692 0.5329676 -142.20616 63.27154 0.1932852
-9.795965 -78.728065 121.0118 0.35387883 -0.39992744 4.4790497 -9.598595 1.268232

lstm.weight_hh_l1 f4 [8, 2]
00000000: b960 3ebf 9645 9dbf 2a6d 30bf 10b9 3cbf
00000010: 0146 2341 4616 0e3e e394 5f41 e852 0c42
00000020: 8aca 5841 f161 3dc0 c647 36bf 2a3c 4340
00000030: cc10 33c2 fdcf b7be 9e14 0a40 4428 02c1
-0.7436634 -1.2286861 -0.6891657 -0.7371988 10.204591 0.13875684 13.973849 35.080963
13.549448 -2.9591029 -0.7120327 3.0505471 -44.766403 -0.3590087 2.1575084 -8.13483

lstm.bias_ih_l1 f4 [8]
00000000: 22ab cf3f d524 c8bf 75b1 373f dbe3 2b3e
00000010: bcc9 ddbe aace 953d 12ee 10c0 17df 2140
1.62241 -1.563624 0.7175515 0.16786139 -0.43317974 0.07314809 -2.2645307 2.5292413

lstm.bias_hh_l1 f4 [8]
00000000: 5bdc 793f b98f e0bf 9fe0 f73f c1e3 31be
00000010: 6f6c 17bf 7fef 313e bbfb f3bf 6bb8 3440
0.9760186 -1.7543861 1.9365424 -0.17372037 -0.5914983 0.17376517 -1.9061197 2.823756

fc.weight f4 [2379, 2]
00000000: 48cb aa41 9b06 8dc1 e5ca 8740 dfbd 8bc1
00000010: 12f6 2641 ec14 8bc1 6e6c 1941 7d1a 85c1
00000020: b0cf bd41 60fd 8bc1 1baf 8341 dd2e 8ec1
00000030: 9ff0 8841 2198 8dc1 c764 b341 f810 89c1
00000040: cb44 59bf d2b8 4540 0202 47bf c0f4 3a40
00000050: 3f8b 56bf a89f 0c40 f572 5dbf a80c 2540
00000060: b7af cb41 5e67 8ec1 fb4f c441 19d6 8ec1
00000070: 24d4 2741 25d9 1dc1 f139 1841 5da8 88c1
00000080: 47ef bd40 8f9c 8cc1 c400 6641 dcb7 5ac1
00000090: 3df2 1bc0 8b6e 8c41 b6d8 5840 93ad 71c0
000000a0: c463 7ac0 9269 58c1 19ca a6c0 3d6c 6cc1
000000b0: d7fa 57c0 3de0 62c1 2a3c 94be e577 ebc0
000000c0: 2c38 4abf 05c2 2440 826b 75bf 3702 f540
000000d0: 1d6e 7d40 d6ea 89c1 a927 4441 fd87 30c1
000000e0: 9d73 4dbf a9cc 87c1 a1eb 41bf f69b 4840
000000f0: 0974 4fc0 44e1 9341 79e5 ccbf 16d2 d7c0
00000100: 78eb 5dbf bcf9 3540 e26d 0ec0 0cb0 2e41
00000110: def4 1bc0 65bf 25bf 6826 71c0 9361 33c1
00000120: 83f0 57bf b2f8 4540 19bc f4bf f513 7640
00000130: e448 fcbe 949c ee40 9bb5 4cc0 537d 19c0
00000140: a61f 72c0 9772 963e 69da 4ec0 b584 4fc1
00000150: 271f 68c0 8893 87c1 b85d 6ec0 687c 51bf
00000160: 68cc 4040 c3ff e740 b757 7fbf ac43 76c1
00000170: 6dbf 723e 59e3 5c3f 99c4 89be 3bdc 7fc1
00000180: 2318 8c3e ffe2 cac0 6e8e f1bf c31b 16c1
00000190: fca8 2e3f 3e36 f040 5d37 30c0 1ef9 6041
000001a0: 44e6 38c0 201f 2540 e880 46c0 1378 2040
000001b0: 87ff 20c0 9b2c 6bbf a769 81c0 9476 6bc1
000001c0: c1c5 6ec0 6c14 24c1 eaad e5bf e84d 80c1
000001d0: 4081 79c0 6dfb 86c1 a24b 41c0 7b8f 953f
000001e0: d21d af40 ee26 87c1 94dc 35bf 4b80 1d40
000001f0: ad78 53bf 9225 1040 39a3 5ebf 53b6 1940
00000200: 8310 5bbf 7311 0840 a805 32bf e56d 3840
00000210: eea9 3bbf 69ec 3140 9e6b 58bf b11f 1640
00000220: 40cd 3abf f781 3240 b810 53bf 5217 2740
00000230: 48cb 57bf d09a 2f40 d5c5 5bbf 6315 3740
00000240: 77e9 60bf b5ee 4440 be4f 5abf 7140 2440
00000250: 94ba 40bf 25bb 0f40 e816 30bf 436f 3040
00000260: 85ea b8bf dfbc b340 2e67 4fbf 4cd7 0e40
00000270: 4b74 59bf 8e4b 1540 d0dc bbbf 6b4e 4c41
00000280: b905 4fc0 9a30 373f fc3c 3140 8d6a 82c1
00000290: 3ed4 c7be 9cfb 37c1 8217 88bf 9b4d 55c1
000002a0: f594 84be 9d8c 16c1 66f1 97bf fed4 85c1
000002b0: 1db4 6940 5f97 68c1 19a2 ec40 e904 dac0
000002c0: 9887 c6bf b7e3 79c1 ac95 2cc0 fbb1 9d40
000002d0: fe91 5041 946d 13c1 1d0e 8b3d 065b 84c1
000002e0: 44e4 8abf 3478 12c1 32e6 bb41 4f96 8ec1
000002f0: 2d83 55bf 652b 2b40 1f2e 81c0 7018 3941
00000300: 2460 3bbf 1d72 3040 da6b 2bbf 8930 2d40
00000310: c25d 56bf 0d49 2040 3558 56bf a28d 0940
00000320: e76b 55bf c67c 2540 45a1 5cbf 91f4 2040
00000330: 6312 5cbf 3b80 2540 cae1 58bf 5aaf 1e40
00000340: 6011 38bf d652 4f40 920a 32bf f95f 2040
00000350: 32fe 0abf 259a 2e40 5e53 30bf 5716 3940
00000360: 1523 50bf 2669 0f40 623d 03bf ba85 3940
00000370: 4470 49bf ef4f 1040 a3f8 5bbf 6a18 4440
00000380: 3cbb 43bf cc10 2040 0928 22bf 9aa9 2840
00000390: e00a 37bf 2586 4b40 8399 5dbf 190c 2240
000003a0: 59d0 eebe 22dc 4f40 0e1c 26bf 0d32 3440
000003b0: d66f 57bf e8d8 0d40 a94f 12bf 16b7 4d40
000003c0: eca8 14bf d69f 1640 ee01 57bf f605 3440
000003d0: dbbb 57bf b4d6 2840 2afc 57bf 2938 2540
000003e0: 22f1 36bf d206 3140 70be 55bf b434 1040
000003f0: a626 56bf 6a62 4a40 b0f8 53bf edc0 2e40
21.349258 -17.628225 4.2435174 -17.46771 10.435076 -17.385216 9.588972 -16.637934
23.72641 -17.498718 16.4605 -17.772882 17.11749 -17.699282 22.424208 -17.133286
-0.84870595 3.0894055 -0.7773744 2.9211884 -0.8380622 2.1972446 -0.86503536 2.5788975
25.460798 -17.800472 24.539053 -17.85454 10.489292 -9.865514 9.514146 -17.082209
5.9354587 -17.576445 14.375187 -13.669888 -2.43666 17.553976 3.388227 -3.7762191
-3.9123392 -13.525774 -5.21217 -14.776425 -3.374685 -14.179746 -0.28952152 -7.3583856
-0.7899196 2.574342 -0.9586717 7.6565204 3.9598458 -17.239666 12.259683 -11.0332
-0.80254537 -16.974932 -0.75750166 3.134519 -3.2414572 18.484993 -1.600753 -6.7443953
-0.8668742 2.8433676 -2.2254567 10.91798 -2.4368205 -0.6474517 -3.7679691 -11.211322
-0.84351367 3.0933042 -1.9119903 3.844968 -0.4927436 7.4566135 -3.1985843 -2.3982742
-3.7831817 0.293843 -3.2320807 -12.969899 -3.6269014 -16.947037 -3.7244701 -0.81830454
3.012476 7.249971 -0.9974322 -15.391521 0.23705836 0.86284405 -0.26907805 -15.991267
0.27362165 -6.3402095 -1.8871591 -9.381778 0.682266 7.5066214 -2.753379 14.06082
-2.8890543 2.5800247 -3.1016178 2.5073287 -2.5155962 -0.9186494 -4.044147 -14.71645
-3.73082 -10.254986 -1.7943699 -16.03804 -3.8985138 -16.872766 -3.0202413 1.1684412
5.47239 -16.894009 -0.710397 2.4609554 -0.8260601 2.252293 -0.8696781 2.4017532
-0.8557207 2.126065 -0.6953988 2.8817074 -0.7330617 2.7800543 -0.8453921 2.3456843
-0.72969437 2.7891824 -0.82447386 2.6107984 -0.8429456 2.743824 -0.8584874 2.8606803
-0.8785624 3.0770695 -0.85277927 2.5664332 -0.75284696 2.2457974 -0.6878495 2.7567909
-1.444657 5.6168056 -0.81016815 2.2318907 -0.84943074 2.3327365 -1.4676762 12.769145
-3.2347243 0.71558535 2.7693472 -16.302027 -0.39029115 -11.498928 -1.0632174 -13.331447
-0.25894895 -9.409329 -1.1870544 -16.729 3.6516182 -14.536956 7.3947873 -6.8130994
-1.551013 -15.618094 -2.6966352 4.927976 13.035643 -9.214252 0.06789801 -16.544445
-1.0850911 -9.154346 23.4874 -17.823393 -0.83403283 2.6745236 -4.03688 11.568466
-0.73193574 2.756965 -0.66961443 2.7060874 -0.83736813 2.5044587 -0.83728343 2.1492696
-0.8336777 2.5857406 -0.8618358 2.5149271 -0.85965556 2.5859516 -0.84719527 2.4794526
-0.7190151 3.239431 -0.6954738 2.5058577 -0.5429412 2.7281582 -0.6887721 2.8919885
-0.8130353 2.2407928 -0.5126554 2.898787 -0.7868693 2.2548788 -0.85926265 3.06399
-0.7645757 2.5010252 -0.6334234 2.6353517 -0.7150097 3.1800625 -0.86562365 2.5319884
-0.46643332 3.2478108 -0.6488656 2.8155549 -0.84155023 2.216364 -0.571528 3.2142997
-0.58070254 2.3535056 -0.8398732 2.8128638 -0.8427102 2.6381044 -0.84369147 2.5815527
-0.7146169 2.7660413 -0.8349371 2.2532167 -0.8365272 3.1622567 -0.8280134 2.7305253

fc.bias f4 [2379]
00000000: 4b3a 3940 1f79 1240 f520 df3e 6967 1cc0
00000010: 016d e23f 9e26 b2bf a1a9 c03f 1db7 0fc0
00000020: 1bfa 63c1 8f56 64c1 e9c5 54c1 377d 5dc1
00000030: 9ded 393f 648b 81be 8530 99c0 d431 3fbf
00000040: dffc 8bbf 4c74 92c0 f0f3 4f40 5aea b3c0
00000050: b519 4740 794a 96bf 05f8 3040 35ad 8dc0
00000060: eaaf 59c1 910c 06c0 2a88 f73f b22f a3c0
00000070: 7192 1c40 8a2c 57c1 2620 05c0 3095 6ac0
00000080: c4b7 64c1 6cad 963f 6e81 98c0 3749 b73f
00000090: a0bd 54c1 bac9 0b40 d92e 96c0 233b 2640
000000a0: a659 24c0 e0d9 3440 d0ed 693f 1234 5640
000000b0: 0f65 473f fef9 1f40 05ed f5c0 dbd3 ee3f
000000c0: 4083 a0bf e425 7040 b8e8 643d e010 7340
000000d0: d9d5 8540 2eca 5a40 2a8a 5c40 1d0d 4d3f
000000e0: 20af 973f 3173 3d40 e772 2e40 8728 41be
000000f0: b612 7c3e 42ab 5fc1 9a57 5dc1 fca9 5fc1
00000100: cb2b 58c1 ade4 55c1 6866 56c1 b6eb 51c1
00000110: 5d1a 53c1 a133 62c1 45b4 50c1 59e3 5ac1
00000120: 03b9 61c1 ce1a 5dc1 3bd0 56c1 3488 63c1
00000130: ffc4 04c1 c243 5cc1 fbde 5cc1 0ade 1b40
00000140: 9a24 2e40 0989 89bd cde0 41c0 b7f9 2b3f
00000150: 84f4 d4be f1cd 2440 4d42 27c0 6825 dcc0
00000160: 7edc b7bf 7aea b83b b4f9 acc0 55d2 713f
00000170: a9fc 8e3f c7b1 01bf 3db3 5fc1 5dcf a4c0
00000180: 5405 63c1 afd0 5fc1 018e 53c1 2e4f 5cc1
00000190: e773 51c1 5abd 5bc1 1db3 5ec1 1564 5fc1
000001a0: 7f60 5ec1 0654 53c1 a72a 60c1 f169 63c1
000001b0: acf3 5fc1 c24b 5cc1 9295 60c1 26a0 5fc1
000001c0: 4f56 51c1 79ba 53c1 1d3f 5fc1 970c 63c1
000001d0: 4dea 5ac1 80df 56c1 ee4f 62c1 a574 61c1
000001e0: bb73 5ec1 7514 60c1 e90d 56c1 c64b 56c1
000001f0: c102 53c1 ff0f 4cc1 d64c 61c1 f301 55c1
00000200: f61d 60c1 5d26 5ac1 4342 5bc1 e433 59c1
00000210: 514f 63c1 7139 46c0 6ac7 933f 866f d9c0
00000220: 6fcf 25c0 79d4 5ec1 dede 64c1 f726 4bc0
00000230: 5bac b5c0 5b3f 55c1 5eb2 5dc1 7520 51c1
00000240: fbd6 56c1 2636 bec0 14f9 5bc1 ad04 56c1
00000250: 9bd0 5bc1 7057 60c1 ae2f 62c1 5ec4 5cc1
00000260: 9349 62c1 e9d3 55c1 5c6a 54c1 c065 5ac1
00000270: d55e 55c1 bf22 58c1 c20c 57c1 4221 52c1
00000280: 73d0 60c1 d432 5bc1 2f6a 50c1 0426 5fc1
00000290: 5926 5dc1 0a94 63c1 cc77 5fc1 b16a 57c1
000002a0: 838f 59c1 13d1 57c1 d797 62c1 602c 5ec1
000002b0: 0631 62c1 94db 53c1 7d25 64c1 a547 59c1
000002c0: b2ec 58c1 18df 5cc1 e20d 58c1 04be 60c1
000002d0: b9f6 57c1 7be4 63c1 d369 5dc1 9683 5cc1
000002e0: 0795 59c1 a886 57c1 3205 55c1 6f6b 59c1
000002f0: 32d6 53c1 8906 c9c0 b0f5 58c1 732a 22bf
00000300: f216 c63d 2d74 0bc0 dd0c e5c0 c44a 103e
00000310: 86c8 33bf 2b79 783f 4290 7cc0 0755 58c1
00000320: cece c63f 8323 3340 8651 dfc0 d918 933f
00000330: 37f9 a0bf 6a90 18c0 2918 59c1 199d 55c1
00000340: 397c 53c1 d8be 55c1 9c21 5bc1 ce88 59c1
00000350: d8a9 57c1 2791 61c1 e231 58c1 cf78 54c1
00000360: 39ee 64c1 d975 5bc1 dd64 5fc1 aa11 53c1
00000370: 1cf5 4fc1 dc84 5fc1 6ce3 60c1 d3b0 54c1
00000380: d144 50c1 b852 56c1 5073 5cc1 7963 65c1
00000390: e02b 54c1 3047 4dc1 cc88 5ac1 ad24 59c1
000003a0: 06ee 5ec1 964f 60c1 aead 61c1 7c9b 64c1
000003b0: b832 58c1 d68d 5cc1 aebd 62c1 137a 57c1
000003c0: 1bff 51c1 9032 58c1 c9c1 55c1 6aa1 65c1
000003d0: 73bd 64c1 d40c 5dc0 f325 06c0 602d 61c1
000003e0: d99b a3c0 8314 53c1 df43 4fc1 efca 5ac1
000003f0: 7635 60c1 28a7 02c1 4fc0 55c1 bc3f 4ac1
2.894183 2.2886426 0.43579832 -2.4438117 1.7689515 -1.3918035 1.5051767 -2.2455513
-14.248561 -14.271132 -13.298318 -13.84307 0.72628194 -0.2530166 -4.787173 -0.74685407
-1.0936545 -4.5766964 3.2492638 -5.6223574 3.110944 -1.1741477 2.765138 -4.4273934
-13.605448 -2.094517 1.9338429 -5.099572 2.446438 -13.448374 -2.0800872 -3.6653557
-14.294865 1.1771674 -4.7657995 1.4319218 -13.296295 2.1841874 -4.6932187 2.5973594
-2.5679717 2.825798 0.913785 3.3469281 0.7788858 2.4996333 -7.685183 1.8658403
-1.2540054 3.7523127 0.055886 3.797905 4.1823545 3.41859 3.4459329 0.80098134
1.1850319 2.9601557 2.725763 -0.18863116 0.24616513 -13.979311 -13.833887 -13.979
-13.510692 -13.368329 -13.400002 -13.120047 -13.193936 -14.137605 -13.044011 -13.680505
-14.107669 -13.819044 -13.4258375 -14.220753 -8.298095 -13.766542 -13.804439 2.4354272
2.720984 -0.067155905 -3.0293458 0.6717791 -0.415928 2.5750697 -2.6134217 -6.879566
-1.4364164 0.005643186 -5.4054813 0.94461566 1.1170856 -0.5066189 -13.981259 -5.150313
-14.188801 -13.988448 -13.222169 -13.769331 -13.090796 -13.733728 -13.918729 -13.961934
-13.898559 -13.208014 -14.010413 -14.213365 -13.99699 -13.768496 -14.036516 -13.976599
-13.083571 -13.233026 -13.9529085 -14.190574 -13.682202 -13.429565 -14.144514 -14.090978
-13.9032545 -14.004994 -13.378396 -13.393499 -13.188172 -12.753905 -14.081259 -13.312976
-14.007315 -13.634366 -13.703677 -13.575169 -14.206864 -3.097256 1.1545231 -6.7948637
-2.5907857 -13.926873 -14.304411 -3.1742532 -5.6772895 -13.327968 -13.856047 -13.070424
-13.427485 -5.94411 -13.74831 -13.376142 -13.738429 -14.021347 -14.136641 -13.797941
-14.142962 -13.364236 -13.275967 -13.649841 -13.335652 -13.508483 -13.440615 -13.13312
-14.050891 -13.699909 -13.025924 -13.946781 -13.821862 -14.223642 -13.966747 -13.463548
-13.597537 -13.4885435 -14.16207 -13.885834 -14.136969 -13.241108 -14.259152 -13.579991
-13.557787 -13.804466 -13.503389 -14.046391 -13.497735 -14.243281 -13.838336 -13.782125
-13.598884 -13.470375 -13.313768 -13.588729 -13.239794 -6.2820477 -13.559982 -0.6334602
0.09672345 -2.1789658 -7.15782 0.14091021 -0.7022785 0.9705989 -3.9463048 -13.520759
1.5531862 2.7990425 -6.9787016 1.1491958 -1.2576054 -2.3838143 -13.568398 -13.350854
-13.217828 -13.359093 -13.695705 -13.5959 -13.478966 -14.097938 -13.512178 -13.279494
-14.30816 -13.716271 -13.962125 -13.1918125 -12.997341 -13.969936 -14.055523 -13.29317
-13.016801 -13.395195 -13.778152 -14.336785 -13.260712 -12.82988 -13.658398 -13.571454
-13.933111 -14.01943 -14.104902 -14.28796 -13.5123825 -13.784628 -14.1713085 -13.467303
-13.124782 -13.512344 -13.359811 -14.351908 -14.296252 -3.453908 -2.0960662 -14.073578
-5.1127744 -13.192508 -12.95407 -13.674544 -14.013052 -8.16581 -13.35945 -12.64056
