data/saved_models/neural-model-tokenized-1024-4-2.pth (torch, 292963 bytes, 10 tensors)

weight_ih_l0 f4 [16, 2379]
2.5814352 8.460621 4.011421 1.7547135 4.959718 1.8584474 0.91524774 4.671704
0.45461947 -0.2519204 0.05186671 -0.1548267 2.7296128 -5.680983 0.95451206 0.4640128
2.4262328 2.3513198 -4.3324227 -1.2993417 -1.0099115 0.26719323 -3.7324367 3.726471
0.18466008 3.9733741 -1.2237589 1.3042386 -0.838805 0.23362035 3.5988607 0.5612597
-0.07797313 3.6883574 1.1614451 7.2493987 -0.010225415 8.562733 2.9073613 0.5772267
3.1160402 -1.4101529 -1.3833703 7.2588763 -0.71380156 1.095928 -2.3431041 6.610349
7.6634593 -0.6540013 4.518303 8.14789 2.4518645 1.9327109 -1.0225127 0.5993783
2.4232414 9.015408 3.623728 7.755542 2.199482 -0.009524703 0.089297295 0.4894997
-0.32119322 -0.3411439 -0.06874353 0.15167016 -0.36640805 0.1829037 -0.14500135 -0.17311335
-0.49972397 -0.08123779 -0.30357593 -0.09119642 -2.2524104 0.0024878979 0.13568068 7.604995
-0.4501706 1.1375515 -3.972495 0.07627626 5.5728574 3.409439 4.1764107 -2.0309951
0.36314172 4.766359 2.8691955 0.49471468 8.117342 1.7129742 -0.3372755 2.3837152
-0.38955736 0.048612833 -0.20820874 -0.4540546 0.18267709 0.26105255 -0.38860893 -0.41670448
0.4448024 0.30265987 0.30529135 -0.05976081 -0.21519417 0.41600877 0.3289026 -0.3918711
-0.22070646 0.41742873 0.16222996 0.41093326 -0.34697235 -0.14480346 -0.42493927 -0.45955402
0.017604649 0.046594262 0.03302622 0.23375171 -0.08791691 0.4294511 -0.35434407 0.44467264
0.25318325 -0.4995522 -0.39368552 0.42763412 -0.018572032 2.8498747 3.019962 -0.14698581
1.0951573 0.44581652 -0.23976088 -0.7577243 -1.4955016 0.19762248 0.008475482 -0.49276608
0.046320498 -0.83863467 -0.07824135 0.3194195 -0.095941186 0.11892408 0.33624494 -0.24600452
-0.4389537 0.32990807 0.12089676 -0.42962813 0.07852185 -0.3523407 0.46647674 -0.41592133
-0.24936008 -0.31411266 0.39066315 0.37426782 0.1721291 0.05315578 -0.14518481 -0.18541527
0.20177901 0.057600796 -0.19314492 -0.085196614 0.17466718 -0.28284216 0.46589303 0.35808396
0.011538267 -0.2992097 0.49055058 -0.4475934 -0.15786415 -0.4465357 -0.18306977 -0.12886477
-0.17283863 -0.38129562 -0.002092421 0.24076891 0.41817498 -1.2157948 -0.19881189 0.45867667
3.7890232 3.7922187 -0.38546363 -1.1621296 -3.5304644 6.15801 2.7139883 0.13580102
10.955137 0.2159243 -0.22423966 8.466806 -1.247358 -0.47721288 0.052015424 0.13193631
-0.24624902 -0.12578142 0.39519596 -0.39752543 0.2327081 0.30359483 0.45224643 -0.22065014
-0.49068666 -0.09635478 -0.47631204 0.005963564 -0.16366738 0.47901374 0.11640966 -0.359181
-0.42709184 0.22135836 -0.4415995 -0.15684515 -0.29522562 0.32405996 0.28329152 0.032454252
0.38459998 -0.2955916 0.42602998 0.34898347 0.24288863 -0.4733199 0.19679391 -0.26934433
-0.4090196 0.31338394 -0.40235692 -0.009200931 -0.06621808 1.8316907 2.4156551 -0.4945988
-2.6041415 -0.25479734 0.42083758 -0.1999417 0.41405302 -0.16273475 -0.24972916 0.015070558
00000000: 3c36 2540 b45e 0741 905d 8040 749a e03f
00000010: 03b6 9e40 9be1 ed3f ad4d 6a3f 997e 9540
00000020: e2c3 e83e b6fb 80be 3072 543d e48a 1ebe
00000030: fab1 2e40 9dca b5c0 e75a 743f 1693 ed3e
00000040: 6647 1b40 067c 1640 35a3 8ac0 d450 a6bf
00000050: c844 81bf 8dcd 883e 3ee0 6ec0 807e 6e40
00000060: 8817 3d3e c34b 7e40 22a4 9cbf 4af1 a63f
00000070: edbb 56bf 2c3a 6f3e bc53 6640 b7ae 0f3f
00000080: 60b0 9fbd 0c0e 6c40 3caa 943f 13fb e740
00000090: 8088 27bc f400 0941 3512 3a40 21c5 133f
000000a0: 346d 4740 e47f b4bf 4712 b1bf b748 e840
000000b0: b3bb 36bf 5e47 8c3f 6bf5 15c0 fb87 d340
000000c0: 0f3b f540 a16c 27bf f095 9040 c25d 0241
000000d0: 59eb 1c40 1263 f73f b2e1 82bf db70 193f
000000e0: 6316 1b40 1c3f 1041 29eb 6740 662d f840
000000f0: 50c4 0c40 800d 1cbc 80e1 b63d b49f fa3e
00000100: 7073 a4be 6aaa aebe 68c9 8cbd 6c4f 1b3e
00000110: d699 bbbe 1c4b 3b3e 3c7b 14be a044 31be
00000120: d2db ffbe 0060 a6bd 4e6e 9bbe 30c5 babd
00000130: 7e27 10c0 000c 233b e0ef 0a3e 1e5c f340
00000140: c37c e6be 4a9b 913f 5c3d 7ec0 ba36 9c3d
00000150: d954 b240 4034 5a40 28a5 8540 d3fb 01c0
00000160: b6ed b93e 0386 9840 e6a0 3740 3e4b fd3e
00000170: a2e0 0141 bd42 db3f 60af acbe ca8e 1840
00000180: 1074 c7be 401e 473d ac34 55be d879 e8be
00000190: b40f 3b3e aea8 853e c0f7 c6be 4a5a d5be
000001a0: 24bd e33e 3cf6 9a3e 264f 9c3e c0c7 74bd
000001b0: dc5b 5cbe 1aff d43e ec65 a83e 54a3 c8be
000001c0: e000 62be 38b9 d53e 9c1f 263e d865 d23e
000001d0: 5ca6 b1be 5c47 14be a491 d9be aa4a ebbe
000001e0: a037 903c a0d9 3e3d 8046 073d 9c5c 6f3e
000001f0: c80d b4bd 04e1 db3e 966c b5be 22ac e33e
00000200: 3ca1 813e 4ec5 ffbe 2691 c9be dcf2 da3e
00000210: 6024 98bc 5964 3640 0f47 4140 7383 16be
00000220: 1d2e 8c3f 1042 e43e e083 75be 38fa 41bf
00000230: 996c bfbf 8c5d 4a3e c0dc 0a3c d64b fcbe
00000240: 90ba 3d3d c3b0 56bf 003d a0bd f48a a33e
00000250: d07c c4bd 788e f33d 4c28 ac3e 9ce8 7bbe
00000260: 8abe e0be b6e9 a83e b898 f73d 38f8 dbbe
00000270: 10d0 a03d 0066 b4be 0ad6 ee3e a4f3 d4be
00000280: 4058 7fbe 60d3 a0be 0005 c83e 08a0 bf3e
00000290: 9c42 303e e0b9 593d 54ab 14be 80dd 3dbe
000002a0: 289f 4e3e d0ee 6b3d c8c7 45be 907b aebd
000002b0: f4db 323e b0d0 90be 8889 ee3e c856 b73e
000002c0: 000b 3d3c 0432 99be 7229 fb3e f62a e5be
000002d0: 24a7 21be 54a0 e4be a476 3bbe 20f5 03be
000002e0: 9cfc 30be 2e39 c3be 0021 09bb 208c 763e
000002f0: 081b d63e 2a9f 9bbf 5895 4bbe abd7 ea3e
00000300: 5b7f 7240 b6b3 7240 7d5b c5be aac0 94bf
00000310: 21f3 61c0 6b0e c540 fcb1 2d40 6c0f 0b3e
00000320: 3e48 2f41 421b 5d3e 159f 65be 0a78 0741
00000330: 6da9 9fbf 3f55 f4be 200e 553d 501a 073e
00000340: b428 7cbe d8cc 00be 2057 ca3e 7488 cbbe
00000350: 084b 6e3e c870 9b3e d88c e73e 1cf2 61be
00000360: 483b fbbe a855 c5bd 2cdf f3be 006a c33b
00000370: 6c98 27be 4a41 f53e 3068 ee3d 92e6 b7be
00000380: c8ab dabe c4ab 623e 5419 e2be 049c 20be
00000390: d027 97be 30eb a53e 960b 913e c0ee 043d
000003a0: 4aea c43e c857 97be 9a20 da3e f6ad b23e
000003b0: ccb7 783e fc56 f2be 5884 493e 80e7 89be
000003c0: 046b d1be dc73 a03e ba01 cebe 80bf 16bc
000003d0: 589d 87bd d774 ea3f 189a 1a40 0e3c fdbe
000003e0: 41aa 26c0 cc74 82be 0678 d73e 84bd 4cbe
000003f0: c2fe d33e f0a3 26be 00b9 7fbe 80ea 763c

weight_hh_l0 f4 [16, 4]
-0.88971037 0.41898775 0.36024696 -0.73908216 0.95454323 0.25506005 -1.3624783 0.4973627
0.31171978 1.3504313 -0.58345866 3.0655212 -1.8684701 -1.9734416 6.4018445 0.6939775
-1.7630796 -2.4775481 3.0733397 0.11514087 -1.8321762 6.72254 -2.653939 -0.34954327
0.71539575 1.5660632 -0.29408914 -0.97910243 0.83131564 1.9469788 2.0261695 -2.6638145
-4.279431 -0.36784235 8.991029 2.7016451 5.3625083 -4.199841 -1.4579678 3.824183
-4.164377 0.040936355 6.8874516 2.192124 3.1537135 2.8881414 2.732237 -0.102825165
8.707167 1.3152442 -14.00446 -0.21392477 -1.3087873 -6.767292 6.14805 0.10126407
3.049319 0.6543809 -8.372671 1.4885756 9.522112 0.047016505 -19.813837 4.038298
00000000: 0fc4 63bf 9085 d63e 4a72 b83e 7d34 3dbf
00000010: f25c 743f 3b97 823e b065 aebf 53a6 fe3e
00000020: bc99 9f3e efda ac3f 8c5d 15bf 8031 4440
00000030: 072a efbf bc99 fcbf e9db cc40 82a8 313f
00000040: 98ac e1bf 2690 1ec0 99b1 4440 face eb3d
00000050: c084 eabf 0c1f d740 23da 29c0 56f7 b2be
00000060: 2d24 373f c274 c83f da92 96be 75a6 7abf
00000070: 1ad1 543f 9a36 f93f c3ac 0140 f07b 2ac0
00000080: 19f1 88c0 d555 bcbe 41db 0f41 c1e7 2c40
00000090: ab99 ab40 1965 86c0 b09e babf 6abf 7440
000000a0: 9442 85c0 e1ac 273d 0166 dc40 c24b 0c40
000000b0: 71d6 4940 4fd7 3840 f9dc 2e40 0096 d2bd
000000c0: 8e50 0b41 ec59 a83f 4512 60c1 180f 5bbe
000000d0: 5886 a7bf a88d d8c0 d3bc c440 8963 cf3d
000000e0: 0b28 4340 8285 273f 76f6 05c1 a589 be3f
000000f0: 925a 1841 6194 403d bd82 9ec1 bd39 8140

bias_ih_l0 f4 [16]
-0.13941371 -0.74116075 0.24187365 -0.6295661 0.68722093 -1.1493988 -0.7495903 0.12781893
-1.4739579 0.050799035 -1.27269 -1.4200983 -2.3593757 -1.4482237 -2.1667988 -2.9997432
00000000: 78c2 0ebe b6bc 3dbf baad 773e 3e2b 21bf
00000010: b6ed 2f3f 801f 93bf 26e5 3fbf f7e2 023e
00000020: a7aa bcbf a612 503d 82e7 a2bf c8c5 b5bf
00000030: 0300 17c0 655f b9bf d5ac 0ac0 cbfb 3fc0

bias_hh_l0 f4 [16]
-0.16872117 -0.5364791 -0.09154891 0.021272799 0.0101125855 -0.74798495 -1.0998315 0.012627831
-0.9892485 0.31904143 -0.7785351 -1.5431665 -1.7962927 -1.2901922 -2.5844874 -3.052546
00000000: 3ec5 2cbe b256 09bf ff7d bbbd 4b44 ae3c
00000010: 42af 253c f17b 3fbf 47c7 8cbf f6e4 4e3c
00000020: 643f 7dbf 6659 a33e 144e 47bf 7b86 c5bf
00000030: ebec e5bf 0525 a5bf 3e68 25c0 ea5c 43c0

weight_ih_l1 f4 [16, 4]
-4.108339 0.7606076 -4.488762 -8.612094 -0.90433764 0.23057021 -1.9315329 -3.1115658
-1.1887821 0.74910307 -1.424209 -1.329325 0.089754865 -1.7562648 1.5717674 1.937055
-0.8597114 -2.9235651 -7.2972083 -5.8855605 -0.3038809 -0.31357488 -0.5082493 -1.5568045
-0.7703155 -0.7996045 -0.92549366 -0.96750826 -0.287058 -0.5044095 -0.9571196 -0.47019443
1.6039395 -2.2397692 1.3949294 2.357274 -0.6197411 0.19265597 -1.2320633 -2.160324
-0.8100029 0.06198958 -1.0419875 -1.0070593 0.7988122 1.5122995 0.7597258 -0.45455402
-0.06606758 -1.3009335 -0.26708323 -0.9097563 -7.8711286 6.621969 -5.8662624 -14.479365
0.09886947 3.7249203 0.1741825 0.47623223 14.390946 -5.098408 16.85442 22.448544
00000000: 8377 83c0 2eb7 423f f0a3 8fc0 23cb 09c1
00000010: ac82 67bf 991a 6c3e 783c f7bf e523 47c0
00000020: 032a 98bf 38c5 3f3f 7b4c b6bf 5227 aabf
00000030: 66d1 b73d 49cd e0bf ad2f c93f 6bf1 f73f
00000040: 0c16 5cbf b11b 3bc0 bb82 e9c0 8356 bcc0
00000050: 4796 9bbe e38c a0be a01c 02bf 5f45 c7bf
00000060: 6633 45bf e1b2 4cbf 27ed 6cbf 9fae 77bf
00000070: 44f9 92be fb20 01bf ca05 75bf 53bd f0be
00000080: e44d cd3f 6158 0fc0 0c8d b23f 94dd 1640
00000090: 5aa7 1ebf 9b47 453e 40b4 9dbf c042 0ac0
000000a0: 5a5c 4fbf c9e8 7d3d d95f 85bf 52e7 80bf
000000b0: f57e 4c3f 0893 c13f 647d 423f 4ebb e8be
000000c0: 704e 87bd fd84 a6bf 22bf 88be cae5 68bf
000000d0: 49e0 fbc0 2ce7 d340 6cb8 bbc0 7bab 67c1
000000e0: 147c ca3d 1865 6e40 e65c 323e b6d4 f33e
000000f0: 5141 6641 2926 a3c0 dad5 8641 9e96 b341

weight_hh_l1 f4 [16, 4]
-1.5895447 -1.0991428 10.085467 -4.1545324 -0.91650444 0.45248267 0.991387 -0.79671633
-0.8759966 0.72153616 0.50993055 -0.25677618 -0.4998817 0.6914358 0.5990086 -0.83984846
4.388528 -1.583139 1.7266049 11.30077 -1.0474023 0.66953474 0.8419073 -0.4170115
-0.21132566 0.9249863 0.34780958 -0.09933596 -0.40662476 0.66060543 0.95995826 -1.3324114
-1.2953541 -0.64443403 1.3681155 -1.8668579 -0.5749218 0.32515785 0.6140764 -0.65700394
-0.5368893 0.24726802 0.3128057 -0.45259276 1.0532635 -1.0944219 -0.3432226 0.759666
2.6223028 1.4529088 -0.8697892 3.0794919 -2.3350542 -0.6390561 3.7472255 4.620745
-4.096927 1.7158167 5.872676 -15.093605 1.9759772 0.5198668 -0.102587394 -4.068651
00000000: 3376 cbbf b6b0 8cbf 135e 2141 eef1 84c0
00000010: 09a0 6abf cfab e73e 8acb 7d3f 9af5 4bbf
00000020: 5041 60bf 98b6 383f cf8a 023f 2b78 83be
00000030: 7ff0 ffbe f001 313f a158 193f 4f00 57bf
00000040: d26e 8c40 4ca4 cabf 6401 dd3f f4cf 3441
00000050: 4711 86bf a166 2b3f 3d87 573f 8882 d5be
00000060: c165 58be e7cb 6c3f 1914 b23e a770 cbbd
00000070: 1f31 d0be 701d 293f d3bf 753f 758c aabf
00000080: 2ace a5bf a1f9 24bf 691e af3f 33f5 eebf
00000090: 132e 13bf 177b a63e 1c34 1d3f 6931 28bf
000000a0: 9471 09bf d433 7d3e 1228 a03e 3dba e7be
000000b0: 57d1 863f 0416 8cbf dfba afbe 7979 423f
000000c0: cfd3 2740 eaf8 b93f 81aa 5ebf 6516 4540
000000d0: 8771 15c0 2e99 23bf 8bd2 6f40 25dd 9340
000000e0: 071a 83c0 e29f db3f f6ec bb40 687f 71c1
000000f0: d2ec fc3f fe15 053f 5719 d2bd 6432 82c0

bias_ih_l1 f4 [16]
-1.8104411 1.3584946 1.0825824 0.112372346 -1.7524146 0.27838442 0.7768166 1.1216793
-1.0324569 1.0325449 0.25962254 -1.030151 0.4359626 -2.081517 -4.4877734 -1.1777008
00000000: 89bc e7bf 27e3 ad3f 0f92 8a3f 7923 e63d
00000010: 1f4f e0bf 6788 8e3e 74dd 463f 3093 8f3f
00000020: 8c27 84bf 6e2a 843f 3fed 843e fddb 83bf
00000030: 7d36 df3e 9337 05c0 d79b 8fc0 e6be 96bf

bias_hh_l1 f4 [16]
-1.602381 1.7885816 1.0430635 0.098776005 -1.5532429 0.9126468 0.870939 1.3376921
-0.8557758 0.6618866 1.0265498 -1.1328176 0.9359696 -2.1749837 -4.3797417 -1.1048234
00000000: d21a cdbf 3ef0 e43f 1b83 853f 134b ca3d
00000010: aad0 c6bf 38a3 693f dcf5 5e3f 7f39 ab3f
00000020: 1f14 5bbf 6671 293f fc65 833f 2b00 91bf
00000030: b49b 6f3f ef32 0bc0 d826 8cc0 da6a 8dbf

weight f4 [2379, 4]
0.7006711 1.7761269 3.1510675 -4.506451 0.6684836 1.5341951 3.0393047 -4.9820256
-0.09088342 1.5937986 3.0498867 -3.1001616 -0.10436061 1.7662492 2.8393853 -1.4704264
0.6144958 1.7941678 3.2521436 -5.2233605 -0.7848714 1.7142622 3.1459076 -1.5292219
0.45027554 1.6843165 3.0445383 -3.7537663 0.5015307 1.6323277 3.3798327 -2.3014119
2.4821124 -2.7733188 -2.2129114 2.9187403 2.4088786 -2.177502 -2.2079954 2.2231002
2.1490076 -2.1231053 -1.9415364 2.7059872 3.038638 -3.1639569 -2.836401 3.283059
0.2900334 1.7675214 3.2106605 -3.5397072 0.41657525 1.7253875 3.2713003 -5.0084047
0.6696892 1.5192014 2.8149366 0.61742455 -0.3322893 1.5974827 3.0197213 -2.230133
-0.20325015 1.7177258 2.7828128 -1.919573 1.4089843 1.62078 3.1874747 0.079511434
-3.085808 1.5554528 -1.5545869 3.9502144 -2.3383179 1.7515954 1.1056573 0.880829
-0.5546143 0.90298194 1.919901 1.9828489 -0.6295565 0.3998967 -1.8447847 8.7891655
-1.2987015 0.9661994 1.7775652 1.6658769 -1.49973 1.1813627 0.30865622 1.1284477
3.004075 -2.9003482 -2.8060286 2.7985284 -2.8806708 0.9364194 0.78014666 1.5725852
-0.865799 1.5225708 2.9279716 -3.382276 0.6877475 1.3847703 3.2839406 0.7014177
-1.7853191 1.4115779 2.6325788 -1.7955754 2.4369414 -2.7770393 -2.6625934 3.2499874
-0.30453005 0.0026208847 -0.012129687 1.1381985 -1.1834865 1.3004538 2.2096062 -0.7291329
3.2820177 -3.207157 -2.9265938 3.315372 -2.6051836 1.2855779 0.6950754 1.0814961
-2.5462987 1.3357987 1.1264479 -0.100973904 -2.9536197 1.5496017 0.555522 2.3234239
2.260827 -2.5828035 -2.2513883 2.6323404 -2.7997487 1.1766801 0.38927075 5.078795
-1.7836263 0.7344341 -0.88022876 0.5894864 -0.8697593 0.8034253 1.6887724 -3.5354116
-1.9654144 0.85363376 -2.0742874 -0.54880446 -2.2052512 0.93644124 1.8675939 -6.9357886
0.019775065 1.1563345 2.2024648 -1.9994662 -1.5186294 0.8057838 1.2998819 0.6691877
-3.6773853 1.6286781 1.2063617 1.7185897 -1.2568063 1.4775848 2.3199503 -1.541661
-1.2910751 1.2401569 0.34487182 2.2162125 -1.6112909 1.620626 2.7407658 -3.5885103
-3.0755346 1.6835833 1.8623587 0.107332736 -2.512925 1.5967022 2.0715199 1.4649279
-2.9597933 1.2515901 0.53197324 3.640712 -2.9049134 1.4775506 0.454576 2.5301826
-2.1775484 1.3530827 1.4822708 0.5602569 -2.1408024 1.1429946 1.3897941 0.5796402
-1.9119089 1.0290478 1.715122 -1.5240362 -1.5363125 1.1087197 1.5336063 4.6219845
-1.3028992 0.9172674 1.1270661 6.963153 -1.8316185 1.536427 2.5480208 -2.1970153
-2.4434366 1.6889083 1.7079854 3.3127365 -2.6164577 1.2025278 1.430829 -0.14435402
-0.87890613 1.6467177 2.7414572 -1.5551568 2.083693 -2.1812084 -2.0502481 2.121029
2.431351 -2.6972458 -2.3408105 3.1012073 3.2845786 -3.1992183 -2.7143652 3.270631
00000000: 2e5f 333f 2058 e33f 17ab 4940 d934 90c0
00000010: be21 2b3f 8160 c43f f883 4240 c16c 9fc0
00000020: 1621 babd 9801 cc3f 5831 4340 0c69 46c0
00000030: 04bb d5bd 7414 e23f 7db8 3540 ef36 bcbf
00000040: 994f 1d3f 4aa7 e53f 1f23 5040 c525 a7c0
00000050: 55ed 48bf f26c db3f 8d56 4940 8bbd c3bf
00000060: 848a e63e af97 d73f b7d9 4240 b53d 70c0
00000070: 5164 003f 1df0 d03f 2e4f 5840 554a 13c0
00000080: eeda 1e40 0e7e 31c0 57a0 0dc0 a4cc 3a40
00000090: 112b 1a40 315c 0bc0 cc4f 0dc0 4647 0e40
000000a0: 5789 0940 f5e0 07c0 4484 f8bf e52e 2d40
000000b0: 0c79 4240 457e 4ac0 9887 35c0 a31d 5240
000000c0: 427f 943e 243e e23f 767b 4d40 908a 62c0
000000d0: 5a49 d53e 7fd9 dc3f fc5c 5140 da44 a0c0
000000e0: c070 2b3f 3175 c23f ec27 3440 890f 1e3f
000000f0: d321 aabe 507a cc3f 1d43 4140 80ba 0ec0
00000100: cf20 50be 70de db3f 9b19 3240 91b4 f5bf
00000110: 9959 b43f b875 cf3f 96ff 4b40 e4d6 a23d
00000120: e17d 45c0 1419 c73f b4fc c6bf 50d0 7c40
00000130: 00a7 15c0 4734 e03f 2e86 8d3f 027e 613f
00000140: 34fb 0dbf d329 673f 51bf f53f fecd fd3f
00000150: 9d2a 21bf 43bf cc3e e821 ecbf 6ca0 0c41
00000160: da3b a6bf d858 773f 4287 e33f 743b d53f
00000170: 27f7 bfbf e536 973f 3008 9e3e f970 903f
00000180: c442 4040 4e9f 39c0 f995 33c0 171b 3340
00000190: e95c 38c0 2fb9 6f3f b1b7 473f 794a c93f
000001a0: 01a5 5dbf 9ae3 c23f e363 3b40 3677 58c0
000001b0: 3810 303f 2740 b13f 152c 5240 1c90 333f
000001c0: 5685 e4bf 96ae b43f 2c7c 2840 6ad5 e5bf
000001d0: d9f6 1b40 03bb 31c0 ee67 2ac0 cbff 4f40
000001e0: 5deb 9bbe 26c3 2b3b 98bb 46bc 7db0 913f
000001f0: 7c7c 97bf 4575 a63f 306a 0d40 74a8 3abf
00000200: 940c 5240 0f42 4dc0 504d 3bc0 0e2f 5440
00000210: 54bb 26c0 d18d a43f 76f0 313f 776e 8a3f
00000220: 8ff6 22c0 74fb aa3f 722f 903f 68cb cebd
00000230: 1b08 3dc0 5959 c63f b136 0e3f fab2 1440
00000240: 64b1 1040 a74c 25c0 bf16 10c0 4478 2840
00000250: 152f 33c0 749d 963f 7f4e c73e 7d85 a240
00000260: de4d e4bf e003 3c3f ac56 61bf 95e8 163f
00000270: 8ca8 5ebf 48ad 4d3f b229 d83f 2f44 62c0
00000280: b392 fbbf be87 5a3f 20c1 04c0 737e 0cbf
00000290: d622 0dc0 9dba 6f3f 510d ef3f fbf1 ddc0
000002a0: 51ff a13c c502 943f 2ff5 0c40 82ee ffbf
000002b0: 7362 c2bf d947 4e3f 8862 a63f e34f 2b3f
000002c0: 485a 6bc0 8678 d03f 0f6a 9a3f bffa db3f
000002d0: 07df a0bf 8021 bd3f 117a 1440 2655 c5bf
000002e0: f341 a5bf 76bd 9e3f 0a93 b03e 6dd6 0d40
000002f0: c83e cebf ac70 cf3f b568 2f40 27aa 65c0
00000300: 8fd5 44c0 a87f d73f c561 ee3f 44d1 db3d
00000310: c3d3 20c0 bd60 cc3f c893 0440 c282 bb3f
00000320: 416d 3dc0 1b34 a03f 662f 083f 6d01 6940
00000330: 1aea 39c0 6120 bd3f 2fbe e83e 83ee 2140
00000340: f45c 0bc0 d031 ad3f 0dbb bd3f ff6c 0f3f
00000350: e802 09c0 a64d 923f c6e4 b13f 4d63 143f
00000360: 6eb9 f4bf d7b7 833f 1e89 db3f 9e13 c3bf
00000370: e3a5 c4bf 87ea 8d3f 364d c43f 4ce7 9340
00000380: 67c5 a6bf 09d2 6a3f b443 903f 26d2 de40
00000390: 7a72 eabf a4a9 c43f c612 2340 e69b 0cc0
000003a0: 4461 1cc0 262e d83f 449f da3f e003 5440
000003b0: 0b74 27c0 6eec 993f 6825 b73f 8ad1 13be
000003c0: feff 60bf a5c7 d23f 0974 2f40 610f c7bf
000003d0: 3a5b 0540 eb98 0bc0 4437 03c0 f0be 0740
000003e0: 419b 1b40 ad9f 2cc0 d7cf 15c0 2e7a 4640
000003f0: 8936 5240 febf 4cc0 29b8 2dc0 0552 5140

bias f4 [2379]
1.3917769 1.1214519 -0.8654762 -4.2504144 0.234607 -3.1851714 -0.10599579 -3.4095302
-8.932166 -8.63219 -8.545822 -9.261163 -0.9835221 -2.0193756 -7.0648675 -1.9416738
-2.6032531 -6.209594 2.3851676 -7.632578 3.3370187 0.2862497 2.7319698 -4.634466
-9.496586 -2.9722736 0.6372097 -6.9819517 1.4246877 -9.68191 -1.3102415 -4.3433957
-9.819539 0.48348087 -5.486068 0.5289804 -8.747089 1.3298371 -5.7458644 2.5676708
-2.9933572 2.2920606 1.1314814 3.4221952 -1.0173945 1.7680278 -8.231398 0.76631856
-3.025207 2.5799994 -1.0867498 2.763451 3.499108 2.8937454 2.884076 0.90462875
1.494878 1.9366759 2.0535514 -1.0938203 -1.2534229 -8.933037 -9.316062 -9.261545
-9.425164 -9.587458 -8.818776 -9.444444 -8.781479 -9.471391 -8.997314 -9.911624
-9.633505 -9.547568 -8.921046 -9.862942 -6.864212 -9.405191 -9.303371 1.4175953
2.73519 -1.2201833 -3.5412445 -0.18856102 -1.243723 1.7551816 -3.8640308 -7.9024987
-1.8842876 -0.096552335 -6.668807 0.2181679 0.70076966 -2.4859984 -9.496593 -4.6598907
-9.367503 -9.832799 -9.745775 -9.44214 -9.024647 -8.849924 -8.908818 -9.444207
-9.530942 -9.516343 -9.481695 -8.877383 -8.428802 -9.041081 -8.623953 -9.100122
-9.357586 -9.820586 -9.062329 -9.18008 -8.940962 -8.984732 -9.617263 -8.289369
-9.262927 -9.8807745 -8.831079 -8.857721 -9.313805 -8.949654 -8.76648 -9.003387
-9.669473 -9.373538 -9.311814 -9.014666 -9.902376 -3.4801586 -0.3650249 -7.2806325
-1.9079994 -9.085264 -9.278877 -4.443156 -7.2583265 -9.427102 -9.320232 -9.581288
-9.695277 -7.074714 -9.005686 -8.827631 -9.763667 -8.6453 -9.150279 -8.641043
-9.766265 -9.196085 -9.452689 -8.53131 -8.952356 -8.951347 -8.660226 -9.39323
-9.200059 -9.612666 -9.136007 -9.280433 -9.058305 -9.580633 -8.511341 -9.226412
-9.337499 -9.091747 -9.472233 -8.701779 -8.998069 -8.81771 -9.395555 -9.604813
-9.071436 -8.780029 -9.68045 -9.036512 -8.730623 -9.42502 -8.543554 -8.472916
-8.959398 -9.507712 -9.572971 -8.953609 -9.105137 -5.491011 -8.830558 -2.4130397
-0.1959273 -3.4594395 -7.8805733 0.26361448 -1.7719024 -0.048501883 -6.0381536 -8.8585
0.78677315 4.7247205 -6.5846806 1.0361174 -2.0891514 -4.0015364 -9.243004 -9.303944
-9.349279 -8.54924 -8.663469 -9.028108 -9.455465 -9.418391 -9.356976 -9.235373
-8.936118 -8.897829 -9.635976 -9.027463 -8.836718 -9.342797 -8.489374 -9.402873
-9.195282 -8.844368 -8.838442 -9.693708 -8.821266 -8.668044 -8.962753 -8.913392
-9.296551 -8.747599 -9.628089 -8.282628 -8.597475 -9.169304 -9.435033 -9.076326
-9.585585 -9.355518 -8.552547 -9.837777 -8.752254 -3.8561947 -3.76958 -9.298568
-5.6305265 -9.030748 -9.76387 -8.996443 -8.592696 -8.888399 -9.70819 -9.163553
00000000: bf25 b23f bc8b 8f3f d98f 5dbf 6503 88c0
00000010: d13c 703e d9d9 4bc0 5214 d9bd be35 5ac0
00000020: 27ea 0ec1 731d 0ac1 b0bb 08c1 b92d 14c1
00000030: 1bc8 7bbf 733d 01c0 6513 e2c0 c488 f8bf
00000040: b39b 26c0 feb4 c6c0 96a6 1840 143e f4c0
00000050: b791 5540 528f 923e 98d8 2e40 8c4d 94c0
00000060: 04f2 17c1 bb39 3ec0 2d20 233f 266c dfc0
00000070: 2b5c b63f 1ae9 1ac1 feb5 a7bf 19fd 8ac0
00000080: d51c 1dc1 ce8a f73e de8d afc0 426b 073f
00000090: 14f4 0bc1 1a38 aa3f 1fde b7c0 b854 2440
000000a0: 2a93 3fc0 1fb1 1240 62d4 903f 3f05 5b40
000000b0: fc39 82bf bc4e e23f ceb3 03c1 742d 443f
000000c0: fe9c 41c0 b61e 2540 9e1a 8bbf 62dc 3040
000000d0: 63f1 5f40 2033 3940 b494 3840 c095 673f
000000e0: 2a58 bf3f ffe4 f73f 636d 0340 4e02 8cbf
000000f0: 2970 a0bf b8ed 0ec1 970e 15c1 4a2f 14c1
00000100: 79cd 16c1 3a66 19c1 b519 0dc1 711c 17c1
00000110: f080 0cc1 d18a 17c1 00f5 0fc1 0396 1ec1
00000120: d622 1ac1 d7c2 18c1 9bbc 0ec1 9cce 1dc1
00000130: a0a7 dbc0 aa7b 16c1 9cda 14c1 c373 b53f
00000140: 5a0d 2f40 f72e 9cbf c0a3 62c0 2416 41be
00000150: 5132 9fbf caa9 e03f 484c 77c0 45e1 fcc0
00000160: 5630 f1bf 3bbd c5bd de66 d5c0 6867 5f3e
00000170: a465 333f 991a 1fc0 0cf2 17c1 d31d 95c0
00000180: 4be1 15c1 2553 1dc1 b2ee 1bc1 0113 17c1
00000190: f464 10c1 4a99 0dc1 858a 0ec1 791b 17c1
000001a0: bd7e 18c1 f142 18c1 06b5 17c1 c309 0ec1
000001b0: 5fdc 06c1 45a8 10c1 b6fb 09c1 1a9a 11c1
000001c0: acb8 15c1 1f21 1dc1 4dff 10c1 9ce1 12c1
000001d0: 2e0e 0fc1 76c1 0fc1 4fe0 19c1 41a1 04c1
000001e0: f334 14c1 a717 1ec1 194c 0dc1 3ab9 0dc1
000001f0: 5805 15c1 c831 0fc1 8143 0cc1 e00d 10c1
00000200: 29b6 1ac1 03fa 15c1 31fd 14c1 123c 10c1
00000210: 2270 1ec1 ebba 5ec0 8be4 babe f1fa e8c0
00000220: 5339 f4bf 3e5d 11c1 4876 14c1 552e 8ec0
00000230: 3644 e8c0 69d5 16c1 ac1f 15c1 f54c 19c1
00000240: db1f 1bc1 0f64 e2c0 4a17 10c1 fa3d 0dc1
00000250: fb37 1cc1 2653 0ac1 8b67 12c1 b641 0ac1
00000260: 9f42 1cc1 2a23 13c1 373e 17c1 3f80 08c1
00000270: da3c 0fc1 b838 0fc1 4990 0ac1 ac4a 16c1
00000280: 7133 13c1 7bcd 19c1 162d 12c1 a77c 14c1
00000290: d1ee 10c1 464a 19c1 742e 08c1 629f 13c1
000002a0: 6566 15c1 cc77 11c1 448e 17c1 7d3a 0bc1
000002b0: 17f8 0fc1 5715 0dc1 3154 16c1 50ad 19c1
000002c0: 9a24 11c1 007b 0cc1 20e3 1ac1 8e95 10c1
000002d0: a2b0 0bc1 e2cc 16c1 66b2 08c1 1091 07c1
000002e0: b259 0fc1 971f 18c1 e42a 19c1 fc41 0fc1
000002f0: a4ae 11c1 5db6 afc0 f749 0dc1 3e6f 1ac0
00000300: 2ba1 48be 7567 5dc0 a82d fcc0 7af8 863e
00000310: b3cd e2bf e9a9 46bd 8e38 c1c0 6abc 0dc1
00000320: f769 493f e930 9740 b4b5 d2c0 7f9f 843f
00000330: a8b4 05c0 960c 80c0 58e3 13c1 f4dc 14c1
00000340: a696 15c1 b0c9 08c1 929d 0ac1 2173 10c1
00000350: 9649 17c1 bbb1 16c1 2cb6 15c1 16c4 13c1
00000360: 57fa 0ec1 825d 0ec1 f52c 1ac1 7d70 10c1
00000370: 3263 0dc1 197c 15c1 7ad4 07c1 2b72 16c1
00000380: e01f 13c1 8882 0dc1 426a 0dc1 6e19 1bc1
00000390: e823 0dc1 4fb0 0ac1 7067 0fc1 419d 0ec1
000003a0: acbe 14c1 2af6 0bc1 a70c 1ac1 a585 04c1
000003b0: 428f 09c1 78b5 12c1 e5f5 16c1 a238 11c1
000003c0: 8e5e 19c1 34b0 15c1 3cd7 08c1 8967 1dc1
000003d0: 3b09 0cc1 e5cb 76c0 cc40 71c0 efc6 14c1
000003e0: 462d b4c0 f27d 10c1 d038 1cc1 6ef1 0fc1
000003f0: af7b 09c1 e236 0ec1 bf54 1bc1 ea9d 12c1
