data/saved_models/nn-model-tokenized.pth (torch, 97955 bytes, 18 tensors)

weight_ih_l0 f4 [24, 568]
-3.6443975 0.78000623 7.20286 5.82326 6.2181196 1.2296429 2.6868 6.581171
2.363161 3.3039706 -2.9526327 4.335318 1.7980187 10.69328 2.9606493 4.2001777
-1.1511343 -2.7759879 4.49787 3.2358215 4.436761 -5.9969606 -5.580752 4.3922286
-3.2466586 -3.6908247 3.7005765 -0.549362 1.4100467 0.14941381 -2.9760628 7.429492
-0.98266804 0.21907434 3.8953538 -0.27193692 -0.81812596 -4.472266 4.1976657 2.502825
-3.5614433 -0.3144724 2.794876 -1.4739774 2.7772937 2.829857 -1.7674282 0.21469784
2.861652 3.89146 2.576515 -9.894758 2.534287 3.3672245 -2.012957 -1.2114557
-1.2773476 3.8898008 0.18219346 5.990023 1.2935389 0.05992939 -4.0190616 1.2184556
8.949891 -0.49210322 6.2973747 3.2855105 2.8224852 -1.9607583 0.61157584 0.4993468
0.088217296 1.8454103 0.11380215 9.376958 4.274015 8.7593155 -1.1314397 3.201925
8.210107 1.0634073 5.46021 -1.0155215 2.6042502 -1.3236951 5.42424 -0.081581116
2.5770452 0.19623606 0.9990336 6.328979 -2.9767091 -0.99665576 2.8325033 1.3157417
3.9372218 2.1978533 3.470819 -2.117377 -1.510458 7.0092196 -2.4381254 0.06855537
-4.541507 0.97231674 1.2671278 3.150849 -5.155601 -0.57233816 2.8638966 -4.9490356
2.6947865 5.2648067 5.3384104 2.1127214 0.18970127 -1.6193128 0.10229473 -0.0166871
0.55689526 0.019534584 1.0047048 -0.92121613 0.16426542 1.2035785 0.28837427 -1.6130894
7.8028 0.49676004 0.01538532 -0.77577484 0.83498824 -0.47641298 7.5875854 -0.5509783
1.8625526 -2.3010228 -8.851812 3.104916 -1.4530926 2.4260144 3.4328318 0.8289183
-3.6182778 -0.18611129 0.9447355 2.29584 0.85334414 -4.0339155 1.1353843 1.4014578
1.7594842 2.8838036 -3.1646883 -4.3023567 1.8393579 -2.1923985 2.2606134 -5.596259
0.40555996 -2.6873136 2.5372334 6.8851585 8.0675 1.1631414 1.8394058 1.9970521
2.120212 0.052714534 0.9674417 2.5715418 4.2306147 -0.8059517 6.2002616 3.982946
-0.7222168 -0.7947111 5.1170626 0.65834135 2.7808657 9.04831 -0.55019283 -5.4188275
4.9867864 8.448923 2.2563353 -1.9450665 -7.3681984 1.394082 10.755843 -0.09593361
8.41831 -1.5925263 -2.524796 6.711789 1.4284157 -5.1515794 4.440978 2.743647
-1.2012725 2.1552262 2.1617053 3.2981687 -4.280807 2.9652042 -3.0403788 -0.5374588
4.016895 -0.0734397 -0.85008645 -0.8406829 0.26706657 1.797392 -1.2295346 4.796062
-0.68411815 -0.5301617 0.2995376 2.3336005 2.5531898 1.5179145 0.8143043 1.9520928
0.53213644 1.1982082 0.87938195 0.85837245 -3.1692305 12.912098 -7.1863465 2.0502367
-3.4372232 2.2519865 -1.7174755 2.3591766 5.3094187 -0.6151163 2.3607404 -1.2840016
-3.897301 2.482679 5.9295077 -0.29069057 1.5107862 -0.5381623 0.75156164 -0.7715959
6.3604746 -4.7800426 3.3286474 -1.2081742 6.995819 -3.1407478 -1.014562 0.34830078
00000000: cf3d 69c0 7dae 473f d47d e640 2558 ba40
00000010: d6fa c640 f064 9d3f 88f4 2b40 f498 d240
00000020: 083e 1740 4174 5340 eff7 3cc0 edba 8a40
00000030: 7a25 e63f ad17 2b41 477b 3d40 db67 8640
00000040: 5e58 93bf c9a9 31c0 8dee 8f40 b317 4f40
00000050: f2f9 8d40 1ae7 bfc0 8595 b2c0 238d 8c40
00000060: 41c9 4fc0 7936 6cc0 3fd6 6c40 fda2 0cbf
00000070: 697c b43f efff 183e d077 3ec0 66be ed40
00000080: 2290 7bbf 0655 603e 7a4d 7940 513b 8bbe
00000090: b470 51bf ce1c 8fc0 4753 8640 492e 2040
000000a0: b0ee 63c0 8702 a1be 40df 3240 4bab bcbf
000000b0: 2ebf 3140 611c 3540 163b e2bf c0d9 5b3e
000000c0: 4e25 3740 ae0d 7940 9fe5 2440 ee50 1ec1
000000d0: c231 2240 9b80 5740 4ad4 00c0 fb10 9bbf
000000e0: 2080 a3bf 7ff2 7840 ec90 3a3e 45ae bf40
000000f0: af92 a53f 8578 753d 279c 80c0 5af6 9b3f
00000100: c132 0f41 f4f4 fbbe 1884 c940 ce45 5240
00000110: 99a3 3440 21fa fabf 3c90 1c3f 62aa ff3e
00000120: 45ab b43d 6836 ec3f 1a11 e93d 0508 1641
00000130: bbc4 8840 2826 0c41 04d3 90bf 57ec 4c40
00000140: 995c 0341 bb1d 883f 0aba ae40 9cfc 81bf
00000150: 09ac 2640 d76e a9bf 6093 ad40 0014 a7bd
00000160: 4fee 2440 1bf2 483e aac0 7f3f ff86 ca40
00000170: 6782 3ec0 d524 7fbf bc47 3540 396a a83f
00000180: 71fb 7b40 a1a9 0c40 e621 5e40 1b83 07c0
00000190: b056 c1bf 874b e040 3f0a 1cc0 c266 8c3d
000001a0: 0654 91c0 c0e9 783f 3e31 a23f 83a7 4940
000001b0: affa a4c0 c184 12bf 154a 3740 805e 9ec0
000001c0: 6277 2c40 4c79 a840 42d4 aa40 d436 0740
000001d0: 0d41 423e a445 cfbf e67f d13d 63b3 88bc
000001e0: b090 0e3f fe06 a03c 2b9a 803f d2d4 6bbf
000001f0: 3235 283e dc0e 9a3f cba5 933e b779 cebf
00000200: 8ab0 f940 5557 fe3e b612 7c3c 2e99 46bf
00000210: cac1 553f 67ec f3be 80cd f240 ea0c 0dbf
00000220: 2068 ee3f f543 13c0 06a1 0dc1 f2b6 4640
00000230: f0fe b9bf d243 1b40 84b3 5b40 fd33 543f
00000240: dd91 67c0 f593 3ebe 30da 713f 0bef 1240
00000250: c374 5a3f d615 81c0 4654 913f f862 b33f
00000260: c736 e13f 3d90 3840 418a 4ac0 e8ac 89c0
00000270: 1470 eb3f 4250 0cc0 e4ad 1040 8e14 b3c0
00000280: 8ea5 cf3e f2fc 2bc0 0862 2240 3853 dc40
00000290: 7b14 0141 d1e1 943f a671 eb3f 679f ff3f
000002a0: 8eb1 0740 32eb 573d 42aa 773f 2494 2440
000002b0: 3261 8740 da52 4ebf 8b68 c640 96e8 7e40
000002c0: 33e3 38bf 3072 4bbf fabe a340 0f89 283f
000002d0: b4f9 3140 e1c5 1041 70d9 0cbf 0967 adc0
000002e0: c193 9f40 ca2e 0741 cc67 1040 f0f7 f8bf
000002f0: 48c8 ebc0 4771 b23f ef17 2c41 d778 c4bd
00000300: 66b1 0641 e7d7 cbbf 4296 21c0 fac6 d640
00000310: 53d6 b63f bdd9 a4c0 7e1c 8e40 ea97 2f40
00000320: 4cc3 99bf 3aef 0940 6159 0a40 3215 5340
00000330: 5ffc 88c0 e8c5 3d40 9195 42c0 e696 09bf
00000340: 678a 8040 8e67 96bd 449f 59bf ff36 57bf
00000350: f3bc 883e f110 e63f 6461 9dbf 5779 9940
00000360: 5e22 2fbf adb8 07bf fe5c 993e b659 1540
00000370: 7667 2340 064b c23f 3f76 503f 2dde f93f
00000380: 183a 083f e35e 993f 2d1f 613f 4cbe 5b3f
00000390: acd4 4ac0 f497 4e41 8df6 e5c0 1437 0340
000003a0: 77fb 5bc0 8c20 1040 3dd6 dbbf c0fc 1640
000003b0: c2e6 a940 4378 1dbf 5f16 1740 2a5a a4bf
000003c0: 616d 79c0 36e4 1e40 87be bd40 65d5 94be
000003d0: 7161 c13f 01c5 09bf 5866 403f 4f87 45bf
000003e0: 0289 cb40 1cf6 98c0 8f08 5540 74a5 9abf
000003f0: c0dd df40 0302 49c0 2bdd 81bf 7b54 b23e

weight_hh_l0 f4 [24, 6]
4.8535028 -7.7025323 -2.6566246 -5.170506 -7.9942265 -6.763237 -0.04255505 0.8165137
-0.6187904 -0.3730428 0.7170257 2.5755355 0.8382675 -0.9859173 -3.2471666 0.33861414
-1.910964 -2.28394 -0.62220263 -1.1263041 2.0970135 0.52686495 2.361471 2.6106281
-0.9866779 -2.743328 -1.825577 4.370345 -1.8706257 -2.5816796 -3.2398703 -0.60692894
-0.45741287 -0.5693632 2.190123 -0.28486818 5.1011224 -0.6824692 1.6981981 -0.9429171
3.2735343 3.716397 -1.5230857 -0.18241464 -10.683575 -1.1788454 3.255241 -0.18433812
0.48617405 -9.283479 -0.5605636 0.20452939 -0.9568293 1.7171497 1.3471437 2.201539
1.4093617 -2.1038768 3.970242 -1.4061836 0.6429402 -1.9318571 -1.7906036 2.1747487
-5.187295 -4.782868 -1.2618462 0.821971 1.1059784 -0.75443774 0.93544704 -1.3668506
-1.884766 -2.0709774 2.6200142 0.5318513 0.3399993 6.337738 1.636209 0.7788231
-2.865214 -0.5406157 -2.5719934 0.93669367 5.03096 -1.3370597 -1.8127484 -1.8156489
-3.016814 0.3015104 -0.9859911 2.7211943 -2.3945873 0.19569284 -0.41884977 1.3101811
-1.1874124 0.77832687 -0.0151429 -1.1368074 1.4972187 1.0593187 0.7223836 3.6429112
-2.2020612 0.92897254 3.344859 -0.20293958 -1.0854261 -8.843512 -4.1433434 -2.8876882
-1.798868 -2.8955102 1.840406 -3.621884 -7.936418 0.12874924 -3.872969 -9.131169
-1.1038425 -1.2490395 1.2577009 1.3320507 0.26787746 1.7198012 0.75201964 1.5961149
-0.53413105 -2.9042315 -0.12939705 -2.6388075 1.5045139 -11.165381 -3.449942 -4.308441
-1.5963646 0.78649676 0.57588816 -3.1308997 -2.3064368 1.405935 -3.7637167 0.7938858
00000000: e54f 9b40 257b f6c0 2306 2ac0 c974 a5c0
00000010: b4d0 ffc0 706c d8c0 344e 2ebd 0b07 513f
00000020: 0c69 1ebf 77ff bebe ff8e 373f 93d5 2440
00000030: b398 563f 1465 7cbf 94d1 4fc0 d55e ad3e
00000040: 789a f4bf 132c 12c0 ac48 1fbf bc2a 90bf
00000050: 7835 0640 9fe0 063f 5722 1740 8814 2740
00000060: ec96 7cbf b092 2fc0 82ac e9bf ded9 8b40
00000070: aa70 efbf 3d3a 25c0 095a 4fc0 b25f 1bbf
00000080: 0532 eabe c9c1 11bf fa2a 0c40 3eda 91be
00000090: 653c a340 4db6 2ebf 8e5e d93f 0463 71bf
000000a0: 9681 5140 73d9 6d40 79f4 c2bf e7ca 3abe
000000b0: ecef 2ac1 68e4 96bf de55 5040 22c3 3cbe
000000c0: ceeb f83e 2189 14c1 1981 0fbf 2770 513e
000000d0: c4f2 74bf 90cb db3f 346f ac3f 04e6 0c40
000000e0: f765 b43f eba5 06c0 7218 7e40 d3fd b3bf
000000f0: bb97 243f 1847 f7bf 8032 e5bf 152f 0b40
00000100: 52fe a5c0 410d 99c0 2d84 a1bf b16c 523f
00000110: b390 8d3f d522 41bf 7579 6f3f f6f4 aebf
00000120: 0340 f1bf e58a 04c0 50ae 2740 6827 083f
00000130: 6314 ae3e c0ce ca40 4c6f d13f f360 473f
00000140: ab5f 37c0 ca65 0abf 8a9b 24c0 28cb 6f3f
00000150: a0fd a040 c624 abbf 2408 e8bf 2f67 e8bf
00000160: 7b13 41c0 925f 9a3e ea69 7cbf 0c28 2e40
00000170: eb40 19c0 b463 483e 7a73 d6be 04b4 a73f
00000180: 21fd 97bf 6e40 473f ed19 78bc e882 91bf
00000190: dda4 bf3f c197 873f 22ee 383f 7525 6940
000001a0: 92ee 0cc0 25d1 6d3f 2b12 5640 65cf 4fbe
000001b0: 3eef 8abf 067f 0dc1 4596 84c0 e2cf 38c0
000001c0: 4e41 e6bf 0a50 39c0 6c92 eb3f f3cc 67c0
000001d0: 23f7 fdc0 d7d6 033e b9de 77c0 4519 12c1
000001e0: b64a 8dbf 87e0 9fbf 58fc a03f a380 aa3f
000001f0: 3c27 893e 7222 dc3f 5c84 403f 7e4d cc3f
00000200: d0bc 08bf eede 39c0 a980 04be 39e2 28c0
00000210: e993 c03f 67a5 32c1 dacb 5cc0 c0de 89c0
00000220: ad55 ccbf da57 493f 686d 133f a960 48c0
00000230: a99c 13c0 aef5 b33f bce0 70c0 1a3c 4b3f

bias_ih_l0 f4 [24]
-1.5057914 0.77301335 0.54828453 0.40289542 -0.8944737 1.794004 -0.38286027 -1.0150356
-1.3320383 -1.3945783 0.7841548 -0.12005214 0.18459795 0.21772356 1.4299991 -0.2914199
-1.2578014 -1.5860256 -2.287851 -0.5426825 -0.8075073 -2.2071474 -3.2504623 -0.18965667
00000000: c6bd c0bf 34e4 453f 605c 0c3f 4f48 ce3e
00000010: 3afc 64bf eca1 e53f 4306 c4be b0ec 81bf
00000020: 3b80 aabf 8b81 b2bf 5ebe 483f e5dd f5bd
00000030: 3f07 3d3e edf2 5e3e 360a b73f fd34 95be
00000040: a3ff a0bf e302 cbbf 276c 12c0 3eed 0abf
00000050: ccb8 4ebf e741 0dc0 9307 50c0 5c35 42be

bias_hh_l0 f4 [24]
-0.94266504 0.057358377 0.68912256 0.63952297 -0.34516722 1.375897 -0.35518432 -1.2476381
-1.2168412 -1.4590769 1.1063327 -0.44566965 0.37327585 -0.37019488 0.99062395 -0.6344926
-1.3579965 -1.6832364 -1.8519286 -0.92393726 -0.83893156 -2.2900827 -2.801613 0.061739143
00000000: 7f52 71bf 9ef0 6a3d 566a 303f c7b7 233f
00000010: c2b9 b0be 651d b03f b8da b5be 9bb2 9fbf
00000020: 74c1 9bbf 08c3 babf 4f9c 8d3f d02e e4be
00000030: 031e bf3e 2f8a bdbe 8899 7d3f 1b6e 22bf
00000040: d4d2 adbf 4a74 d7bf ff0b edbf 2787 6cbf
00000050: 38c4 56bf b790 12c0 a14d 33c0 2fe2 7c3d

weight_ih_l1 f4 [24, 6]
5.373274 0.2199781 0.20238951 -0.22354524 -4.480891 0.7196701 14.245771 -2.303028
4.9761825 -2.433254 -16.211805 -0.42631382 6.312544 -1.2479568 -4.1451564 7.6420774
12.661068 33.887886 -3.6411314 -0.498033 -3.4502652 4.6108146 1.1302496 7.0332623
4.9722342 -0.43524796 1.029311 -0.0367827 -4.934521 -0.0124626905 -14.455079 -0.122517936
-3.5244422 6.3257313 14.550685 1.6063637 4.8821936 1.4565568 5.3679423 -2.7260816
-5.0681987 -3.7651591 -2.645389 -1.2789718 6.2288837 1.3874367 5.5666533 -0.17239125
4.0289264 7.9262757 -6.4741344 3.0345104 3.5309052 -0.087591134 14.372082 5.5336494
-4.349436 0.050912634 -0.50218576 4.9265976 -0.59521765 0.040356096 7.564492 -0.099511735
11.220611 0.1193034 -3.7827795 -0.6483079 -3.0749612 -0.4737406 -0.19793773 -1.653228
-0.58007634 4.657427 -5.9879546 4.9754214 1.0227498 9.691308 -8.344971 3.4580307
-5.9381666 2.5908108 8.176428 1.6425974 3.028107 2.7898898 -4.4493237 4.334359
1.2306191 2.8178215 3.1292841 3.9722636 -2.1648688 0.9265628 -2.6571925 1.7089125
9.361709 -0.28044167 7.466793 -7.278652 -5.665972 -1.8309021 -0.96445674 3.7175167
-3.611479 3.0034513 2.987758 3.386558 21.948092 2.1397698 -1.6764345 3.4425356
-16.874653 5.1412277 6.3036885 3.0836303 1.2374902 3.0187054 -5.216153 0.50035334
-12.563207 -1.0018564 -0.35546133 10.403993 6.3172355 29.574738 -0.37322363 4.10959
-3.9988518 10.156577 6.7048883 14.769649 12.29955 -6.5319643 5.8110785 -6.4680605
-9.695696 -6.6575317 6.0623555 -0.7176461 -1.6258643 14.285064 13.675474 2.7047846
00000000: dcf1 ab40 f041 613e 323f 4f3e 0be9 64be
00000010: 7663 8fc0 4d3c 383f aeee 6341 d064 13c0
00000020: e33c 9f40 6fba 1bc0 c7b1 81c1 ce45 dabe
00000030: 5c00 ca40 0cbd 9fbf 1fa5 84c0 e68b f440
00000040: bc93 4a41 328d 0742 4c08 69c0 2efe febe
00000050: 25d1 5cc0 cb8b 9340 05ac 903f 7c10 e140
00000060: 8b1c 9f40 d2d8 debe 76c0 833f 75a9 16bd
00000070: 99e7 9dc0 5030 4cbc 0148 67c1 afea fabd
00000080: 7690 61c0 646c ca40 9bcf 6841 539d cd3f
00000090: ee3a 9c40 7470 ba3f 2fc6 ab40 1f78 2ec0
000000a0: af2e a2c0 5ef8 70c0 0e4e 29c0 59b5 a3bf
000000b0: 0453 c740 8797 b13f 0622 b240 5587 30be
000000c0: f7ec 8040 0da4 fd40 1c2c cfc0 6b35 4240
000000d0: 5afa 6140 fb62 b3bd 0cf4 6541 a813 b140
000000e0: 942e 8bc0 c489 503d 3f8f 00bf b0a6 9d40
000000f0: 2f60 18bf 6f4c 253d 5210 f240 cfcc cbbd
00000100: 9f87 3341 5755 f43d 0f19 72c0 82f7 25bf
00000110: 2acc 44c0 218e f2be 30b0 4abe fa9c d3bf
00000120: e27f 14bf a409 9540 539d bfc0 a736 9f40
00000130: 77e9 823f 990f 1b41 0085 05c1 6050 5d40
00000140: 7605 bec0 d8cf 2540 a6d2 0241 a240 d23f
00000150: 81cc 4140 8e8d 3240 dc60 8ec0 12b3 8a40
00000160: ed84 9d3f 3057 3440 3146 4840 9139 7e40
00000170: 368d 0ac0 3833 6d3f 710f 2ac0 a5bd da3f
00000180: 8fc9 1541 0d96 8fbe f8ef ee40 b8ea e8c0
00000190: a54f b5c0 005b eabf a3e6 76bf cbeb 6d40
000001a0: 7922 67c0 8c38 4040 6d37 3f40 5ebd 5840
000001b0: b195 af41 fdf1 0840 6895 d6bf 8152 5c40
000001c0: 4aff 86c1 f084 a440 d1b7 c940 335a 4540
000001d0: 1466 9e3f 7832 4140 baea a6c0 2817 003f
000001e0: e502 49c1 d53c 80bf 07ff b5be c176 2641
000001f0: cb26 ca40 1099 ec41 2b17 bfbe c381 8340
00000200: 30ed 7fc0 5781 2241 728e d640 7b50 6c41
00000210: f5ca 4441 da05 d1c0 5bf4 b940 5afa cec0
00000220: 9221 1bc1 800a d5c0 d1fe c140 a8b7 37bf
00000230: 521c d0bf 9f8f 6441 bece 5a41 311b 2d40

weight_hh_l1 f4 [24, 6]
-1.7207443 -1.8214492 0.4824625 1.9413707 0.4918023 0.5007482 5.034524 0.63276994
-0.396339 -0.3312634 -4.072686 0.921063 -2.1654599 5.5775723 0.07937392 -0.09780425
-0.5885417 -2.723455 2.5317562 7.736386 -0.4448221 1.5593448 -2.617109 1.1516742
1.5538695 -0.3676926 -0.2804745 -0.36470684 -1.0399382 0.5118593 1.5902193 -0.24053353
3.334807 5.7695746 2.2579527 -0.25386176 -0.32380506 1.0883592 -1.2002535 -0.7335115
-1.1143821 -1.9822586 1.004154 -2.8828027 5.717057 -2.463471 -0.09599605 -2.6897886
-0.5447228 -0.6724787 -0.1887228 -1.8946009 -2.5895333 -2.995887 3.571367 -1.6607108
1.6622249 0.8705608 -3.320421 2.5676455 0.102049746 -0.33344778 -7.032004 -2.3538864
-0.10893802 7.4974146 5.7318425 -4.511273 -6.2176704 -4.630794 0.8343964 -1.0571795
0.42293674 -2.690363 -0.22774518 -0.3111062 1.1284345 0.5466173 3.092125 -1.9023894
1.618337 5.007698 -3.7188652 2.3878305 0.17459641 3.1721869 -0.28045598 0.22477475
-0.995652 -0.420634 0.04299159 -2.2320368 1.5128728 0.021470621 0.0009968705 0.050500832
-1.4095125 0.9610168 -0.6781204 -3.7760592 0.7779983 -1.3865829 0.76441765 -0.74063367
-0.15691955 -0.3786715 -1.9768792 0.31032774 1.7004273 0.06997534 0.1378615 2.9061608
-4.073909 -0.30877897 -0.5136616 -1.3703171 -1.8000683 4.265545 2.2252254 -0.6605776
2.3699965 -2.4345818 2.8412974 2.2880013 3.7280316 0.9877951 0.8866055 -2.3784885
-0.3566218 -0.81230986 0.39175686 -0.018334903 1.3295724 1.405149 -1.8563753 -1.1036768
0.3516406 -0.8379223 -0.6188213 2.1841657 -0.55177736 2.0237918 1.9408102 -0.27182418
00000000: 5941 dcbf 3f25 e9bf 5305 f73e d67e f83f
00000010: 83cd fb3e 0931 003f d21a a140 36fd 213f
00000020: f2ec cabe 5b9b a9be 7253 82c0 c9ca 6b3f
00000030: e596 0ac0 797b b240 cb8e a23d 984d c8bd
00000040: abaa 16bf 164d 2ec0 4b08 2240 7990 f740
00000050: b9bf e3be 9c98 c73f b77e 27c0 0f6a 933f
00000060: 32e5 c63f 3442 bcbe 5b9a 8fbe dbba babe
00000070: b21c 85bf 3609 033f 4e8c cb3f 6c4e 76be
00000080: 7a6d 5540 5ba0 b840 4c82 1040 2bfa 81be
00000090: c7c9 a5be 5b4f 8b3f e8a1 99bf 69c7 3bbf
000000a0: 13a4 8ebf a6ba fdbf 1e88 803f d77f 38c0
000000b0: 22f2 b640 82a9 1dc0 9499 c4bd 7f25 2cc0
000000c0: f472 0bbf 9027 2cbf 8d40 41be 4882 f2bf
000000d0: eaba 25c0 9dbc 3fc0 4791 6440 2c92 d4bf
000000e0: c9c3 d43f 13dd 5e3f c781 54c0 4e54 2440
000000f0: 75ff d03d abb9 aabe 2d06 e1c0 13a6 16c0
00000100: e61a dfbd d2ea ef40 416b b740 595c 90c0
00000110: 28f7 c6c0 772f 94c0 019b 553f a851 87bf
00000120: 2a8b d83e e82e 2cc0 0836 69be 5049 9fbe
00000130: 8b70 903f 1def 0b3f 60e5 4540 7f81 f3bf
00000140: ab25 cf3f 103f a040 e301 6ec0 37d2 1840
00000150: 67c9 323e 1c05 4b40 ed97 8fbe 5a2b 663e
00000160: 0de3 7ebf 575d d7be f317 303d b1d9 0ec0
00000170: d1a5 c13f 28e3 af3c 6ca9 823a f6d9 4e3d
00000180: e86a b4bf 3205 763f 4c99 2dbf f4aa 71c0
00000190: e62a 473f 8c7b b1bf e0b0 433f 2b9a 3dbf
000001a0: 85af 20be 3be1 c1be 610a fdbf 47e3 9e3e
000001b0: 9aa7 d93f 3b4f 8f3d 912b 0d3e 8afe 3940
000001c0: 765d 82c0 4718 9ebe 547f 03bf 8d66 afbf
000001d0: a368 e6bf 587f 8840 186a 0e40 9d1b 29bf
000001e0: 06ae 1740 30d0 1bc0 d1d7 3540 9d6e 1240
000001f0: 1298 6e40 24e0 7c3f 94f8 623f 2839 18c0
00000200: 2297 b6be 8af3 4fbf 5b94 c83e 1433 96bc
00000210: 6e2f aa3f ecdb b33f b59d edbf 4845 8dbf
00000220: 3d0a b43e 1382 56bf 136b 1ebf 5fc9 0b40
00000230: 4841 0dbf ce85 0140 786c f83f 8a2c 8bbe

bias_ih_l1 f4 [24]
2.3109422 -4.005958 -1.57664 -0.18338747 -2.0440896 -1.9071167 -2.2679358 -4.4572463
-3.2933328 -2.8591526 -3.4966073 -3.8793902 -2.235626 0.24534412 -2.4908657 -1.1643394
-0.56301576 -1.4814036 -3.0736752 -0.42080683 -2.975191 -2.5910485 3.072727 0.29267782
00000000: 7ae6 1340 cf30 80c0 57cf c9bf edc9 3bbe
00000010: 5dd2 02c0 661c f4bf dc25 11c0 c3a1 8ec0
00000020: f7c5 52c0 5bfc 36c0 6ac8 5fc0 ee47 78c0
00000030: 7f14 0fc0 7d3b 7b3e 586a 1fc0 1309 95bf
00000040: cd21 10bf a29e bdbf 18b7 44c0 fe73 d7be
00000050: 8869 3ec0 bdd3 25c0 8fa7 4440 ded9 953e

bias_hh_l1 f4 [24]
2.384924 -3.7388546 -1.3351684 0.28101283 -1.8943967 -1.8107467 -2.0917103 -4.189417
-2.8448677 -3.526785 -4.04369 -4.2576227 -1.830102 0.51068276 -2.4206972 -0.9066018
-0.66279846 -2.0874794 -2.7226617 -0.32075343 -2.5368605 -2.2062924 3.1267016 -0.0043239575
00000000: 98a2 1840 6549 6fc0 cce6 aabf eae0 8f3e
00000010: 977b f2bf 8cc6 e7bf 95de 05c0 b40f 86c0
00000020: 5012 36c0 d8b6 61c0 e965 81c0 723e 88c0
00000030: c840 eabf 1bbc 023f b4ec 1ac0 0e17 68bf
00000040: 29ad 29bf 4399 05c0 1740 2ec0 cb39 a4be
00000050: ec5b 22c0 e533 0dc0 e11b 4840 fcaf 8dbb

weight_ih_l2 f4 [24, 6]
-9.254404 -3.2391005 -13.511549 1.8795531 0.9111145 -0.8753661 13.706517 -6.336735
10.710945 1.9877393 0.7965572 23.918941 1.6874166 -5.6757703 8.42292 0.517505
1.3564773 19.069206 17.070698 -25.841196 2.231184 -12.01284 38.529514 20.319738
7.167614 -16.185497 7.8832307 5.360268 18.661713 16.132656 -0.3976442 0.026017068
1.5617085 0.89275354 -0.45292684 0.5014829 -4.9238477 -5.574321 1.5492299 -1.64647
5.9341426 0.81381375 -0.079325445 -3.931849 -8.316781 0.7296191 4.348039 7.9995236
-1.7792836 -2.5340447 -15.795402 7.087982 -1.3500894 11.323937 -4.4910083 0.029177738
-2.575452 -4.528801 -5.664897 0.44778183 5.25309 -4.8337855 5.508368 4.643606
5.280932 10.537746 -1.4501859 0.087007195 2.2157724 1.3659124 1.0120392 0.1592007
1.7255341 7.0072594 -52.236225 -16.271704 -0.39815646 -1.9153941 2.119418 -9.921491
0.48513576 0.03577566 10.403295 13.652074 0.05428178 8.817196 -8.267915 -0.7322655
-0.8586012 -0.9478777 3.6736143 0.020514952 2.071874 0.5948779 1.4104646 10.013764
-0.2996636 -0.67907953 -0.1912382 -0.8702296 1.4950243 -9.322585 1.8003186 0.6740935
0.2783551 -0.2549557 -0.80286396 -1.8961325 -10.351432 -2.7199318 -5.663022 -2.3822093
0.92471397 -2.057754 -0.1362577 -1.5213923 1.3881189 0.98405117 2.672855 1.549872
-31.740498 -6.423665 3.8765013 4.6180916 5.763886 4.721524 -3.7271233 -4.6912785
6.1640797 -1.2649391 3.5789895 7.432822 8.57284 -25.72026 8.845542 1.8726588
26.076122 11.011531 17.924942 -4.983158 8.381943 7.4015193 -0.89669865 13.235763
00000000: 0a12 14c1 6c4d 4fc0 4e2f 58c1 3295 f03f
00000010: cd3e 693f fe17 60bf e54d 5b41 88c6 cac0
00000020: 0860 2b41 3e6e fe3f 2ceb 4b3f fe59 bf41
00000030: 44fd d73f e99f b5c0 48c4 0641 357b 043f
00000040: 0ca1 ad3f bc8d 9841 ca90 8841 c5ba cec1
00000050: b8cb 0e40 9834 40c1 391e 1a42 d38e a241
00000060: 185d e540 e67b 81c1 6d43 fc40 5187 ab40
00000070: 304b 9541 ae0f 8141 0598 cbbe bf21 d53c
00000080: 10e6 c73f 7f8b 643f 07e6 e7be 2f61 003f
00000090: 2990 9dc0 d660 b2c0 2a4d c63f 87bf d2bf
000000a0: 7fe4 bd40 1956 503f 6175 a2bd 6aa3 7bc0
000000b0: 8911 05c1 51c8 3a3f 2323 8b40 19fc ff40
000000c0: 91bf e3bf ca2d 22c0 f7b9 7cc1 c0d0 e240
000000d0: bbcf acbf d92e 3541 57b6 8fc0 2706 ef3c
000000e0: 35d4 24c0 f0eb 90c0 d646 b5c0 a943 e53e
000000f0: 5019 a840 5fae 9ac0 8d44 b040 6c98 9440
00000100: 65fd a840 9c9a 2841 b19f b9bf d430 b23d
00000110: 37cf 0d40 38d6 ae3f 808a 813f 8205 233e
00000120: 4dde dc3f 783b e040 e5f1 50c2 732c 82c1
00000130: 2adb cbbe a22b f5bf 8ba4 0740 6dbe 1ec1
00000140: b763 f83e 8089 123d e573 2641 e56e 5a41
00000150: 9256 5e3d 3c13 0d41 6149 04c1 c075 3bbf
00000160: 4acd 5bbf 1da8 72bf 7f1c 6b40 f90e a83c
00000170: 9599 0440 eb49 183f 1b8a b43f 6138 2041
00000180: 826d 99be 28d8 2dbf f2d3 43be 5ec7 5ebf
00000190: f55c bf3f 4f29 15c1 d770 e63f 6491 2c3f
000001a0: 8f84 8e3e 8e89 82be 7e88 4dbf 78b4 f2bf
000001b0: 779f 25c1 5d13 2ec0 7a37 b5c0 1e76 18c0
000001c0: 0eba 6c3f 3eb2 03c0 2387 0bbe fcbc c2bf
000001d0: e1ad b13f c7ea 7b3f 0e10 2b40 3562 c63f
000001e0: 8aec fdc1 aa8e cdc0 9918 7840 68c7 9340
000001f0: c171 b840 b916 9740 3089 6ec0 f41e 96c0
00000200: 2440 c540 86e9 a1bf 2a0e 6540 aed9 ed40
00000210: 5a2a 0941 18c3 cdc1 5787 0d41 49b3 ef3f
00000220: e69b d041 3b2f 3041 4866 8f41 0876 9fc0
00000230: 701c 0641 3fd9 ec40 0b8e 65bf afc5 5341

weight_hh_l2 f4 [24, 6]
-0.35294572 -6.9329257 1.9044204 1.9091059 -0.04401197 6.054449 -0.3310392 0.7187193
-1.8385737 1.6899532 -2.1531348 -1.7438052 -0.42806333 -1.7445725 3.3232396 -4.1522965
2.8789573 2.481778 2.7690954 -1.1043493 0.7642842 -0.5653396 -0.9230394 -0.42495245
1.831954 -0.24878159 0.45258927 0.37665522 -0.93797344 0.22545555 -1.7681702 -1.6635966
-1.7104356 -1.7890927 1.4219464 -0.07995424 0.2232139 -1.7282938 -1.6476686 0.69958645
1.5348536 1.5698526 1.06917 -1.5318183 -0.057859752 -0.17944565 1.2796953 1.5201213
-1.3698788 -1.6934777 0.29159763 -0.4771361 1.6654345 0.23177731 2.1452453 -2.6864672
2.4864898 0.21311593 1.801618 2.6059124 2.1627002 -1.0341636 1.7125314 1.7890817
0.4354112 2.2361245 -1.9437019 0.20287092 -0.13270849 -1.4657089 -0.34631944 -1.2357607
-0.020966094 -0.22681743 -0.054888163 -0.51765585 -0.17657699 -0.4403005 0.9812329 0.09826182
0.8630916 -0.60741895 -0.033997584 -1.0655111 0.023756094 0.06686073 -0.03321546 -0.010611238
0.093549795 0.013228652 1.009809 1.6595417 -1.2909418 0.29751518 -1.6232516 -1.5503446
-0.14511855 -1.4655014 0.52093816 -0.71269226 -0.37791947 1.5228564 2.2931063 -0.31074154
1.0563326 1.5647525 -0.19732349 1.0702319 0.7395073 -0.6261946 -0.93582135 0.1974594
-0.73165494 0.81284374 -1.7501065 1.1602263 -1.5106604 -1.3050814 0.09069872 -1.6521602
0.108455576 9.939912 0.812474 3.8721182 -8.061759 -9.112427 -2.0199783 6.086785
-0.53522503 0.016648069 -2.106994 -5.4427996 -1.4158192 0.69217926 -0.9076991 -1.2753744
-0.35580024 -0.8629873 -0.17326218 1.1536425 -1.0380942 1.219464 -1.8743739 0.6362592
00000000: 4db5 b4be 87da ddc0 0cc4 f33f 955d f43f
00000010: e545 34bd 0cbe c140 f87d a9be fdfd 373f
00000020: 6256 ebbf 6350 d83f f6cc 09c0 0235 dfbf
00000030: 1e2b dbbe 274e dfbf f5af 5440 9ddf 84c0
00000040: d640 3840 73d5 1e40 dc38 3140 515b 8dbf
00000050: 21a8 433f 19ba 10bf 4f4c 6cbf 5e93 d9be
00000060: 787d ea3f 9ac0 7ebe c8b9 e73e f4d8 c03e
00000070: 071f 70bf d2dd 663e 6753 e2bf bcf0 d4bf
00000080: 8eef dabf fd00 e5bf 5702 b63f 0cbf a3bd
00000090: 2f92 643e bb38 ddbf cee6 d2bf 1918 333f
000000a0: 1576 c43f eef0 c83f 90da 883f 9f12 c4bf
000000b0: 59fe 6cbd 9ac0 37be 0ecd a33f 5693 c23f
000000c0: 3058 afbf e1c3 d8bf 494c 953e 2f4b f4be
000000d0: f52c d53f 0857 6d3e b34b 0940 14ef 2bc0
000000e0: a622 1f40 103b 5a3e 6b9b e63f 45c7 2640
000000f0: ae69 0a40 795f 84bf 3b34 db3f a100 e53f
00000100: 38ee de3e aa1c 0f40 39cb f8bf 65bd 4f3e
00000110: bce4 07be 599c bbbf c850 b1be 682d 9ebf
00000120: 16c1 abbc d442 68be 69d2 60bd 1885 04bf
00000130: 99d0 34be 116f e1be 1432 7b3f 7e3d c93d
00000140: 92f3 5c3f cf7f 1bbf 0d41 0bbd ab62 88bf
00000150: 249c c23c 47ee 883d ef0c 08bd c2da 2dbc
00000160: 0997 bf3d fdbc 583c 6c41 813f dd6b d43f
00000170: 953d a5bf e953 983e b5c6 cfbf b171 c6bf
00000180: f599 14be 8d95 bbbf 345c 053f 0073 36bf
00000190: a97e c1be f5ec c23f 41c2 1240 8419 9fbe
000001a0: e835 873f cf49 c83f 2b0f 4abe 5cfd 883f
000001b0: 5a50 3d3f 4a4e 20bf fd91 6fbf cc32 4a3e
000001c0: bd4d 3bbf 8716 503f 7d03 e0bf 4c82 943f
000001d0: 525d c1bf e80c a7bf 40c0 b93d fc79 d3bf
000001e0: f51d de3d e109 1f41 4cfe 4f3f c9d0 7740
000001f0: f7fc 00c1 80cc 11c1 5347 01c0 f1c6 c240
00000200: 8204 09bf 8861 883c fdd8 06c0 6a2b aec0
00000210: 9039 b5bf a932 313f f85e 68bf 783f a3bf
00000220: 732b b6be bcec 5cbf a46b 31be 8faa 933f
00000230: 45e0 84bf 6517 9c3f 7ceb efbf e2e1 223f

bias_ih_l2 f4 [24]
-0.03167178 -5.2206235 8.154261 -1.0134721 -1.0182502 0.7891692 -3.6506333 -1.7835948
-2.253998 -0.6254703 -1.588918 1.7877485 0.12958112 0.30066887 -0.12662117 -1.3845701
-0.114395134 -1.0257925 0.12520203 2.644565 3.5132709 -1.6266065 -1.1714258 -4.1537747
00000000: 45ba 01bd 590f a7c0 da77 0241 74b9 81bf
00000010: 0656 82bf fe06 4a3f faa3 69c0 d64c e4bf
00000020: 8141 10c0 d21e 20bf aa61 cbbf f1d4 e43f
00000030: eab0 043e 45f1 993e fba8 01be 9839 b1bf
00000040: ff47 eabd 2b4d 83bf f634 003e 8e40 2940
00000050: 6ed9 6040 a434 d0bf 48f1 95bf b9eb 84c0

bias_hh_l2 f4 [24]
-0.20693177 -5.3767753 8.53353 -0.94055647 -1.4776614 1.3393222 -3.0777655 -1.4485267
-2.212933 -1.0851158 -1.0556146 1.4050452 -0.17758602 0.6895462 0.12442704 -1.4789102
0.27903858 -0.7794156 -0.14652666 2.4362252 3.7761867 -1.6203378 -1.0032432 -4.118594
00000000: ece5 53be 8b0e acc0 5789 0841 4fc8 70bf
00000010: 0224 bdbf e96e ab3f 1cfa 44c0 5369 b9bf
00000020: b2a0 0dc0 13e5 8abf 611e 87bf 85d8 b33f
00000030: 1cd9 35be 1a86 303f 9bd3 fe3d ee4c bdbf
00000040: 25de 8e3e c887 47bf 160b 16be 1deb 1b40
00000050: 0bad 7140 3b67 cfbf 466a 80bf 86cb 83c0

weight_ih_l3 f4 [24, 6]
0.63801175 2.9937782 0.7347434 0.37583992 -0.43010786 -1.7624403 0.04513007 0.09655746
-0.15316197 0.015942078 -0.0042614173 -0.0967842 -13.958328 7.6100936 -6.6121764 -3.8558443
2.8472254 -7.0235925 -0.15149298 1.6413394 -0.08780118 -0.30587015 0.25885883 -0.7855062
0.18353994 1.7486459 -0.05994337 0.4366477 -0.314696 -0.765103 -1.8370811 10.808279
-0.67025346 -2.8736508 2.1635542 -7.958562 0.49488592 5.869257 -4.3450994 2.1187243
-2.3396134 -4.7259927 1.8552313 -3.393965 -1.5908711 -2.6579723 3.9847324 2.5470932
-2.6715004 8.824252 -7.6055465 1.5565026 -0.7981614 -6.511203 -0.934224 -0.9812978
-1.2266197 -2.2004974 2.5727918 0.72724235 8.937998 7.9649024 0.99938583 7.551612
-6.8533683 -6.704724 8.87978 9.139196 1.9784135 10.0192175 -8.313095 -7.2281837
-7.2208276 -3.8864095 -3.6579342 -6.2056203 10.403822 0.5473198 0.20463778 -2.7859573
0.025357626 -1.6826398 3.0244832 2.2679608 -2.3749697 -2.7851317 -1.5286958 -2.8985052
2.2695346 2.789665 -0.10178978 0.47156554 -0.14336638 -0.13216785 0.07915497 -0.49774122
-0.3287236 -2.963302 0.41302964 -1.0440887 1.3930854 3.6428683 0.0033404205 -1.3948597
-0.015855482 0.02429124 0.002116679 2.0720575 -0.17723157 1.7630057 -1.1470853 1.4892445
-2.352338 -1.3591775 0.36066258 4.089197 -1.4554714 0.39039072 -0.77208406 -2.735912
-0.10649248 -0.09220901 0.065819904 -0.08426017 0.056849662 0.1109334 -0.9560472 -1.8002248
-1.197353 -4.020844 3.002771 2.3049653 -1.4182783 4.7653317 -1.2066997 -1.4135543
0.57258594 -3.9669495 -0.40751573 2.775313 -0.047354292 0.065832205 -0.12855634 -2.226426
00000000: bd54 233f 109a 3f40 2518 3c3f 176e c03e
00000010: 1937 dcbe a597 e1bf 4fda 383d ebbf c53d
00000020: 7ed6 1cbe f698 823c 5ca3 8bbb cb36 c6bd
00000030: 5055 5fc1 e385 f340 f396 d3c0 27c6 76c0
00000040: f138 3640 45c1 e0c0 fa20 1bbe 6917 d23f
00000050: 1bd1 b3bd 039b 9cbe 2589 843e ef16 49bf
00000060: e5f1 3b3e a1d3 df3f 2e87 75bd 4a90 df3e
00000070: d61f a1be cadd 43bf 7925 ebbf b6ee 2c41
00000080: bb95 2bbf e5e9 37c0 ac77 0a40 8aac fec0
00000090: b061 fd3e f4d0 bb40 0e0b 8bc0 2e99 0740
000000a0: 3abc 15c0 553b 97c0 3878 ed3f b936 59c0
000000b0: aaa1 cbbf 381c 2ac0 db05 7f40 9303 2340
000000c0: ddf9 2ac0 2330 0d41 a360 f3c0 7a3b c73f
000000d0: 4e54 4cbf c65b d0c0 4e29 6fbf 5536 7bbf
000000e0: e001 9dbf f3d4 0cc0 9fa8 2440 8e2c 3a3f
000000f0: 0a02 0f41 7be0 fe40 c0d7 7f3f cea6 f140
00000100: cb4e dbc0 198d d6c0 9413 0e41 263a 1241
00000110: a73c fd3f b74e 2041 7002 05c1 484d e7c0
00000120: 0511 e7c0 efba 78c0 981b 6ac0 7194 c6c0
00000130: 0e76 2641 271d 0c3f 918c 513e 204d 32c0
00000140: ccba cf3c be60 d7bf 2291 4140 4526 1140
00000150: 81ff 17c0 993f 32c0 4eac c3bf 1c81 39c0
00000160: 0e40 1140 df89 3240 2977 d0bd 0a71 f13e
00000170: a3ce 12be 0257 07be 001c a23d f0d7 febe
00000180: 764e a8be bda6 3dc0 9f78 d33e b3a4 85bf
00000190: 9f50 b23f c124 6940 f5ea 5a3b c38a b2bf
000001a0: 5be3 81bc 6cfe c63c fbb7 0a3b 979c 0440
000001b0: 317c 35be 2caa e13f b1d3 92bf 909f be3f
000001c0: b58c 16c0 87f9 adbf c4a8 b83e b4da 8240
000001d0: e34c babf 4be1 c73e 4da7 45bf 2f19 2fc0
000001e0: bb18 dabd 14d8 bcbd 96cc 863d 9990 acbd
000001f0: 31db 683d 0d31 e33d 82bf 74bf c46d e6bf
00000200: dd42 99bf c1aa 80c0 662d 4040 8d84 1340
00000210: 258a b5bf 997d 9840 2375 9abf 59ef b4bf
00000220: fe94 123f 80e2 7dc0 e7a5 d0be ba9e 3140
00000230: 93f6 41bd 09d3 863d 46a4 03be c37d 0ec0

weight_hh_l3 f4 [24, 6]
0.531505 0.276053 3.26036 -0.938703 -1.7133718 0.2792319 -0.43363103 -0.39395723
3.686252 -1.1526387 -0.38458306 0.19210678 -0.24263445 -1.6325107 2.134373 -1.5154868
1.4837954 -0.89213914 -1.2022294 -1.4845885 2.010883 -2.1718855 1.4943603 -1.2348455
-3.2034183 -4.747418 0.17634116 -2.7815742 -3.454806 -9.561868 0.34422284 0.07531935
-0.6762397 -2.0210865 -0.16850214 -1.0183078 1.6254727 -1.0125507 0.8481869 7.466955
0.74709755 -1.233329 -0.17176564 2.5913358 0.4897623 -2.8131576 1.6758318 1.1070958
3.6635735 0.14174421 -0.4952376 -5.976967 1.2661934 -1.0630147 0.82644606 3.4992244
-0.86607474 0.15195365 -2.806775 3.7304738 2.5797434 -0.67414117 -1.3927844 -6.9259567
0.12725715 0.12738977 -0.6521849 0.9038079 -0.65290254 -2.4333634 1.4085515 2.871405
-0.21001907 0.25959736 0.41582742 -0.26101628 0.19281778 0.07865317 0.052328788 0.35751903
0.14155415 -1.287241 0.34927368 -0.42474818 0.31385714 -0.057859335 -1.8390428 0.38185382
-1.9995815 1.2490642 1.3893554 2.1262143 -0.86442065 -1.963042 -0.62037784 1.4178915
0.8111195 0.0716999 -0.325194 0.59684855 0.09815255 -0.2109132 0.14818771 2.1331356
-2.7081726 2.3932412 1.785124 0.60456765 0.13770519 1.1226189 1.1020017 0.18296462
1.6252943 1.3243089 0.9362633 5.8840375 0.115820535 -6.5359726 -3.8387249 0.15765813
0.5997258 0.12874332 3.0295744 -0.11242226 -1.2762027 0.043808024 -0.5261937 -1.3418273
1.6517128 -0.011665338 10.479729 -0.49666 0.011760354 -0.87520385 -0.939234 -4.6888075
-2.776113 1.4605827 1.6817254 1.4066727 3.6163893 -2.0006106 -6.511676 1.0431085
00000000: b610 083f d256 8d3e bda9 5040 d74e 70bf
00000010: c44f dbbf 7cf7 8e3e e304 debe c3b4 c9be
00000020: 8eeb 6b40 aa89 93bf 12e8 c4be a4b7 443e
00000030: 2a75 78be 1cf6 d0bf 9199 0840 79fb c1bf
00000040: 02ed bd3f 3b63 64bf a7e2 99bf ff06 bebf
00000050: 4fb2 0040 2c00 0bc0 3347 bf3f 6b0f 9ebf
00000060: ce04 4dc0 d9ea 97c0 c792 343e 5005 32c0
00000070: 8b1b 5dc0 69fd 18c1 fa3d b03e 0841 9a3d
00000080: 0c1e 2dbf 7b59 01c0 d38b 2cbe e957 82bf
00000090: 7d0f d03f 439b 81bf c722 593f 4cf1 ee40
000000a0: c941 3f3f badd 9dbf 55e3 2fbe 72d8 2540
000000b0: 20c2 fa3e c60a 34c0 a881 d63f 51b5 8d3f
000000c0: fd77 6a40 6525 113e c88f fdbe 5043 bfc0
000000d0: a012 a23f de10 88bf f891 533f 4bf3 5f40
000000e0: 13b7 5dbf bd99 1b3e 34a2 33c0 15c0 6e40
000000f0: 841a 2540 8494 2cbf c246 b2bf 70a1 ddc0
00000100: b34f 023e 7772 023e 97f5 26bf f45f 673f
00000110: 9f24 27bf 3abc 1bc0 6a4b b43f 19c5 3740
00000120: 3d0f 57be f2e9 843e 55e7 d43e eda3 85be
00000130: 0672 453e ea14 a13d b656 563d bc0c b73e
00000140: 92f3 103e 50c4 a4bf 00d4 b23e 9878 d9be
00000150: e2b1 a03e e9fd 6cbd c165 ebbf 5882 c33e
00000160: 49f2 ffbf 56e1 9f3f 66d6 b13f e513 0840
00000170: ac4a 5dbf f644 fbbf 15d1 1ebf 787d b53f
00000180: 87a5 4f3f 66d7 923d d47f a6be 11cb 183f
00000190: 3404 c93d a1f9 57be 85be 173e 4b85 0840
000001a0: b352 2dc0 dd2a 1940 f17e e43f f2c4 1a3f
000001b0: 9702 0d3e fab1 8f3f 640e 8d3f 145b 3b3e
000001c0: a509 d03f f482 a93f f4ae 6f3f 094a bc40
000001d0: 5133 ed3d b026 d1c0 abad 75c0 2271 213e
000001e0: a187 193f 4ad5 033e 8ce4 4140 a43d e6bd
000001f0: 9c5a a3bf 0b70 333d a1b4 06bf ffc0 abbf
00000200: 536b d33f f91f 3fbc f8ac 2741 384a febe
00000210: 80ae 403c 5c0d 60bf a471 70bf b60a 96c0
00000220: d6ab 31c0 60f4 ba3f c742 d73f da0d b43f
00000230: ec72 6740 010a 00c0 a65f d0c0 9484 853f

bias_ih_l3 f4 [24]
0.5078503 0.37836242 -0.3621691 0.14742881 0.33819893 -1.1327295 -2.0371287 1.3901298
-0.70437354 0.44694385 -3.137599 -0.99991393 -0.30076206 0.045631528 -0.25204265 -0.278588
0.39784664 0.114373304 2.4933 -0.033445694 0.3711366 0.20091102 -0.0941822 1.034411
00000000: 7a02 023f b8b8 c13e 3a6e b9be 94f7 163e
00000010: 6928 ad3e 48fd 90bf 5160 02c0 c6ef b13f
00000020: d351 34bf d3d5 e43e 6cce 48c0 5cfa 7fbf
00000030: 7cfd 99be 20e8 3a3d bc0b 81be 16a3 8ebe
00000040: 8eb2 cb3e 8d3c ea3d 3a92 1f40 5afe 08bd
00000050: 9e05 be3e 9ebb 4d3e 99e2 c0bd 9467 843f

bias_hh_l3 f4 [24]
0.32425463 0.58556986 -0.041439712 -0.40902624 0.0734571 -0.4747849 -1.6794786 0.9767898
-0.6966855 0.64329815 -3.6646118 -1.5583472 0.1315861 0.2092938 0.14702417 -0.57720435
0.49934444 0.35483512 2.1133218 0.16270041 0.40355408 0.04287084 0.2949546 1.2557912
00000000: b404 a63e e8e7 153f b0bc 29bd e36b d1be
00000010: ad70 963d 0217 f3be 28f9 d6bf e50e 7a3f
00000020: fb59 32bf 30af 243f 0089 6ac0 ec77 c7bf
00000030: 82be 063e 1d51 563e 818d 163e aac3 13bf
00000040: 13aa ff3e f3ac b53e aa40 0740 f09a 263e
00000050: a49e ce3e 5599 2f3d 4a04 973e c4bd a03f

weight f4 [568, 6]
0.17332731 1.2491812 -1.0925813 0.1461154 1.6413027 1.7111701 -0.39939448 -0.54336375
-0.13413562 -0.32003027 1.0132544 -1.29059 -1.3410003 -1.6427429 2.1555166 1.6753469
1.85538 -1.7672006 -0.09519351 0.43863466 -0.5094149 -0.8200375 2.1122563 -0.14861459
-0.8233624 -0.21209964 -0.9498589 -1.4673691 -1.1431227 -0.25254032 0.82086265 0.43235996
2.13389 0.6311255 -2.445597 0.7544707 -0.8689539 -0.70341146 -0.2558496 -1.0611567
-1.6154933 -0.4874685 -1.7998601 0.40626043 1.7106862 1.8492153 1.3443569 -1.1787283
-2.058662 1.4198246 -1.0364385 1.7663635 -3.0654566 0.9185947 0.0022279697 0.5932533
-0.29302123 0.017865626 0.7634965 0.28511605 -1.3855367 -1.3140888 1.5895875 0.98214394
1.7181034 -1.6347017 -0.04642424 -0.2669943 0.40981185 -0.27160043 1.5682386 -1.1667484
-0.073679894 -1.1354733 0.25660482 -0.55834496 -3.1955087 -0.7259279 1.4234693 0.5871478
-0.75843173 -0.8857025 1.0793526 0.33038786 -0.7252997 -0.2624329 0.69170797 0.64914924
2.1024306 -1.0723284 -0.07382706 1.1812083 -0.9401137 0.62536955 2.8777966 1.0911146
-0.5273928 1.001827 0.1833901 0.8478186 0.8733423 0.20158887 0.9720584 0.16520551
-0.6876227 -1.1819847 1.5958198 0.034353267 1.0219729 0.28009474 0.46928543 -1.4715494
1.4260521 0.22290243 1.1100605 -0.3703845 -1.4732742 -1.6958183 -0.5618557 -0.35342646
-0.18570259 0.42035708 0.5181357 0.3007817 1.7867823 -1.2132403 0.7863324 0.93095434
0.365076 -0.16419701 -2.8911786 1.458818 3.728104 1.4893333 3.8534226 3.4045007
3.131889 -0.54862803 0.58101445 -0.31280717 -1.2632875 -1.3583491 -0.52646303 -0.4334309
0.31896898 0.1016343 0.08521263 0.38709322 -4.0019855 0.23684788 3.255022 1.2436897
-0.57318294 -0.39053163 1.3781612 2.1738365 0.76342577 -0.10877412 -1.4280678 -1.4422845
0.57681125 -0.059474558 -0.7501232 -1.4584049 0.6466378 -0.23852597 -1.181903 -1.1674974
-0.78168833 -1.416319 0.30849263 -0.24995852 -0.48938853 -1.1081685 1.8129507 0.8746927
0.12274138 -0.57199097 1.1926719 0.23504618 -2.5425243 1.1126783 0.20391707 0.8522257
1.0440062 0.3414505 -2.8139534 1.0648102 0.84803003 -0.15300632 1.6556753 1.5822866
0.17695934 -0.779093 -0.26920614 -0.72487456 -1.4838816 -0.45191014 -0.033056613 0.672521
-0.74117553 -0.27291837 0.43582183 0.2844209 0.61206156 -0.31930497 -0.7643555 -1.7367944
0.16399188 -0.56400514 1.2745893 0.57048273 -1.6882924 -1.5473403 1.3328462 0.4602209
-0.5534778 -0.4584241 -0.057187833 -0.49500412 -1.9782537 -0.6837698 0.3453761 1.0373783
-0.0864857 -0.20797169 1.9868159 -0.34699598 0.7213294 1.3069038 1.0251675 1.2406034
1.958727 1.4288859 -0.6533825 -1.64475 0.7957539 0.0032631122 -0.29072103 -1.1850163
1.6921334 1.056391 1.3118397 1.0416768 2.2655232 1.3128672 1.1709858 0.12958668
1.2658341 -0.29933462 1.4948086 0.12681869 -0.3309941 0.2650518 0.24151425 -0.079816915
00000000: b77c 313e 2be5 9f3f b4d9 8bbf 479f 153e
00000010: 3516 d23f 9f07 db3f 6f7d ccbe e319 0bbf
00000020: d95a 09be 02db a3be 52b2 813f 0e32 a5bf
00000030: e6a5 abbf 6645 d2bf fcf3 0940 c471 d63f
00000040: 187d ed3f a133 e2bf d1f4 c2bd b994 e03e
00000050: 0469 02bf faed 51bf 352f 0740 6c2e 18be
00000060: e1c7 52bf a630 59be f429 73bf c0d2 bbbf
00000070: d851 92bf f74c 81be 0e24 523f 495e dd3e
00000080: a791 0840 7191 213f a984 1cc0 fe24 413f
00000090: c373 5ebf c612 34bf b8fe 82be fcd3 87bf
000000a0: 7cc8 cebf 7995 f9be d161 e6bf 5e01 d03e
000000b0: c4f7 da3f 16b3 ec3f e313 ac3f 92e0 96bf
000000c0: 1ec1 03c0 d0bc b53f 04aa 84bf 3318 e23f
000000d0: 7130 44c0 0629 6b3f 2103 123b 73df 173f
000000e0: e106 96be ef5a 923c 8274 433f bbfa 913e
000000f0: 4459 b1bf 1034 a8bf 9a77 cb3f c96d 7b3f
00000100: d0ea db3f e83d d1bf 5827 3ebd 7ab3 88be
00000110: dcd2 d13e 360f 8bbe 0bbc c83f 0358 95bf
00000120: 7ce5 96bd 3057 91bf b561 833e b2ef 0ebf
00000130: 3783 4cc0 69d6 39bf 3e34 b63f 514f 163f
00000140: 9528 42bf 66bd 62bf 3a28 8a3f 9928 a93e
00000150: 3ead 39bf 9b5d 86be c613 313f a52e 263f
00000160: 398e 0640 0f42 89bf a432 97bd d531 973f
00000170: 4bab 70bf 3818 203f d22d 3840 a5a9 8b3f
00000180: 3703 07bf de3b 803f 9dca 3b3e a40a 593f
00000190: 5c93 5f3f 506d 4e3e d2d8 783f a22b 293e
000001a0: 0b08 30bf 464b 97bf d343 cc3f 03b6 0c3d
000001b0: 02d0 823f 9468 8f3e 2e46 f03e bb5b bcbf
000001c0: e088 b63f 8940 643e 7616 8e3f 0aa3 bdbe
000001d0: 4094 bcbf 9310 d9bf c6d5 0fbf 50f4 b4be
000001e0: d228 3ebe 0b39 d73e 8ba4 043f 0f00 9a3e
000001f0: 48b5 e43f 754b 9bbf 154d 493f 0653 6e3f
00000200: 3eeb ba3e 4323 28be 1209 39c0 8cba ba3f
00000210: 4299 6e40 79a2 be3f 7a9e 7640 57e3 5940
00000220: df70 4840 e372 0cbf 5dbd 143f 4328 a0be
00000230: 68b3 a1bf 62de adbf 48c6 06bf a8ea ddbe
00000240: e74f a33e a525 d03d f683 ae3d 1531 c63e
00000250: 4410 80c0 4088 723e 4852 5040 3931 9f3f
00000260: 1ebc 12bf c3f3 c7be 9667 b03f 2320 0b40
00000270: df6f 433f f7c4 debd edca b6bf c79c b8bf
00000280: e7a9 133f 989b 73bd 1308 40bf 03ad babf
00000290: 0e8a 253f 2740 74be 9948 97bf 8e70 95bf
000002a0: ba1c 48bf f149 b5bf bff2 9d3e 20f5 7fbe
000002b0: 2291 fabe 77d8 8dbf c50e e83f dceb 5f3f
000002c0: d55f fb3d 006e 12bf 79a9 983f f2af 703e
000002d0: b8b8 22c0 3e6c 8e3f a3cf 503e 772b 5a3f
000002e0: ffa1 853f 9ad2 ae3e d017 34c0 b34b 883f
000002f0: 7f18 593f b0ad 1cbe 2bed d33f 5e88 ca3f
00000300: d434 353e a472 47bf 63d5 89be 6191 39bf
00000310: d5ef bdbf c460 e7be 5f66 07bd 562a 2c3f
00000320: aebd 3dbf f5bb 8bbe 0a24 df3e 9e9f 913e
00000330: 11b0 1c3f f17b a3be cdac 43bf 474f debf
00000340: 7ded 273e a462 10bf be25 a33f 280b 123f
00000350: f719 d8bf 3f0f c6bf b49a aa3f 13a2 eb3e
00000360: b9b0 0dbf 90b6 eabe ca3d 6abd 2e71 fdbe
00000370: 6b37 fdbf 8a0b 2fbf 23d5 b03e d0c8 843f
00000380: 6a1f b1bd 88f6 54be fc4f fe3f 75a9 b1be
00000390: 0ba9 383f a048 a73f b038 833f 18cc 9e3f
000003a0: 91b7 fa3f bce5 b63f 1344 27bf 2b87 d2bf
000003b0: 87b6 4b3f f0d9 553b 63d9 94be 9dae 97bf
000003c0: d497 d83f d237 873f 5dea a73f aa55 853f
000003d0: 55fe 1040 080c a83f dde2 953f 5fb2 043e
000003e0: da06 a23f 6342 99be e355 bf3f c2dc 013e
000003f0: 0f78 a9be dfb4 873e 834f 773e 0d77 a3bd

bias f4 [568]
-0.35944563 -4.797213 0.12587874 -5.0557213 -5.7372594 -5.815115 -5.7159452 -0.20399204
-2.291584 -6.8207903 -4.713837 -3.497392 -6.9289203 0.5128023 -5.925048 -6.4343715
-5.167578 -5.600613 -6.3387837 -5.9786515 -0.034308784 -5.502069 -0.62326163 -5.6706533
-6.6473045 2.1854224 -3.3640583 -6.9691453 -6.764182 1.1238153 -1.1131147 -0.718863
-6.8262095 -6.502468 -4.8928175 -4.42361 -6.857131 -0.3023068 1.1237148 -6.564996
-3.3604877 -6.3328457 -7.0725474 -5.231722 -0.22744137 -1.156323 -5.5875373 -5.670933
1.3412873 -2.2961285 -5.834713 -0.46194494 -1.9101517 -6.994486 -6.31717 0.86152095
-2.0214117 -6.704164 -6.8067427 -3.4640167 -6.8569183 -6.054644 -2.0963929 -5.8888392
0.16919461 -6.4751577 -1.108924 -4.184406 -5.857717 -1.3936543 -6.051755 -1.7500095
-2.102557 -7.161876 -4.6081433 -0.050325863 -5.896698 -0.5905284 -4.2449107 -3.1832821
1.3001823 -6.4521456 -0.032753017 -1.6112349 -6.788955 -6.5737004 1.3081139 -0.869901
2.0248682 -6.103827 -6.9148083 -2.6154845 -4.696663 -6.885537 -6.5515037 -4.5550485
-2.0274684 -3.8690374 -1.5180291 -6.813094 -0.775515 -4.2907853 -1.4621423 1.8928783
-4.3137083 -5.145029 -6.2894864 -6.624949 -0.6893914 -5.7828455 -4.523764 -1.9280418
-6.193177 -4.925307 -0.11300935 -4.275773 -2.5971258 -3.4741235 -0.95646054 0.25080365
-6.464268 -6.6533713 -6.7301784 -5.202317 -2.9511 0.67651916 -5.794618 0.9875446
-0.6146217 -6.2741823 -5.6693773 -6.691744 -3.6890986 -6.9753213 -1.7951576 0.19770342
-5.5331273 -3.3123612 -0.6241095 -2.2069116 -5.9291954 -6.80206 -6.6259437 -3.5198607
-3.4769928 -5.447527 -6.091831 -4.217181 -6.80598 -0.9310442 -2.026596 0.051362813
-6.7323475 -5.795026 -5.556089 -2.6478314 -1.1636398 -4.1838417 -6.3479905 -0.97688234
1.0298264 -6.0768085 -5.5043235 -4.320502 -0.76447725 -6.8701644 -6.769607 -6.427173
-4.3549733 -6.791367 -6.933359 0.2041317 -6.4991417 -7.0367723 -2.2173448 -6.9914556
-5.7412353 -5.05928 -5.2538257 -6.8183193 -5.2757792 1.5366057 -2.6302638 -0.8858554
-5.8080096 0.45354235 -6.131993 -0.31650913 -1.0415636 -0.28771827 0.4085931 -2.709418
1.7401086 -6.00643 -5.093759 -2.1818018 -6.493144 -0.06820579 -2.6403227 -6.2026844
-0.5791024 -6.2604313 -6.233805 -5.9145846 -6.2836046 -1.4907802 -1.8347821 -6.738765
-6.4384804 -3.8695786 -5.57489 -2.1354723 2.0220249 -3.165622 1.16406 -1.4861571
-3.0167754 -6.437446 -6.2308517 -3.8394659 -1.0418957 -3.5199482 -4.285985 -5.750587
-2.5055044 -3.8573654 -2.742326 -4.9477305 0.16599776 1.0429455 1.6864291 -5.683072
1.3711275 -3.2968614 -6.944434 -1.8408718 0.93928945 -5.39407 -5.130488 -6.6984367
-5.351203 -0.7136222 -3.602823 -3.526448 -4.335341 -7.127015 -4.2638683 -3.7020328
-2.578625 -5.2515035 -3.1898544 -3.6562316 0.3727882 -1.9873753 -6.5095005 -1.3195257
00000000: 4209 b8be c582 99c0 5be6 003e 78c8 a1c0
00000010: a197 b7c0 6c15 bac0 06e9 b6c0 4ae3 50be
00000020: 50a9 12c0 ea43 dac0 c1d7 96c0 45d5 5fc0
00000030: b7b9 ddc0 0347 033f fe99 bdc0 5fe6 cdc0
00000040: cd5c a5c0 3938 b3c0 51d7 cac0 1d51 bfc0
00000050: 5e87 0cbd f310 b0c0 138e 1fbf fe75 b5c0
00000060: b8b6 d4c0 f6dd 0b40 bb4c 57c0 3d03 dfc0
00000070: 2e74 d8c0 2ed9 8f3f 8b7a 8ebf 6807 38bf
00000080: 4f70 dac0 3814 d0c0 f691 9cc0 378e 8dc0
00000090: 9e6d dbc0 f5c7 9abe e3d5 8f3f 7214 d2c0
000000a0: 3b12 57c0 aca6 cac0 4f52 e2c0 446a a7c0
000000b0: 64e6 68be 6402 94bf 1bcd b2c0 4878 b5c0
000000c0: 4daf ab3f c5f3 12c0 f8b5 bac0 0c84 ecbe
000000d0: da7f f4bf d4d2 dfc0 4226 cac0 a38c 5c3f
000000e0: cf5e 01c0 8388 d6c0 d6d0 d9c0 73b2 5dc0
000000f0: e06b dbc0 a5bf c1c0 4d2b 06c0 5f71 bcc0
00000100: 5a41 2d3e 7e34 cfc0 39f1 8dbf a7e6 85c0
00000110: 6b72 bbc0 4463 b2bf faa7 c1c0 5000 e0bf
00000120: 4b90 06c0 172e e5c0 e975 93c0 7e22 4ebd
00000130: c0b1 bcc0 df2c 17bf 4fd6 87c0 e5ba 4bc0
00000140: 606c a63f fa77 cec0 0728 06bd f23c cebf
00000150: 1f3f d9c0 c15b d2c0 4770 a73f d5b1 5ebf
00000160: 7197 0140 8d52 c3c0 1c46 ddc0 1964 27c0
00000170: 104b 96c0 5256 dcc0 eba5 d1c0 f5c2 91c0
00000180: 0bc2 01c0 4f9e 77c0 c74e c2bf de04 dac0
00000190: 2788 46bf 1d4e 89c0 7b27 bbbf d649 f23f
000001a0: e609 8ac0 14a4 a4c0 7943 c9c0 95ff d3c0
000001b0: f47b 30bf 120d b9c0 adc2 90c0 13ca f6bf
000001c0: 822e c6c0 1d9c 9dc0 7271 e7bd 22d3 88c0
000001d0: 4f37 26c0 0a58 5ec0 99da 74bf 5669 803e
000001e0: 49db cec0 6be8 d4c0 9f5d d7c0 6279 a6c0
000001f0: d3de 3cc0 5c30 2d3f 836d b9c0 b9cf 7c3f
00000200: d957 1dbf 1ac6 c8c0 8a6b b5c0 c422 d6c0
00000210: 311a 6cc0 d535 dfc0 b9c7 e5bf c472 4a3e
00000220: 610f b1c0 bafd 53c0 a4c5 1fbf 0a3e 0dc0
00000230: f8bb bdc0 7aaa d9c0 bb07 d4c0 6645 61c0
00000240: 0d87 5ec0 2452 aec0 48f0 c2c0 26f3 86c0
00000250: 97ca d9c0 ea58 6ebf c0b3 01c0 d061 523d
00000260: 646f d7c0 da70 b9c0 7bcb b1c0 1276 29c0
00000270: 26f2 94bf 08e2 85c0 bd22 cbc0 f614 7abf
00000280: 5ad1 833f 3775 c2c0 6b23 b0c0 8d41 8ac0
00000290: c8b4 43bf 63d8 dbc0 9fa0 d8c0 67ab cdc0
000002a0: f15b 8bc0 e152 d9c0 14de ddc0 e607 513e
000002b0: f8f8 cfc0 3d2d e1c0 fae8 0dc0 01ba dfc0
000002c0: 33b8 b7c0 9fe5 a1c0 571f a8c0 ac2f dac0
000002d0: 2fd3 a8c0 7faf c43f 3e56 28c0 6bc7 62bf
000002e0: 37db b9c0 b436 e83e 4939 c4c0 7c0d a2be
000002f0: f551 85bf cf4f 93be 1d33 d13e 1b67 2dc0
00000300: e1bb de3f ad34 c0c0 1300 a3c0 a4a2 0bc0
00000310: d6c7 cfc0 7aaf 8bbd 0cfb 28c0 647c c6c0
00000320: 0e40 14bf 7455 c8c0 557b c7c0 4744 bdc0
00000330: 4a13 c9c0 e3d1 bebf 24da eabf f6a3 d7c0
00000340: 0808 cec0 2da7 77c0 8065 b2c0 94ab 08c0
00000350: db68 0140 8d99 4ac0 ebff 943f 653a bebf
00000360: d912 41c0 8fff cdc0 2363 c7c0 cfb9 75c0
00000370: d75c 85bf d546 61c0 ca26 89c0 cf04 b8c0
00000380: 2f5a 20c0 13df 76c0 4582 2fc0 cf53 9ec0
00000390: 51fb 293e 3d7f 853f e9dc d73f badb b5c0
000003a0: 1b81 af3f c7ff 52c0 ce38 dec0 b0a1 ebbf
000003b0: 4675 703f 399c acc0 f52c a4c0 9859 d6c0
000003c0: 0e3d abc0 f2af 36bf a794 66c0 53b1 61c0
000003d0: 1dbb 8ac0 8210 e4c0 9c71 88c0 1bee 6cc0
000003e0: 3108 25c0 510c a8c0 9326 4cc0 b3ff 69c0
000003f0: 18de be3e 5062 febf d44d d0c0 38e6 a8bf
